experiments/weights/m202_MultiOutput_20230518_114418/best_loss-0.pth (torch, 384129 bytes, 138 tensors)

signal_classifier.stem.0.0.weight f4 [32, 1, 11]
0	0x3f120a63	0.570471
1	0x3c7ab561	0.015302033
2	0xbdae2854	-0.08503786
3	0x3e175533	0.14778595
4	0x3f12b31a	0.5730454
5	0xbed2d16b	-0.41175398
6	0xbeabf100	-0.33582306
7	0xbeca9c40	-0.39572334
8	0xbf122310	-0.5708475
9	0xbe2721a3	-0.16321425
10	0x3eff6fb1	0.498899
11	0x3f359561	0.7093106
12	0x3d323d6c	0.043515608
13	0x3e286d98	0.16448057
14	0xbc0df248	-0.008663721
15	0xbe7cadc2	-0.24675658
16	0x3e4df374	0.20112401
17	0xbec4771f	-0.38372132
18	0xbf10bafb	-0.5653531
19	0xbeb5025f	-0.35353372
20	0xbd91d7c8	-0.07121235
21	0x3f08f05a	0.5349175
22	0x3f81d39a	1.0142701
23	0x3f313068	0.6921449
24	0xbc0afb62	-0.008482786
25	0xbe8b81f9	-0.272476
26	0x3f0a2322	0.5395986
27	0xbe3c6ff8	-0.18402088
28	0xbefee5cb	-0.49784693
29	0xbdf3db08	-0.11907011
30	0x3ecd47ec	0.40093935
31	0x3d657a58	0.05602488
32	0x3e5782cd	0.2104599
33	0x3e511379	0.20417584
34	0xbea3822e	-0.31935257
35	0x3f48074e	0.78136146
36	0x3e48acf0	0.1959722
37	0xbe322638	-0.17397392
38	0x3f2b2b0a	0.6686255
39	0xbecf699e	-0.40510267
40	0xbe397321	-0.18110324
41	0xbe6ecc46	-0.23320112
42	0xbe8538a4	-0.26019776
43	0x3e809555	0.2511393
44	0xbe9660e4	-0.29370797
45	0xbe845d74	-0.2585255
46	0x3e3e09b2	0.18558386
47	0x3d3f36b7	0.04668304
48	0xbe7dee4c	-0.24797934
49	0x3e2e129e	0.1699929
50	0xbe606279	-0.21912564
51	0xbebb3122	-0.36560923
52	0x3e7e7225	0.2484823
53	0xbe9a43ac	-0.30129755
54	0x3f6d580f	0.9271249
55	0xbf00bfb2	-0.50292504
56	0x3eb7b07e	0.3587684
57	0xbcbedfc5	-0.023300061
58	0x3e12d3d2	0.14338616
59	0xbf2eac2b	-0.6823146
60	0xbdcff14b	-0.10153445
61	0x3ddc42c2	0.107549205
62	0x3ec57fc1	0.3857403
63	0xbe5e3531	-0.21699978
64	0x3e59b76a	0.21261373
65	0x3dc30c46	0.09523825
66	0x3ce694a3	0.028147047
67	0xbeded370	-0.4352069
68	0xbea0ccae	-0.31406158
69	0xbf0d80de	-0.5527476
70	0x3f68e633	0.90976256
71	0xbe928e1b	-0.28624043
72	0x3e5c4311	0.21509959
73	0x3e697702	0.22799304
74	0xbe9b7bfd	-0.30368033
75	0x3e9ad8f6	0.30243653
76	0x3f21bf78	0.63182783
77	0xbdc3f788	-0.09568697
78	0x3f7edd28	0.9955621
79	0xbe118173	-0.14209537
80	0xbf419ad1	-0.75626856
81	0xbf0530c7	-0.52027553
82	0x3ea72d87	0.32651922
83	0x3d8d6276	0.069035456
84	0xbd9364bb	-0.07196947
85	0xbd68d43b	-0.056843024
86	0xbf4b2ca2	-0.7936498
87	0x3e9c6a2f	0.30549762
88	0x3e9094dd	0.28238574
89	0x3f043e84	0.5165789
90	0xbf19277d	-0.5982588
91	0xbe8ec2b7	-0.2788293
92	0x3e6da84c	0.23208731
93	0xbebe8a79	-0.3721502
94	0xbe4bc54f	-0.19899486
95	0x3e74a04d	0.23889275
96	0xbd267015	-0.040634234
97	0xbf1d82fd	-0.61528
98	0xbf66ed80	-0.90206146
99	0x3db2bfdc	0.087280005
100	0x3dd7f8b6	0.10545485
101	0xbd9c6c5d	-0.07637856
102	0xbeaa182a	-0.3322156
103	0x3e5406c8	0.20705712
104	0xbe46053c	-0.19337934
105	0xbea12cda	-0.31479532
106	0xbf08926b	-0.53348416
107	0x3eb19e93	0.34691295
108	0x3f11b3a8	0.5691476
109	0x3f4b7f92	0.7949153
110	0x3eda869e	0.4268083
111	0xbe4830bf	-0.19549845
112	0xbed63eca	-0.4184478
113	0x3bbadc23	0.005702512
114	0xbe47361a	-0.19454232
115	0xbc8daab9	-0.017293321
116	0xbf2dc2d1	-0.6787539
117	0x3dcced82	0.100062385
118	0xbdf5406e	-0.119751796
119	0x3e13bb09	0.14426817
120	0xbee08bc8	-0.43856645
121	0x3ec1acd4	0.3782717
122	0xbf00362f	-0.5008268
123	0x3e98ac5e	0.29819006
124	0xbcb1b5d2	-0.021693144
125	0x3e268d59	0.16264857
126	0x3e647ac3	0.22312455
127	0x3e9fdf6a	0.3122514
128	0xbf63440b	-0.887757
129	0x3e9a8ab1	0.30183938
130	0x3f77500d	0.9660652
131	0x3ed83e2e	0.4223494
132	0x3f262aa1	0.64908797
133	0x3ef85ffb	0.48510727
134	0x3e170668	0.14748538
135	0x3f2d763c	0.67758536
136	0xbf3552bd	-0.70829374
137	0x3f2fb8d8	0.68641424
138	0x3ecb3ade	0.3969335
139	0x3e8b3054	0.2718531
140	0x3e2461e8	0.16052973
141	0xbed35eb6	-0.41283196
142	0xbcd3fdd7	-0.025877876
143	0x3e55977b	0.20858566
144	0x3e369cf5	0.17833312
145	0x3f22a4b9	0.63532597
146	0x3ea6c9d0	0.32575846
147	0xbf086f08	-0.5329442
148	0x3b5619f1	0.003266927
149	0xbd82ab58	-0.063803375
150	0x3f8a4b53	1.0804237
151	0xbee5a28e	-0.44850582
152	0x3d9825ee	0.074291095
153	0xbea5581e	-0.3229379
154	0xbd13e32b	-0.036105316
155	0xbf2216d5	-0.6331609
156	0xbeb2a1dd	-0.34889117
157	0x3e4ed65a	0.20198956
158	0xbe0d46f0	-0.13796592
159	0x3f9f68e8	1.245389
160	0xbe8e092f	-0.27741382
161	0xbdb2f640	-0.08738375
162	0xbeb0b566	-0.34513396
163	0xbf31de50	-0.69479847
164	0xbeb7d615	-0.3590552
165	0x3ec82fc7	0.3909895
166	0xbee0bf59	-0.43895987
167	0x3e6651a0	0.22492075
168	0x3f73a62f	0.9517545
169	0xbe0985d8	-0.13429964
170	0x3e3745dc	0.17897743
171	0x3e351fd7	0.17687927
172	0x3ec649b1	0.38728097
173	0x3e8331d9	0.25623968
174	0x3f0e6115	0.55616885
175	0xbe008f6d	-0.12554713
176	0xbdc59f32	-0.09649505
177	0x3cfa250d	0.030535245
178	0xbef4eb89	-0.4783595
179	0xbebb8d9a	-0.3663147
180	0xbebeebc0	-0.37289238
181	0x3e89a639	0.2688463
182	0xbeb744c7	-0.3579466
183	0xbe83baaa	-0.2572835
184	0x3e8fd938	0.28095412
185	0xbe9e64c0	-0.3093624
186	0x3e8c56b3	0.27409896
187	0x3f3fe818	0.7496352
188	0xbda6cac0	-0.0814414
189	0x3f304ba9	0.6886545
190	0xbed3bc23	-0.41354474
191	0xbd51e112	-0.051240034
192	0xbe0c4ff1	-0.1370237
193	0x3e82f471	0.2557712
194	0x3dbf53ae	0.093421325
195	0x3e58bba1	0.21165325
196	0xbe6a17a0	-0.22860575
197	0x3e10c857	0.14138924
198	0x3ed9cad7	0.42537567
199	0x3e810301	0.25197604
200	0x3ef3e193	0.47633037
201	0x3ebac647	0.364794
202	0x3ef11e3a	0.47093374
203	0x3e623b6d	0.22092982
204	0xbe390640	-0.1806879
205	0xbe22e551	-0.1590779
206	0x3e3f04ce	0.18654177
207	0x3dad04f1	0.08448208
208	0xbe1a057b	-0.15041153
209	0xbe9cf80e	-0.30658
210	0xbea39e21	-0.3195658
211	0xbdb2e0a3	-0.08734252
212	0xbc231f56	-0.009956202
213	0x3e09bd69	0.1345116
214	0x3e24275d	0.16030641
215	0x3f182f67	0.5944733
216	0xbd103020	-0.035202146
217	0x3daf9742	0.08573772
218	0x3de1bc76	0.11022274
219	0x3e84e813	0.2595831
220	0xbdd78557	-0.105234794
221	0x3e605ece	0.21911165
222	0x3dce4a79	0.10072798
223	0x3e8ef898	0.27924037
224	0xbe5c6e01	-0.21526338
225	0x3ef7beb8	0.48387694
226	0x3e84c381	0.25930408
227	0x3cf9d225	0.030495713
228	0xbd786946	-0.06064727
229	0x3e7f869f	0.24953698
230	0x3f0035ea	0.50082266
231	0xbe9a9721	-0.30193427
232	0x3c6cdb36	0.014456561
233	0x3eba961f	0.36442658
234	0xbe87c242	-0.26515394
235	0xbe6a52c5	-0.22883137
236	0xbe910436	-0.28323525
237	0xbe4af635	-0.19820483
238	0xbd4a617e	-0.049409382
239	0x3f03ae93	0.51438254
240	0x3e4aa6fe	0.19790265
241	0x3da02b6f	0.07820784
242	0x3d8d0623	0.06885936
243	0xbcd34020	-0.025787413
244	0xbf443167	-0.7663788
245	0xbf8aee22	-1.0853922
246	0xbdc4b49d	-0.09604762
247	0x3eb3791d	0.3505334
248	0xbeadb2f8	-0.33925605
249	0x3edd3948	0.43207765
250	0xbea5606c	-0.32300127
251	0x3ed0c485	0.40774933
252	0x3ef944f7	0.48685429
253	0x3e811785	0.25213256
254	0xbe7c7b48	-0.24656403
255	0xbe424dfe	-0.18975064

signal_classifier.stem.0.0.bias f4 [32]
0	0x3e813da4	0.2524234
1	0xbbd5933d	-0.0065177963
2	0xbe9d94bc	-0.30777538
3	0x3d109d56	0.035306297
4	0x3e48e461	0.1961837
5	0x3cb711c3	0.022347337
6	0xbe88a17b	-0.266857
7	0xbe385c91	-0.18004061
8	0x3c08afb5	0.008342673
9	0xbe5a62b8	-0.2132672
10	0x3d283e56	0.041075073
11	0xbe0d6050	-0.13806272
12	0x3e2bd45c	0.16780227
13	0x3e23d273	0.15998249
14	0xbe417fae	-0.18896362
15	0x3e1f2de5	0.15544851
16	0xbe6b6c87	-0.22990619
17	0xbe6844ee	-0.22682545
18	0xbe8d314d	-0.27576676
19	0xbe22c3dc	-0.15895027
20	0x3df9d865	0.12199477
21	0x3d3a0d52	0.04542286
22	0x3e91a301	0.28444675
23	0x3d8c0480	0.06836796
24	0xbd9f3368	-0.07773477
25	0xbe0dc7a8	-0.13845694
26	0xbe80e1a5	-0.25172153
27	0x3e4efe8e	0.20214292
28	0x3e47f401	0.19526674
29	0x3e4fc41f	0.20289658
30	0xbe8c00c1	-0.27344325
31	0xbc6984f1	-0.014252887

signal_classifier.stem.0.1.weight f4 [32]
0	0x3f86cc2d	1.053106
1	0x3f82b990	1.0212879
2	0x3f718d96	0.9435667
3	0x3f70ff26	0.94139326
4	0x3f7ee830	0.9957304
5	0x3f83fd55	1.0311686
6	0x3f6fb9ee	0.9364308
7	0x3f7a18d7	0.9769415
8	0x3f82ec68	1.0228395
9	0x3f822226	1.0166671
10	0x3f80d7b7	1.0065831
11	0x3f81f74e	1.0153596
12	0x3f7fc393	0.999078
13	0x3f86f2c1	1.0542833
14	0x3f81bed5	1.0136362
15	0x3f7c8c1b	0.98651284
16	0x3f8529a8	1.0403337
17	0x3f839138	1.0278692
18	0x3f8206d9	1.015834
19	0x3f8027d0	1.001215
20	0x3f7e4cd7	0.99336
21	0x3f825e23	1.0184978
22	0x3f72443d	0.94635373
23	0x3f82d5e8	1.0221529
24	0x3f7ad5ab	0.9798228
25	0x3f80c496	1.0059993
26	0x3f7584ae	0.9590558
27	0x3f7a2e91	0.97727305
28	0x3f814cb2	1.010153
29	0x3f7f374c	0.9969375
30	0x3f7ddd7e	0.99166095
31	0x3f86b84c	1.0524993

signal_classifier.stem.0.1.bias f4 [32]
0	0x3c405491	0.011738912
1	0xb9e44f57	-0.00043546662
2	0xbd1aeafd	-0.03782176
3	0x3d51ed17	0.051251497
4	0x3a900373	0.0010987356
5	0xba65ef0f	-0.0008771279
6	0x3d978c4c	0.073998064
7	0xbb9f1017	-0.004854213
8	0xbcaa590e	-0.020794418
9	0x3ab79998	0.0014007566
10	0xbd1ba578	-0.0379996
11	0x3c55d905	0.01305223
12	0xbd40b740	-0.04704976
13	0x3d415b59	0.047206257
14	0x3a4dd071	0.00078511896
15	0xbbf97e1b	-0.00761391
16	0xbb2e9447	-0.0026638673
17	0x3c82d3da	0.01597016
18	0x3ab938d0	0.0014131311
19	0x3c4dc34d	0.01255877
20	0x3d29700c	0.04136662
21	0xbd7452f5	-0.059649426
22	0xbba4a1d6	-0.005024175
23	0x3b9b63cc	0.0047421213
24	0xbbf2794b	-0.007399713
25	0x3c13714b	0.008999179
26	0xbcebd960	-0.028790176
27	0xbc28e8f9	-0.010309451
28	0xba284e99	-0.00064204034
29	0xbd788067	-0.06066933
30	0x3d339064	0.043838874
31	0x3bd62957	0.00653569

signal_classifier.stem.0.1.running_mean f4 [32]
0	0x3e816c22	0.2527781
1	0xbc162314	-0.009163637
2	0xbe9dd357	-0.30825302
3	0x3d11dad1	0.03560907
4	0x3e47fdbe	0.19530389
5	0x3cbca820	0.023029387
6	0xbe88a0b9	-0.26685122
7	0xbe38ba34	-0.18039781
8	0x3c0d05e5	0.008607362
9	0xbe5932e1	-0.21210815
10	0x3d2d35f1	0.04228777
11	0xbe0e1661	-0.13875724
12	0x3e2c7baf	0.16844057
13	0x3e240e9c	0.16021198
14	0xbe404180	-0.18774986
15	0x3e1e166d	0.15438242
16	0xbe6a9000	-0.22906494
17	0xbe68b9c4	-0.22727114
18	0xbe8d32f1	-0.27577928
19	0xbe22f6f6	-0.1591452
20	0x3df59033	0.119903944
21	0x3d415e5c	0.04720913
22	0x3e91e293	0.28493175
23	0x3d896234	0.06708184
24	0xbd9dd5c7	-0.077067904
25	0xbe0e39a8	-0.13889182
26	0xbe809c48	-0.25119233
27	0x3e5074cc	0.20357054
28	0x3e47477b	0.19460861
29	0x3e51472e	0.20437309
30	0xbe8c0e6a	-0.27354747
31	0xbc73ab67	-0.0148724085

signal_classifier.stem.0.1.running_var f4 [32]
0	0x3e8ef838	0.2792375
1	0x3e58e981	0.21182825
2	0x3ea47cf6	0.32126588
3	0x3e81effe	0.25378412
4	0x3e566fab	0.20941035
5	0x3e2fe6e4	0.17177922
6	0x3eafb85a	0.34320337
7	0x3ec8d7ab	0.39227042
8	0x3eb1cc18	0.34726024
9	0x3e753e15	0.23949464
10	0x3e2c7160	0.16840124
11	0x3ecb0604	0.39653027
12	0x3ebe4c2f	0.37167498
13	0x3eb727f7	0.35772678
14	0x3ee73230	0.45155478
15	0x3e98da61	0.2985411
16	0x3e0fcc6b	0.14042823
17	0x3e4b3b6c	0.19846886
18	0x3e0b83a7	0.1362444
19	0x3dc49015	0.09597794
20	0x3dec046c	0.11524281
21	0x3dec4302	0.11536218
22	0x3ecbd514	0.39811003
23	0x3ed1ba28	0.40962338
24	0x3e54f813	0.20797758
25	0x3da61bfd	0.08110807
26	0x3e8bc3c7	0.27297804
27	0x3f2cabce	0.67449653
28	0x3ebd9763	0.3702956
29	0x3e288fee	0.16461155
30	0x3f3b14fb	0.7307889
31	0x3e8f1b8b	0.279507

signal_classifier.stem.1.0.weight f4 [32, 32, 3]
0	0xbc0173fb	-0.007901187
1	0x3e099ad4	0.13437968
2	0x3e0b68f4	0.13614255
3	0x3d7cf0bf	0.06175303
4	0xbc7d682b	-0.01546673
5	0xbd456b11	-0.04819781
6	0xbdb27ee9	-0.087156124
7	0x3e0a8b88	0.1352979
8	0x3deb5ecd	0.11492691
9	0xbe8d2625	-0.27568164
10	0x3ca5f237	0.020257099
11	0x3d998996	0.074969456
12	0x3e09e91e	0.13467833
13	0xbda0dc94	-0.07854572
14	0x3e18ebcb	0.14933698
15	0xbc063acd	-0.00819273
16	0xbc4949f5	-0.012285699
17	0x3ab2570a	0.0013606262
18	0x3ddf75c9	0.109111376
19	0xbdddb460	-0.108254194
20	0xbe3424fa	-0.1759223
21	0xbe1c156f	-0.15242551
22	0x3da1cfe9	0.07900984
23	0x3e14ab0f	0.14518379
24	0x3d83188d	0.06401167
25	0x3ce1d283	0.0275662
26	0xbd9d05f0	-0.07667148
27	0x3e73217c	0.23743242
28	0xbe1f7c99	-0.15574874
29	0xbd70560b	-0.058675807
30	0xbcc533c7	-0.02407254
31	0xbde31f5a	-0.11089964
32	0x3e152eb0	0.14568591
33	0x3e54f8d7	0.2079805
34	0xbc817290	-0.015801698
35	0xbdc39746	-0.095503375
36	0xbe90273a	-0.28154927
37	0x3defd7d6	0.11711089
38	0xbe355d1f	-0.17711304
39	0x3dbd1855	0.092331566
40	0x3c5f7ac9	0.013640114
41	0x3d5cef55	0.053939182
42	0xbe406efd	-0.18792339
43	0xbcbd1ba8	-0.023084477
44	0x3b59dc74	0.0033242973
45	0x3e8b96ed	0.27263585
46	0x3ea310ac	0.31848657
47	0x3e50b6fe	0.20382306
48	0x3c33194b	0.010931323
49	0xbe08cf23	-0.13360266
50	0x3de4dc49	0.111748286
51	0x3e6429b0	0.22281528
52	0x3c39fa53	0.011351186
53	0xbe172723	-0.14761023
54	0xbe986172	-0.29761845
55	0xbe0be454	-0.13661319
56	0x3e473292	0.19452885
57	0x3dffc552	0.12488808
58	0x3e3ac70c	0.18239993
59	0xbd6c7bd6	-0.057735287
60	0xbe15ca5f	-0.1462798
61	0xbe3dc94f	-0.18533824
62	0xbee68d58	-0.45029712
63	0xbe18a4d5	-0.14906628
64	0x3e393d12	0.18089703
65	0xbc0752bb	-0.008259471
66	0x3dfcd5f7	0.12345498
67	0x3db485ea	0.088146046
68	0x3c1cad52	0.009562807
69	0x3e32bbed	0.174545
70	0x3e3d2016	0.18469271
71	0x3de763c3	0.11298325
72	0xbea97b4e	-0.33101887
73	0x3e9a6315	0.3015372
74	0xbd393e42	-0.04522539
75	0x3d6fb282	0.058519848
76	0x3e37d1cf	0.1795113
77	0xbe23a244	-0.15979868
78	0xbd87915b	-0.06619521
79	0x3bb022f6	0.0053752614
80	0xbc659da1	-0.014014632
81	0xbd053d0e	-0.03252893
82	0x3de632e6	0.11240177
83	0xbe08d31e	-0.13361785
84	0xbd6d1a04	-0.05788614
85	0xbb84430a	-0.004036312
86	0xbd906936	-0.070513174
87	0x3e4b86d9	0.19875659
88	0x3e36ef43	0.17864709
89	0xbe613ca7	-0.21995793
90	0xbdb07951	-0.08616889
91	0x3e06bbdf	0.13157605
92	0xbddf7f8b	-0.10912999
93	0x39fb1952	0.00047893316
94	0x3de77baf	0.11302888
95	0xbe25ae7a	-0.16179839
96	0xbe15fb42	-0.14646628
97	0x3e5cc598	0.21559751
98	0x3d1f6729	0.03891674
99	0xbe692e79	-0.22771634
100	0xbcff372f	-0.031154243
101	0x3e050582	0.12990382
102	0xbcba28ab	-0.02272447
103	0xbe17477f	-0.14773367
104	0x3d6ee5cf	0.05832463
105	0xbe5f46db	-0.21804373
106	0x3db78af3	0.08962049
107	0x3de63ad6	0.11241691
108	0xbda8bddb	-0.08239337
109	0xbdef4b78	-0.116843164
110	0x3aeeb639	0.0018212266
111	0x3db1722c	0.08664355
112	0xbe052e2c	-0.13005894
113	0xbd60902e	-0.054825
114	0xbdd51ed8	-0.104062736
115	0x3d43a1c2	0.047761686
116	0x3cb8dae3	0.02256531
117	0x3ed58d40	0.41709328
118	0xbdb95498	-0.09049338
119	0xbe52245d	-0.20521684
120	0xbdcff07d	-0.101532914
121	0xbe68ccf9	-0.22734441
122	0x3e8a3ad0	0.26997995
123	0x3dafce97	0.08584326
124	0xbc97beba	-0.018523563
125	0x3dc85ef2	0.097837344
126	0x3dd2d4bd	0.10294483
127	0xbe28ebc2	-0.16496184
128	0x3d839efb	0.064268075
129	0xbe83a01c	-0.2570809
130	0x3d95efd0	0.07321131
131	0xbdd5ea6c	-0.10445103
132	0x3cf64c33	0.030065631
133	0x3da0d6b4	0.07853451
134	0x3d924b23	0.071432374
135	0x3dbf0af1	0.09328259
136	0xbdf0aa75	-0.11751262
137	0x3e83b03b	0.2572039
138	0x3e0624a3	0.13099913
139	0xbdd3a344	-0.10333875
140	0x3d5d7052	0.054062195
141	0x3d542675	0.051794488
142	0x3d01c5c3	0.03168274
143	0xbe11cac1	-0.142375
144	0xbe505bab	-0.20347469
145	0x3d6d965d	0.058004726
146	0x3d1c9d2e	0.038235836
147	0xbd699f13	-0.05703647
148	0xbdbdafa9	-0.0926202
149	0x3edf8d13	0.4366232
150	0xbdbb9929	-0.09160072
151	0xbeaca8c1	-0.337225
152	0x3e511eed	0.20421953
153	0x3e7631c7	0.24042426
154	0xbe1fa03a	-0.15588465
155	0xbe11e719	-0.14248313
156	0xbc89aa20	-0.016804755
157	0x3dc9c547	0.09852081
158	0xbc8c6a0e	-0.017140415
159	0x3d9f91a4	0.077914506
160	0xbd7ece3f	-0.06220841
161	0xbe16b2ce	-0.14716646
162	0x3d56b495	0.05241831
163	0x3d5b6996	0.05356749
164	0xbd6a92e5	-0.057268996
165	0x3e1edb0a	0.15513244
166	0xbd3ef60c	-0.046621367
167	0x3dd7948f	0.10526382
168	0xbd69d28e	-0.057085566
169	0x3b8273f7	0.0039811092
170	0x3e657841	0.22409154
171	0x3e46011e	0.19336364
172	0xbe5a3fc5	-0.21313389
173	0xbe6bbb40	-0.23020649
174	0x3e211e6c	0.15734261
175	0x3b8f701e	0.004377379
176	0xbb279e02	-0.0025576358
177	0x3dc7a2f2	0.09747876
178	0xbe248cc8	-0.16069329
179	0x3e32152f	0.17390893
180	0xbe0be566	-0.13661727
181	0x3db32ce7	0.08748799
182	0x3e2996c1	0.16561414
183	0xbe57aa07	-0.21060954
184	0x3b3a87fb	0.0028462398
185	0xbd70808f	-0.058716353
186	0xbe5ff0a1	-0.21869136
187	0xbdaa2633	-0.08308067
188	0xbe5d4cb3	-0.2161129
189	0x3e05503d	0.1301889
190	0x3df67d7d	0.12035654
191	0x3c2ebda9	0.010665336
192	0xbe629ea3	-0.22130828
193	0xbd653574	-0.05595918
194	0x3d1cfcaf	0.038326915
195	0x3d2aa0fe	0.04165744
196	0xbdda505e	-0.1065986
197	0xbda06933	-0.07832565
198	0xbcd53464	-0.026025958
199	0xbd6bfc8a	-0.057613887
200	0x3e041c70	0.12901473
201	0xbab65cd8	-0.0013913168
202	0xbe6dbc4c	-0.23216361
203	0xbe6130e7	-0.21991311
204	0x3ddb5605	0.10709766
205	0x3d3151dc	0.043290958
206	0xbdbe150d	-0.09281359
207	0xbe09167b	-0.13387482
208	0x3e2b1f30	0.16711116
209	0x3e1c5491	0.15266635
210	0xbeaaa311	-0.33327535
211	0x3e2e573d	0.17025466
212	0xbdc0328a	-0.093846396
213	0x3db3f059	0.08786077
214	0x3da34319	0.07971782
215	0xbe30c19b	-0.17261355
216	0x3e26c6b4	0.16286737
217	0x3e2af201	0.1669388
218	0xbe415b85	-0.18882568
219	0x3dc6be7b	0.097043
220	0x3e80cc2a	0.25155765
221	0x3e792ad0	0.24332738
222	0xbe3e939e	-0.18610999
223	0xbec7b058	-0.39001727
224	0x3cc07987	0.023495449
225	0x3d902d38	0.07039875
226	0xbe129c8c	-0.1431753
227	0x3e3bba86	0.18332872
228	0x3de18200	0.11011124
229	0x3d39eb53	0.04539044
230	0xbdbd6185	-0.09247116
231	0xbd039f2e	-0.032134227
232	0xbe04c649	-0.12966265
233	0x3e8cee86	0.2752573
234	0xbe037b95	-0.12840112
235	0xbde8d879	-0.11369414
236	0x3e368996	0.17825922
237	0xbe1f6819	-0.15567054
238	0xbde1afb7	-0.11019843
239	0x3e188730	0.1489532
240	0xbe0fd9f4	-0.14047986
241	0x3dcd4960	0.10023761
242	0x3d559791	0.052146498
243	0xbb4164a4	-0.002950945
244	0x3d7b87cd	0.061408807
245	0xbe96198f	-0.29316375
246	0x3d81bc9d	0.06334803
247	0xbd52ae1a	-0.051435567
248	0x3d89fa9d	0.06737254
249	0x3e25fab3	0.16208915
250	0xbd6832df	-0.05668914
251	0x3e085dba	0.13317004
252	0xbd67dfba	-0.056609847
253	0xbd81ba93	-0.06334414
254	0xbd8614af	-0.06546914
255	0xbd98426b	-0.07434543

signal_classifier.stem.1.0.bias f4 [32]
0	0x3d2e6dc4	0.04258515
1	0x3d6c524b	0.05769567
2	0xbdb02501	-0.08600808
3	0xbda298d0	-0.07939303
4	0xbc70d9cc	-0.014700364
5	0x3dd6154b	0.1045328
6	0x3da1fc41	0.07909442
7	0xbdf732bf	-0.12070226
8	0xbd221399	-0.03956947
9	0xbc44e50e	-0.0120175015
10	0xbdb9772f	-0.090559356
11	0xbd954148	-0.07287842
12	0x3d6275a8	0.055287987
13	0xbb883c73	-0.0041575967
14	0x3dc7a129	0.09747536
15	0x3d96409a	0.073365405
16	0x3dc4072f	0.09571683
17	0xbd95571e	-0.07292007
18	0x3cab53c0	0.020913959
19	0x3cfde60a	0.03099348
20	0x3d839794	0.064253956
21	0xbdc14c06	-0.094383284
22	0xbdc4ad02	-0.09603311
23	0x3dc49423	0.09598567
24	0x3dc8bdce	0.09801827
25	0xbbd8e700	-0.006619334
26	0xbd9e65c4	-0.07734254
27	0xbdcfbc9f	-0.101433985
28	0xbd3f2c08	-0.04667285
29	0xbd8be388	-0.068305075
30	0x3d234f11	0.039870325
31	0xbb9580ea	-0.004562487

signal_classifier.stem.1.1.weight f4 [32]
0	0x3f80e276	1.006911
1	0x3f773968	0.9657197
2	0x3f731444	0.949528
3	0x3f87574b	1.0573515
4	0x3f7dbd60	0.9911709
5	0x3f8205c5	1.0158011
6	0x3f8166ba	1.0109475
7	0x3f713130	0.9421568
8	0x3f7ce9d4	0.98794293
9	0x3f827016	1.0190456
10	0x3f83c796	1.0295284
11	0x3f85ff46	1.0468528
12	0x3f791636	0.97299516
13	0x3f849797	1.0358762
14	0x3f7f9208	0.998322
15	0x3f79a65b	0.97519463
16	0x3f81167b	1.0084985
17	0x3f7dbab6	0.99113023
18	0x3f825f9b	1.0185426
19	0x3f802518	1.001132
20	0x3f782d16	0.96943796
21	0x3f86a62d	1.0519463
22	0x3f7fddad	0.99947625
23	0x3f86bb99	1.0526
24	0x3f854039	1.0410224
25	0x3f7880f8	0.9707179
26	0x3f81e8df	1.0149192
27	0x3f79a46e	0.97516525
28	0x3f72b2f1	0.9480429
29	0x3f7d48c5	0.9893916
30	0x3f7c6bb7	0.9860186
31	0x3f802037	1.0009831

signal_classifier.stem.1.1.bias f4 [32]
0	0xbbdcb592	-0.006735512
1	0xbaaf4b58	-0.0013373895
2	0xbc81e132	-0.015854452
3	0x3d87de4b	0.06634196
4	0xbd1c7030	-0.038192928
5	0xbc1156f3	-0.008870828
6	0x3ce0f364	0.027459808
7	0xbd106648	-0.035253793
8	0x3c1e2519	0.009652399
9	0xba32ff90	-0.0006828243
10	0x3db3ef24	0.08785847
11	0xbc8a40e0	-0.016876638
12	0x3c99a5b5	0.018755773
13	0x3c940b58	0.018071815
14	0xbda191bd	-0.078891255
15	0x3ca2b6f9	0.019862639
16	0xbcfd11d0	-0.030892283
17	0x3da1abe3	0.07894113
18	0xbc3e0f8e	-0.011600388
19	0xbc34d44d	-0.011036945
20	0x3c820473	0.015871262
21	0x3bcc5f6f	0.0062369625
22	0x3c6488e4	0.013948653
23	0x3d7fdc38	0.062465876
24	0x3d3faa07	0.04679301
25	0xbc2f6bf8	-0.010706894
26	0x3bed1ba2	0.00723596
27	0xbb6fe405	-0.0036604416
28	0xbb7cdd3a	-0.003858401
29	0x3bd6c9f0	0.0065548345
30	0xbc89efd5	-0.016837994
31	0xbb9d3c46	-0.004798445

signal_classifier.stem.1.1.running_mean f4 [32]
0	0x3da33ea4	0.07970932
1	0x3d3edeed	0.046599317
2	0xbe7d6af0	-0.24747825
3	0xbe8007a7	-0.25005838
4	0xbe71b2ef	-0.23603414
5	0x3deffb7f	0.11717891
6	0x3e7ef768	0.24899065
7	0xbe7b312f	-0.24530481
8	0xbe3c5ad5	-0.18394025
9	0x3dfde148	0.123964846
10	0x3d8a8474	0.06763545
11	0xbe3764e1	-0.17909576
12	0x3dc43415	0.09580246
13	0x3dd39063	0.10330274
14	0x3d89f3a3	0.06735923
15	0x3e6d0a08	0.23148358
16	0x3dbe3d90	0.09289086
17	0x3dd0451d	0.10169432
18	0x3db94164	0.090456754
19	0x3e7f90dd	0.24957605
20	0xbd96acdf	-0.07357191
21	0xbe2b83cd	-0.16749497
22	0xbe42a094	-0.19006568
23	0x3e4c2c54	0.19938785
24	0xbdfcec27	-0.1234973
25	0x3d3101ee	0.04321473
26	0x3d515484	0.05110599
27	0xbe2a5130	-0.16632533
28	0xbda8f656	-0.0825011
29	0x3c9fbd0a	0.01949932
30	0xbe1cca75	-0.15311606
31	0x3cd4fb34	0.02599869

signal_classifier.stem.1.1.running_var f4 [32]
0	0x3f3978a4	0.7244971
1	0x3f3b7a91	0.73233896
2	0x3f6de750	0.9293108
3	0x3faea4aa	1.3644001
4	0x3fd2a3a7	1.6456193
5	0x3f512514	0.816972
6	0x3f9e5033	1.2368225
7	0x3f83ede9	1.030698
8	0x3f9f7a6b	1.2459234
9	0x3fba1e96	1.4540584
10	0x3f832b4a	1.0247586
11	0x3f362907	0.7115635
12	0x3f1bd05b	0.608648
13	0x3fa79fe9	1.3095676
14	0x3f229123	0.6350271
15	0x3fb43e6a	1.4081547
16	0x3f404a22	0.7511312
17	0x3fbeb0eb	1.4897741
18	0x3f18df4f	0.5971574
19	0x40011891	2.0171244
20	0x3f8e21ee	1.1104105
21	0x3f8e3ee8	1.1112947
22	0x3f335891	0.70057017
23	0x3f782789	0.96935326
24	0x400088c3	2.0083473
25	0x3f539d85	0.8266223
26	0x3fad7605	1.3551642
27	0x3f793081	0.97339636
28	0x3f547bea	0.8300158
29	0x3f9ee4e3	1.2413601
30	0x3fb3a5d6	1.4034984
31	0x3f3cd61c	0.73764205

signal_classifier.stem.2.0.weight f4 [32, 32, 3]
0	0xbde4c8f9	-0.11171145
1	0xbe05acf2	-0.13054255
2	0x3e68fb3a	0.22752085
3	0x3e01bedf	0.12670468
4	0xbd1d8e67	-0.038465884
5	0xbba58a18	-0.0050518624
6	0x3db64ceb	0.0890139
7	0xbe6db278	-0.23212612
8	0xbbc48416	-0.005997191
9	0xbca8d1c2	-0.020607833
10	0xbd865433	-0.065590285
11	0xbd351025	-0.04420485
12	0xbd84a7e4	-0.06477335
13	0x3e592fdc	0.21209663
14	0x3e2026b1	0.1563976
15	0x3dbefe65	0.09325866
16	0xbdf90d71	-0.12160767
17	0xbe37413c	-0.17895979
18	0xbd5fa0cd	-0.05459671
19	0x3d58d8ba	0.05294106
20	0xbcf8cb1c	-0.030370288
21	0x3d8ba37b	0.06818291
22	0xbc5ad596	-0.013356587
23	0xbdc28847	-0.09498649
24	0xbe721383	-0.23640256
25	0xbe28e244	-0.16492563
26	0x3e5bfb5b	0.21482603
27	0x3dc4fcba	0.09618516
28	0x3e5fd490	0.2185843
29	0x3e66fa11	0.2255633
30	0x3e0177e5	0.12643392
31	0xbe858705	-0.26079574
32	0x3bd0df87	0.006374303
33	0x3da79a67	0.08183747
34	0x3e6a99ff	0.22910307
35	0x3cbb5ac8	0.022870436
36	0x3ead3ba7	0.33834574
37	0x3e2211c6	0.15827093
38	0x3cbf49b3	0.023350572
39	0x3df0aa24	0.11751202
40	0xbde0b4af	-0.10971963
41	0xbd9767fa	-0.07392879
42	0xbe606c73	-0.2191637
43	0x3d9b51a2	0.075839296
44	0x3d9ca223	0.076481126
45	0x3e01ce34	0.12676316
46	0xbdefe503	-0.117136024
47	0x3cdc7d6c	0.026915275
48	0x3d676c15	0.05649956
49	0x3e43f6aa	0.19137064
50	0x3e693d9d	0.2277741
51	0x3d053321	0.032519463
52	0x3e34ea1c	0.1766743
53	0xbe3a4bb7	-0.18192945
54	0xbe73013d	-0.23730941
55	0xbe7ed030	-0.24884105
56	0xbcf61c66	-0.030042838
57	0x3d3f03c8	0.046634465
58	0xbe1b6039	-0.15173425
59	0xbda95d9f	-0.0826981
60	0x3de1e4b9	0.110299535
61	0x3d33092c	0.04370992
62	0xbea618f8	-0.32440925
63	0x3dd560a0	0.104188204
64	0xbe1f9804	-0.15585333
65	0xbadea4dc	-0.0016986388
66	0xbe36a3b6	-0.17835888
67	0xbdb8023f	-0.089848034
68	0xbdfac203	-0.12244036
69	0xbdc1c289	-0.09460933
70	0x3db4c906	0.08827405
71	0x3e83be7f	0.25731274
72	0xbc558330	-0.013031766
73	0xbd5584d2	-0.05212862
74	0xbd2ce768	-0.042212874
75	0x3d8cbfc9	0.068725176
76	0x3d11fa82	0.035639293
77	0x3d0d96be	0.034567587
78	0xbe3fb23d	-0.18720336
79	0x3de7d125	0.11319188
80	0x3e077bea	0.13230863
81	0xbdc7010a	-0.09716995
82	0xbcfe81a9	-0.031067686
83	0x3e342908	0.17593777
84	0xbe0f3448	-0.13984787
85	0x3e470f6b	0.19439475
86	0xbd908303	-0.070562385
87	0xbe524c5f	-0.20536946
88	0xbdbdec92	-0.09273638
89	0x3db315c2	0.08744384
90	0x3d1cba16	0.038263403
91	0x3be4b439	0.006979492
92	0xbe85cb0d	-0.26131478
93	0xbe154183	-0.14575772
94	0xbe251193	-0.16119985
95	0x3dd6fbb0	0.10497224
96	0x3cc2f7bb	0.023799768
97	0x3e55c96a	0.20877615
98	0x3e942f79	0.2894247
99	0xbc877ad5	-0.016538063
100	0xbda128ba	-0.07869096
101	0xbda2d132	-0.07950057
102	0x3c4177ee	0.011808379
103	0xbdb6bd8e	-0.089228734
104	0xbe162bde	-0.14665172
105	0xbdd41842	-0.10356189
106	0x3e81d949	0.25361088
107	0x3e4c9bdf	0.19981335
108	0xbe21acec	-0.1578862
109	0xbd773d20	-0.060361028
110	0x3e178ee2	0.14800599
111	0xbd98b2c0	-0.07455969
112	0xbd6f29ee	-0.058389597
113	0x3b83067d	0.003998576
114	0x3d322105	0.04348852
115	0x3c859530	0.01630649
116	0xbdbabb83	-0.09117796
117	0x3d4043c6	0.046939634
118	0xbc28714b	-0.010280917
119	0xbdfe0d13	-0.124048375
120	0x3ce5864e	0.028018143
121	0x3d94fe34	0.07275048
122	0x3e9b5b1c	0.30342948
123	0x3e02bcc3	0.1276732
124	0x3de03952	0.10948433
125	0x3d1d1fd3	0.038360428
126	0x3e1290b3	0.14313011
127	0xbc5b83a9	-0.013398089
128	0xbcdfd6ee	-0.027324166
129	0x3e22da56	0.15903601
130	0xbdf4a8b5	-0.11946241
131	0x3d60156f	0.05470794
132	0x3d7e8522	0.062138684
133	0xbd9edb87	-0.07756715
134	0xbd3fdb51	-0.046840016
135	0x3e57439f	0.21021889
136	0xbe3aeaa8	-0.18253577
137	0xbd86969a	-0.06571694
138	0x3def81cf	0.11694681
139	0xbdac136a	-0.084021404
140	0xbd8a2460	-0.06745219
141	0x3e398421	0.1811681
142	0xbec28b86	-0.37997073
143	0xbd1303a6	-0.03589215
144	0xbe735409	-0.23762526
145	0x3e2dd708	0.16976559
146	0x3cc81753	0.024425184
147	0x3e066941	0.13126089
148	0x3d07d368	0.033160597
149	0xbc922f75	-0.017844895
150	0x3e29ee8d	0.16594906
151	0x3dc7f947	0.09764343
152	0x3da68953	0.08131661
153	0x3de3f42e	0.11130558
154	0x3d13544a	0.035969056
155	0xbd848a94	-0.06471744
156	0xbd8ddef9	-0.06927294
157	0x3e18f2c7	0.14936362
158	0x3d9e206e	0.07721029
159	0x3db228d5	0.08699194
160	0x3cf6a4ff	0.030107973
161	0xbdcdcb6d	-0.10048566
162	0xbe3f5d0f	-0.18687843
163	0x3d1a37e2	0.03765095
164	0xbdb09582	-0.08622266
165	0x3e8e3287	0.27772924
166	0xbe17cbfb	-0.14823906
167	0xbd2fe474	-0.04294248
168	0x3e9f8edd	0.31163684
169	0x3eaca8f4	0.3372265
170	0xbe4f22a1	-0.20228054
171	0x3d458f22	0.048232205
172	0xbd38ed20	-0.045148015
173	0x3d9761cc	0.073917
174	0xbd7f03d1	-0.0622595
175	0xbe9994c8	-0.29996324
176	0xbd9e787d	-0.07737825
177	0x3ddb1737	0.10697787
178	0xbe870779	-0.2637289
179	0xbb78f07e	-0.0037985141
180	0x3e22fea5	0.15917452
181	0x3e8ae344	0.27126515
182	0x3e301d29	0.17198624
183	0x3e4abfc6	0.19799718
184	0x3d5a343a	0.053272463
185	0xbe039236	-0.12848744
186	0x3e870138	0.26368117
187	0x3e124ef0	0.14287925
188	0x3caf168a	0.021373052
189	0xbd7e2a03	-0.062051784
190	0xbd4c1fb0	-0.049834907
191	0xbbfa8abd	-0.0076459334
192	0x3e00bf8f	0.12573074
193	0x3e4fc3d5	0.20289548
194	0x3d3ca1d0	0.046052754
195	0xbe290d43	-0.16508965
196	0xbd4e5733	-0.05037613
197	0xbd354982	-0.044259556
198	0xbdc6c32e	-0.09705196
199	0xbce6efed	-0.028190577
200	0xbe057680	-0.13033485
201	0xbeb0d031	-0.34533837
202	0xbdbb47a8	-0.09144527
203	0xbc979aa8	-0.018506363
204	0xbc5cb85a	-0.013471687
205	0x3e06661b	0.13124888
206	0xbcc5f2bc	-0.024163596
207	0xbdd9fec5	-0.106442966
208	0xbde9ad87	-0.11410051
209	0xbcd07081	-0.025444271
210	0xbe720af9	-0.23636998
211	0x3d323a91	0.043512885
212	0xbdf59d09	-0.11992843
213	0xbe1059fe	-0.1409683
214	0x3dfeca0e	0.124408826
215	0x3e13311e	0.14374205
216	0x3d4ca979	0.04996631
217	0xbd254ffe	-0.04035949
218	0x3e8506a7	0.25981638
219	0x3e362473	0.17787342
220	0xbe05cc1a	-0.1306614
221	0x3c8233ab	0.015893778
222	0x3cea20fe	0.028580185
223	0xbd907829	-0.07054169
224	0xbd22c015	-0.039733965
225	0xbeb4701a	-0.35241777
226	0x3d81bb81	0.06334592
227	0xbe0babb4	-0.13639718
228	0xbeadcd3e	-0.3394565
229	0x3d424d80	0.04743719
230	0x3e157dce	0.14598772
231	0x3ed8441c	0.42239463
232	0xbe2c7b31	-0.16843869
233	0xbd7326af	-0.059363063
234	0xbe4637fd	-0.19357295
235	0xbd0ccb74	-0.034373716
236	0xbe58f903	-0.2118874
237	0xbc22626e	-0.009911163
238	0x3dbbbdb6	0.09167044
239	0x3d38896a	0.045052923
240	0x3e348351	0.17628218
241	0x3d1e45b5	0.038640697
242	0x3e3235fd	0.17403407
243	0xbe393858	-0.180879
244	0xbe1ed48b	-0.15510766
245	0xbdb94202	-0.09045793
246	0xbbf922cc	-0.007603025
247	0xbef31a38	-0.4748094
248	0x3e94a5e5	0.29032817
249	0x3d0797fd	0.03310393
250	0xbe83b69d	-0.2572526
251	0xbcf3f0a1	-0.029777827
252	0x3d7976f2	0.06090445
253	0xbc824b18	-0.015904948
254	0xbc0ed433	-0.008717584
255	0x3de27b1d	0.11058638

signal_classifier.stem.2.0.bias f4 [32]
0	0x3d124d85	0.03571846
1	0x3be1c7a9	0.0068902564
2	0xbd9574c1	-0.0729766
3	0x3c72973c	0.014806565
4	0xbdbd0a6f	-0.09230506
5	0x3d9f6328	0.077825844
6	0xbd654e00	-0.05598259
7	0xbd644bbb	-0.055736285
8	0x3cbf7410	0.023370773
9	0x3d84d71b	0.064863406
10	0x3d32a627	0.043615486
11	0xbdda9bc5	-0.10674242
12	0xbb586194	-0.0033017145
13	0xbc8e3f5b	-0.017364195
14	0x3c85b1f0	0.016320199
15	0x3d8a48d9	0.06752176
16	0xbd687c40	-0.05675912
17	0x3d4487a6	0.047980927
18	0x3d74f303	0.059802067
19	0xbcad7378	-0.021173224
20	0x3d915ac1	0.07097388
21	0xbd67cf9f	-0.056594487
22	0x3cfaa5ff	0.030596731
23	0xbcfc8a2e	-0.030827608
24	0xbd8c571f	-0.068525545
25	0xbddd3233	-0.1080059
26	0x3d1aac56	0.03776201
27	0xbd609469	-0.054829035
28	0xbc89c3ff	-0.016817091
29	0x3d9ce780	0.076613426
30	0xbc918b81	-0.017766716
31	0xbda1c71c	-0.07899305

signal_classifier.stem.2.1.weight f4 [32]
0	0x3f7414cd	0.9534424
1	0x3f843558	1.0328779
2	0x3f7ee04c	0.99561
3	0x3f843825	1.0329634
4	0x3f7fcfa8	0.99926233
5	0x3f79ca6d	0.975745
6	0x3f86779f	1.0505255
7	0x3f80057f	1.0001677
8	0x3f78ffef	0.97265524
9	0x3f75f46c	0.96076083
10	0x3f8312f3	1.0240158
11	0x3f8c12d6	1.0943248
12	0x3f7d146c	0.98859286
13	0x3f7e88b6	0.99427354
14	0x3f802c77	1.001357
15	0x3f854a9a	1.0413392
16	0x3f7901f0	0.9726858
17	0x3f7e5c26	0.9935936
18	0x3f7f3171	0.99684817
19	0x3f7c9e85	0.9867938
20	0x3f859442	1.043587
21	0x3f80c2c7	1.0059441
22	0x3f7a4dc7	0.9777493
23	0x3f7cc767	0.98741764
24	0x3f7e32d5	0.99296314
25	0x3f7ec9bc	0.9952657
26	0x3f80399b	1.001758
27	0x3f80a4cd	1.0050293
28	0x3f8550b1	1.041525
29	0x3f74cd4d	0.95625764
30	0x3f82ddde	1.0223958
31	0x3f85cde9	1.0453464

signal_classifier.stem.2.1.bias f4 [32]
0	0x3c78fac5	0.015196507
1	0x3d2df0a2	0.042465813
2	0x3d101bbb	0.035182696
3	0x3cdf7ee9	0.027282195
4	0x3cbf9c66	0.023390006
5	0xbcc7203f	-0.024307368
6	0x3c8fb692	0.017543111
7	0x3c8e1c88	0.01734759
8	0xbcb15daf	-0.021651117
9	0x3d3bf02b	0.04588334
10	0x3d9af6dd	0.07566617
11	0x3d5b53ce	0.05354672
12	0x3c705d83	0.014670732
13	0xba9113ce	-0.0011068524
14	0x3ce85bd7	0.028364105
15	0xbc9220cd	-0.017837906
16	0x3d811f31	0.063047774
17	0xbd87bc04	-0.06627658
18	0x3cfdefa5	0.03099806
19	0x3d3b2f32	0.045699306
20	0xbd41f48f	-0.04735237
21	0xbd8653f2	-0.0655898
22	0x3c1ccc2b	0.009570162
23	0xbc3dacf1	-0.011576877
24	0xbcd8c5ee	-0.026461568
25	0xbc40e8fa	-0.011774296
26	0x3ce07f6c	0.02740451
27	0x3d5c24ba	0.053745963
28	0x3d3cc190	0.046083033
29	0xbd87082e	-0.06593357
30	0x3ce56650	0.028002888
31	0x3d08dc0b	0.033412974

signal_classifier.stem.2.1.running_mean f4 [32]
0	0xbc9f05cd	-0.019411946
1	0x3e9404dd	0.2890996
2	0xbe5c8425	-0.21534784
3	0xbeb2c452	-0.34915406
4	0xbe25dbf3	-0.16197185
5	0xbe353c61	-0.17698814
6	0xbf02f33f	-0.51152414
7	0xbeaecf37	-0.34142467
8	0xbcc096a1	-0.023509325
9	0x3daf9a80	0.085743904
10	0xbc569b80	-0.0130985975
11	0xbf0462ef	-0.5171346
12	0xbec466bd	-0.38359633
13	0x3c7612e9	0.015019157
14	0xbc41b175	-0.011822094
15	0x3e430af7	0.19047152
16	0x3dd8594b	0.10563906
17	0x3d1da18d	0.038484145
18	0x3e86882a	0.2627576
19	0x3dcdb377	0.10043996
20	0x3ec2ad7d	0.38022986
21	0xbc174e6f	-0.009235009
22	0x3e35d00f	0.1775515
23	0xbd9127d3	-0.07087674
24	0xbe4c406a	-0.19946447
25	0x3c1b62a5	0.009483968
26	0x3e961ae3	0.29317388
27	0xbdca78f6	-0.09886353
28	0xbd9e9764	-0.07743719
29	0x3e245102	0.16046527
30	0xbeac566b	-0.33659682
31	0xbecb6437	-0.39724895

signal_classifier.stem.2.1.running_var f4 [32]
0	0x3f325485	0.69660217
1	0x3f7213f8	0.9456172
2	0x3f3d8e6c	0.74045444
3	0x3f941da7	1.1571549
4	0x3f95f879	1.1716453
5	0x3fe73d13	1.8065513
6	0x402df3c5	2.7180035
7	0x404b4fc6	3.176744
8	0x3f3b0a37	0.7306246
9	0x3f87fc9a	1.0623963
10	0x3fb9b2ce	1.4507692
11	0x4075cfa5	3.8407986
12	0x4014345a	2.3156953
13	0x3f4c0d77	0.79708046
14	0x3f823319	1.0171844
15	0x3f9e23d2	1.2354681
16	0x3fd00a80	1.6253204
17	0x3f29f9f1	0.66397005
18	0x3f9978e5	1.1990019
19	0x3f7fcacd	0.99918824
20	0x3fe666cf	1.8000125
21	0x3f1197ea	0.5687243
22	0x403eefc1	2.9833834
23	0x3f2bdcad	0.671336
24	0x3f5b2cb2	0.85615075
25	0x3f23eabd	0.6403006
26	0x40b1f647	5.561313
27	0x3f22b765	0.6356109
28	0x400e2594	2.2210436
29	0x3fbb7eb0	1.4648037
30	0x409826f6	4.754756
31	0x40b7cdcb	5.743871

signal_classifier.body.0.layers1.0.weight f4 [16, 32, 1]
0	0x3e36dff0	0.17858863
1	0x3f275f79	0.65380055
2	0x3e2f57e9	0.17123379
3	0x3eac93d8	0.33706546
4	0x3edb49e4	0.42829812
5	0x3dcbffad	0.09960876
6	0x3e7c3443	0.24629311
7	0xbe48d15e	-0.19611117
8	0x3e14ff6b	0.14550559
9	0x3e017752	0.12643173
10	0xbe9d77a5	-0.30755344
11	0x3e84ff58	0.25976062
12	0xbe924f47	-0.2857611
13	0x3e8912ef	0.26772258
14	0xbe8e9076	-0.2784459
15	0xbe7158bb	-0.23569004
16	0x3e250851	0.16116454
17	0xbd159010	-0.03651434
18	0x3e5e0326	0.21680889
19	0xbdfbd5dc	-0.1229665
20	0x3dff36fa	0.12461658
21	0xbf64565c	-0.89194274
22	0x3de755eb	0.112956844
23	0xbe0074fb	-0.12544625
24	0xbd0cfce5	-0.034420867
25	0xbd8b2a1b	-0.0679514
26	0xbd253be5	-0.040340323
27	0x3e01ffbd	0.12695213
28	0x3db7c0d5	0.08972327
29	0xbe6ed334	-0.23322755
30	0x3ee56e30	0.4481063
31	0xbe320916	-0.17386279
32	0x3d002663	0.03128661
33	0x3ecdba39	0.4018114
34	0xbe7da355	-0.24769337
35	0x3ce3d9ab	0.027813753
36	0x3dce58db	0.100755416
37	0x3e28d510	0.16487527
38	0x3ba1f14d	0.0049420954
39	0x3e00ed26	0.12590465
40	0xbda6c12d	-0.08142314
41	0xbdcc3fb5	-0.09973089
42	0x3cb60218	0.022217795
43	0xbeeb7b7e	-0.45992655
44	0xbd8c3fa6	-0.068480775
45	0xbd0fd140	-0.035111666
46	0xbe3db50b	-0.18526094
47	0xbd1c1f27	-0.038115647
48	0x3e28e93d	0.16495223
49	0x3e1310f1	0.14361931
50	0xbe83aa12	-0.2571569
51	0x3c3dcc67	0.011584378
52	0xbe95b15e	-0.29236883
53	0x3e7c47c6	0.24636754
54	0x3e8490c8	0.2589171
55	0x3d830de5	0.063991345
56	0x3e76d268	0.24103701
57	0xbd8b382d	-0.06797824
58	0x3e52ccb2	0.20585898
59	0x3c45a2d2	0.012062745
60	0x3df61137	0.12015002
61	0xbdf12d59	-0.117762275
62	0x3ef7449c	0.48294532
63	0xbeb26202	-0.348404
64	0xbdeaf2e6	-0.114721105
65	0xbe892de0	-0.26792812
66	0x3dfee8c7	0.124467425
67	0x3e2a6840	0.1664133
68	0xbdf41516	-0.11918084
69	0x3d601fee	0.05471795
70	0x3ccc5526	0.024942946
71	0x3e011307	0.12604915
72	0x3d42770a	0.047476806
73	0x3e012f78	0.12615764
74	0xbdad2afb	-0.084554635
75	0xbe1e4e95	-0.15459664
76	0xbe938f83	-0.28820428
77	0x3e90a690	0.28252077
78	0xbe71b700	-0.23604965
79	0xbeab9b41	-0.33516887
80	0x3e5e1c32	0.21690443
81	0x3ed33d6c	0.412578
82	0xbc7dabcd	-0.015482855
83	0x3ef8b7e6	0.48577803
84	0x3e5a56db	0.21322195
85	0x3e0f8a05	0.14017494
86	0xbd55ed2e	-0.052228145
87	0x3eea140f	0.45718428
88	0xbd9f51ba	-0.0777926
89	0xbe31b741	-0.17355062
90	0xbd2c6d87	-0.04209664
91	0xbcb6b709	-0.022304075
92	0xbe6254a4	-0.221026
93	0x3eb80e6b	0.359485
94	0x3d9784c7	0.07398372
95	0xbe9f3ef9	-0.31102732
96	0x3e043d72	0.12914065
97	0x3edafcb2	0.42770916
98	0x3e278389	0.1635877
99	0xbcdd6f4b	-0.027030608
100	0x3eda8eab	0.42686972
101	0x3e13a95f	0.14420079
102	0xbe66ef54	-0.22552234
103	0x3ee966cb	0.45586237
104	0xbdd8b2d6	-0.10580985
105	0xbe6736ed	-0.22579546
106	0x3ed4ce97	0.41563866
107	0xbd324fc8	-0.043533117
108	0xbd104ada	-0.035227634
109	0x3e53fa62	0.20700982
110	0x3df74cfb	0.1207523
111	0x3e6e0584	0.23244292
112	0x3e656177	0.22400461
113	0xbce321f1	-0.027726145
114	0x3d0bf98d	0.034173537
115	0x3ed7db8d	0.4215969
116	0xbcb7fbba	-0.0224589
117	0x3dc203f0	0.09473407
118	0xbe72b8e4	-0.23703343
119	0xbd979049	-0.07400567
120	0x3de46439	0.111519285
121	0xbe613dc6	-0.21996221
122	0xbe8c8241	-0.27443126
123	0xbf1ced98	-0.6130004
124	0x3ba4ca67	0.005029011
125	0x3e8fec2b	0.2810987
126	0x3e5e4069	0.21704258
127	0x3ec401e5	0.38282695
128	0x3e816cda	0.2527836
129	0x3e983b3b	0.2973269
130	0x3da6b6f8	0.08140367
131	0xbd96e9e0	-0.07368827
132	0x3ee0f2ff	0.4393539
133	0xbed9dbfd	-0.4255065
134	0xbef68867	-0.48150942
135	0xbe0137b4	-0.12618905
136	0x3d8cfe03	0.068843864
137	0x3e0bda6c	0.1365754
138	0xbf06c645	-0.52646285
139	0xbe864189	-0.26221874
140	0xbe4a511c	-0.19757503
141	0x3de19891	0.11015428
142	0x3da3bbe7	0.07994824
143	0xbecce753	-0.40020236
144	0xbc8a789b	-0.016903212
145	0x3e4f2c6c	0.2023179
146	0xbac1be34	-0.0014781416
147	0xbe130461	-0.14357139
148	0xbeee3e5a	-0.46531945
149	0x3ed0a719	0.40752485
150	0xbdb7b336	-0.08969729
151	0x3e84c8a4	0.25934327
152	0xbe78db81	-0.24302484
153	0xbe33ce7f	-0.17559241
154	0xbe9fad01	-0.3118668
155	0x3e066134	0.13123018
156	0xbe4b8ddd	-0.19878335
157	0x3ee312f0	0.44350386
158	0xbe1502fe	-0.14551923
159	0xbdc6489c	-0.09681818
160	0x3cf5f5b4	0.030024387
161	0xbd73b1fb	-0.059495907
162	0x3e39f7cc	0.18160933
163	0x3e21a613	0.15786009
164	0x3d1f8480	0.03894472
165	0x3f002b9d	0.5006655
166	0x3e2a2e63	0.16619258
167	0xbe6b94d9	-0.23006
168	0xbe5a4318	-0.21314657
169	0x3e001068	0.12506258
170	0x3ed2f0fa	0.41199476
171	0xbea2ecb6	-0.3182122
172	0x3f035bff	0.5131225
173	0x3de33cbc	0.110955685
174	0x3ed4693d	0.4148654
175	0x3dcccc4e	0.099999055
176	0x3d0ac934	0.03388329
177	0xbe817a3e	-0.25288576
178	0x3c8be2cd	0.01707592
179	0xbdfe3191	-0.12411798
180	0x3bed30d7	0.007238488
181	0x3e329b79	0.1744212
182	0xbdcc000e	-0.09960948
183	0xbdf7f3b6	-0.12107031
184	0xbe81e7dc	-0.25372207
185	0x3d0cc971	0.034371797
186	0x3e0c902b	0.1372687
187	0x3ebbefc2	0.36706358
188	0xbee01da4	-0.43772614
189	0x3bc5d1e8	0.0060369857
190	0xbe6f319d	-0.2335877
191	0xbea58cdf	-0.3233404
192	0xbe68597f	-0.2269039
193	0xbe3123b9	-0.17298783
194	0x3e39a9b4	0.18131143
195	0x3e7d8c41	0.24760534
196	0x3d4c5f1f	0.049895402
197	0xbddbc156	-0.10730235
198	0xbebe1ac1	-0.37129787
199	0x3e3a9ccc	0.18223876
200	0xbc772fed	-0.01508711
201	0xbe5ed9a0	-0.21762705
202	0x3dcce18d	0.10003958
203	0xbe3e38c3	-0.1857634
204	0xbcd3da04	-0.025860794
205	0x3eaf6f97	0.34264824
206	0x3e030130	0.12793422
207	0xbef67d9e	-0.48142713
208	0xbdf9d7c4	-0.12199357
209	0xbe02d818	-0.12777746
210	0x3f0d9c5c	0.5531671
211	0xbd66950a	-0.05629448
212	0xbe05fa99	-0.13083877
213	0xbddec0f6	-0.10876648
214	0xbe79222d	-0.24329443
215	0x3e5792b7	0.21052061
216	0xbe65ff9a	-0.22460786
217	0xbe73eb68	-0.23820269
218	0xbd8642de	-0.06555723
219	0x3cf69050	0.03009811
220	0xbe5f49ca	-0.21805492
221	0x3e3eeadb	0.18644278
222	0xbe18f7d1	-0.14938284
223	0x3e8cb061	0.27478316
224	0x3e3c32d0	0.18378758
225	0xbeb562d8	-0.35426974
226	0xbeb2cf2f	-0.34923694
227	0xbd6cc44e	-0.0578044
228	0xbeaf5a97	-0.34248802
229	0x3e03790c	0.12839144
230	0x3eaf1e26	0.3420269
231	0x3e711147	0.23541747
232	0x3cc2eacd	0.023793602
233	0xbdde77d5	-0.108627
234	0xbd09521c	-0.03352557
235	0x3dd6fe41	0.10497714
236	0xbc5d9ce1	-0.013526172
237	0xbdb9a815	-0.09065262
238	0xbe848336	-0.25881356
239	0xbd54647c	-0.051853642
240	0xbed636bb	-0.4183863
241	0x3e1ca441	0.15297033
242	0xbb72b56a	-0.00370344
243	0xbd411749	-0.047141347
244	0x3e62b78c	0.2214033
245	0xbdd66490	-0.104683995
246	0x3bc68305	0.006058099
247	0xbdf08151	-0.11743415
248	0x3e2a5789	0.16634955
249	0xbe6253e0	-0.22102308
250	0x3e1e58a6	0.15463504
251	0xbe8ecf7d	-0.27892676
252	0x3db1bdd4	0.08678785
253	0xbef5f155	-0.48035684
254	0x3e47c491	0.19508578
255	0xbe8b4167	-0.27198336

signal_classifier.body.0.layers1.0.bias f4 [16]
0	0x3dea339c	0.11435625
1	0xbdc690de	-0.096956
2	0xbca2671b	-0.019824555
3	0x3e2a42b8	0.16627014
4	0xbddc7d31	-0.10766066
5	0x3d6f9bd7	0.05849823
6	0xbd35a27d	-0.044344414
7	0xbc684381	-0.01417625
8	0xbc6c6757	-0.014428935
9	0xbde937db	-0.11387607
10	0x3e451439	0.19245996
11	0x3e00dc16	0.12583956
12	0xbe1e73c2	-0.15473846
13	0xbe155b89	-0.14585699
14	0xbdc5df7a	-0.096617654
15	0xbdee5a4e	-0.11638318

signal_classifier.body.0.layers1.1.weight f4 [16]
0	0x3f7ddbc1	0.9916344
1	0x3f80c253	1.0059303
2	0x3f740f3e	0.9533576
3	0x3f7dc1b3	0.99123687
4	0x3f748970	0.95522213
5	0x3f7a97f3	0.97888106
6	0x3f757e54	0.95895886
7	0x3f88d7e4	1.0690885
8	0x3f7f83d5	0.99810535
9	0x3f7a1f1d	0.97703725
10	0x3f7e79c8	0.99404573
11	0x3f7358cf	0.95057386
12	0x3f78c73a	0.97178996
13	0x3f84ecea	1.03848
14	0x3f72d586	0.9485706
15	0x3f7dc601	0.99130255

signal_classifier.body.0.layers1.1.bias f4 [16]
0	0x3d7e47a1	0.06208003
1	0x3d2abb51	0.041682545
2	0x3d458fdf	0.04823291
3	0x3b20ff21	0.0024566131
4	0x3d9592c6	0.073033854
5	0x3dd8dbf6	0.10588829
6	0xbd034627	-0.032049324
7	0x3dc23460	0.09482646
8	0xbc3c2aa4	-0.011484776
9	0xbadb7c14	-0.0016745352
10	0xbd19ba58	-0.037531227
11	0xbd96238b	-0.07330998
12	0x3a8eac91	0.0010885169
13	0x3d2accb7	0.041699138
14	0x3baa9693	0.005205938
15	0x3d8cca5f	0.06874537

signal_classifier.body.0.layers1.1.running_mean f4 [16]
0	0x3e86583d	0.26239195
1	0xbd954c56	-0.072899505
2	0x3a8f999a	0.0010955811
3	0x3eef6330	0.46755362
4	0xbec91df5	-0.39280668
5	0x3e0c1842	0.13681129
6	0xbe33fc05	-0.17576607
7	0xbe458e9f	-0.19292687
8	0x3d6338cb	0.055474084
9	0xbead3e71	-0.33836702
10	0xbd37dfc6	-0.04489114
11	0x3e22c0ff	0.15893935
12	0xbedbc449	-0.4292319
13	0xbd809c3d	-0.062798
14	0x3e68b1be	0.22724053
15	0xbe4fcc08	-0.20292675

signal_classifier.body.0.layers1.1.running_var f4 [16]
0	0x3f9cff47	1.2265404
1	0x3eda5f2a	0.4265073
2	0x3f56405b	0.8369195
3	0x3f301065	0.68775016
4	0x3f1bfacf	0.6092958
5	0x3ed42baf	0.41439578
6	0x3f836930	1.0266476
7	0x3fc5017e	1.539108
8	0x3eb28eb3	0.34874496
9	0x3f54eb12	0.8317119
10	0x3eee823e	0.46583742
11	0x3f69fbd2	0.9139987
12	0x3ea49887	0.3214762
13	0x3f5c9779	0.8616863
14	0x3ef401bc	0.47657573
15	0x3f096b59	0.53679425

signal_classifier.body.0.layers2.0.0.weight f4 [16, 32, 1]
0	0xbe3b63ed	-0.18299837
1	0x3e9569e6	0.29182357
2	0xbe32405c	-0.17407364
3	0xbf17b01f	-0.59253114
4	0xbd1979ea	-0.037469782
5	0xbdd09a14	-0.10185638
6	0x3f29189a	0.66053164
7	0x3d65114d	0.055924702
8	0x3eb9a418	0.36258006
9	0xbe268f14	-0.16265517
10	0x3e750b89	0.23930182
11	0x3df50229	0.11963303
12	0xbe42e318	-0.19031942
13	0xbd93dccf	-0.0721985
14	0x3d37efd1	0.04490644
15	0x3f137bbe	0.5761069
16	0xbd95d240	-0.07315493
17	0x3e4fe5eb	0.2030255
18	0x3e35d5d0	0.17757344
19	0xbda84a0d	-0.08217249
20	0x3ca9abf3	0.020711875
21	0x3f0e14b6	0.5550035
22	0x3d866a3d	0.06563232
23	0xbeb633fd	-0.3558654
24	0xbf2f8be9	-0.6857286
25	0xbe21a811	-0.15786768
26	0xbed41003	-0.41418466
27	0x3d28e7ca	0.041236676
28	0xbe6d66dc	-0.23183769
29	0x3e0a826b	0.13526313
30	0x3e16599a	0.14682618
31	0x3e1d7b94	0.15379173
32	0xbe68856e	-0.2270715
33	0x3dbe601e	0.09295677
34	0x3ed3e376	0.41384476
35	0x3cc4db6f	0.024030415
36	0x3ee837f5	0.45355192
37	0x3d20288f	0.03910118
38	0xbdfcaf34	-0.12338105
39	0x3d868c50	0.06569731
40	0xbec81329	-0.39077118
41	0xbe85bf5a	-0.26122552
42	0x3e33d1a7	0.17560445
43	0x3dddd89b	0.1083233
44	0xbeb9d68a	-0.36296493
45	0xbe72bada	-0.2370409
46	0xbeed5ed0	-0.463614
47	0x3e09bbbf	0.13450526
48	0x3e82b280	0.2552681
49	0xbd5b0929	-0.053475533
50	0x3c91f63c	0.017817609
51	0x3c8c15ba	0.017100204
52	0x3d58eb75	0.052958924
53	0x3dd321fc	0.103092164
54	0xbce416fc	-0.027842991
55	0xbed48761	-0.41509536
56	0x3e0785b3	0.13234596
57	0xbefd5a09	-0.49482754
58	0x3ebbc333	0.36672363
59	0x3d85003b	0.064941846
60	0x3cbc8fbc	0.023017757
61	0xbeba7956	-0.36420697
62	0xbe024ba6	-0.1272417
63	0x3c09a41c	0.008400943
64	0xbd92de24	-0.07171276
65	0xbe1212d8	-0.14265001
66	0xbe7adcb1	-0.2449825
67	0x3e7e1bb5	0.24815257
68	0xbc565bc8	-0.013083406
69	0x3d1e8317	0.038699236
70	0x3d39f825	0.045402665
71	0x3e4de2c2	0.20106032
72	0x3e9d1c4e	0.30685657
73	0xbf1f1a83	-0.6214983
74	0xbe015e7c	-0.12633699
75	0x3e01a3b2	0.12660101
76	0xbd7b5a67	-0.06136551
77	0x3da2f173	0.07956209
78	0xbdee2fd1	-0.11630214
79	0xbdd61ca2	-0.1045468
80	0xbe2e178c	-0.1700117
81	0x3c3e87ca	0.011629054
82	0xbe618c07	-0.22026072
83	0xbe7cfe24	-0.24706322
84	0x3d6f3a44	0.058405176
85	0x3e33fa1c	0.17575878
86	0xbece1216	-0.40248173
87	0x3ebb3224	0.36561692
88	0xbe81a92c	-0.2532438
89	0x3de649b3	0.11244526
90	0xbd83ef7c	-0.064421624
91	0x3d1797e4	0.03701009
92	0xbe61b360	-0.22041082
93	0xbea8b247	-0.32948515
94	0xbe01b792	-0.12667683
95	0x3f23654b	0.63826436
96	0xbf0bcc29	-0.546084
97	0xbef64209	-0.48097256
98	0x3e962fa2	0.29333216
99	0xbea1b98c	-0.31586874
100	0xbe6a1efa	-0.22863379
101	0xbe441e11	-0.19152094
102	0x3caf75dc	0.021418504
103	0x3eba27cc	0.36358488
104	0x3e5ebfa7	0.21752797
105	0x3e711285	0.23542221
106	0xbe564451	-0.20924498
107	0xbdb289c0	-0.0871768
108	0x3e3d4be3	0.1848598
109	0xbd0cdbfe	-0.03438949
110	0xbc8d093a	-0.017216314
111	0x3e7889e1	0.24271347
112	0x3d654e25	0.055982728
113	0xbe3f3a88	-0.18674672
114	0xbdb60568	-0.0888775
115	0xbea02d1c	-0.31284416
116	0x3e94da71	0.29072908
117	0xbd1a45a1	-0.03766406
118	0x3e4406c7	0.1914321
119	0x3e094129	0.13403763
120	0x3e77d539	0.24202432
121	0x3f33eadc	0.7028024
122	0x3e5b4088	0.21411335
123	0xbe536d43	-0.20647149
124	0xbe02964f	-0.1275265
125	0xbd2282be	-0.039675467
126	0xbe087c52	-0.13328674
127	0x3d8815ff	0.066448204
128	0x3e05bde5	0.1306072
129	0xbe018edd	-0.12652154
130	0x3dc2983b	0.09501692
131	0xbe88734d	-0.26650468
132	0x3e63246f	0.22181867
133	0xbed07ef3	-0.40721855
134	0xb9d2af76	-0.0004018505
135	0xbe5536af	-0.20821641
136	0x3e071f5e	0.1319556
137	0x3e02ffa0	0.12792826
138	0xbca8dcd3	-0.02061311
139	0x3ddd20bc	0.10797259
140	0xbf399967	-0.724997
141	0xbe4d36d3	-0.20040445
142	0xbe9fcb68	-0.31209874
143	0xbde1ba10	-0.11021817
144	0x3e38ab33	0.18034057
145	0x3d3e32e3	0.046435248
146	0x3e3f973f	0.1871004
147	0x3e76047c	0.24025148
148	0xbcee2995	-0.029072562
149	0xbe9818f6	-0.29706544
150	0x3ead0c62	0.3379851
151	0x3e75016e	0.23926327
152	0x3e39c03f	0.18139742
153	0x3df8ec00	0.121543884
154	0xbe1976e0	-0.14986753
155	0xbd6f0dbe	-0.058362715
156	0xbf29e193	-0.66359824
157	0xbcae18cd	-0.02125206
158	0x3e4102dd	0.18848749
159	0x3eb736dc	0.35784042
160	0x3d78cc42	0.06074167
161	0xbdbd98e9	-0.09257681
162	0x3cb330c7	0.021873845
163	0x3c1d0c38	0.009585433
164	0x3eb03cc5	0.34421363
165	0xbdd287fc	-0.10279843
166	0xbdb709e2	-0.08937432
167	0x3d85a66b	0.06525882
168	0xbd99462d	-0.07484088
169	0x3e5a0305	0.21290214
170	0xbef70e68	-0.4825318
171	0xbf0af6ff	-0.54283136
172	0x3e1a7f27	0.15087567
173	0x3ee3cb19	0.4449089
174	0x3eaea2b1	0.341085
175	0xbf21e7ee	-0.6324452
176	0xbd089a2a	-0.033350147
177	0x3d6e6810	0.05820471
178	0x3d167434	0.036731914
179	0x3eea50bb	0.45764717
180	0xbddaa3ac	-0.10675749
181	0x3f4ab7aa	0.791865
182	0xbe9dc6c8	-0.3081572
183	0x3e87d214	0.26527464
184	0x3e96fac9	0.2948821
185	0xbe65ce52	-0.22441986
186	0x3cb083b4	0.021547176
187	0xbe95b999	-0.29243162
188	0xbec9a901	-0.39386752
189	0x3d9b7de1	0.07592369
190	0xbeb44b20	-0.35213566
191	0x3e842b01	0.2581406
192	0xbd0c8984	-0.034310833
193	0xbd922935	-0.07136766
194	0xbd195259	-0.03743205
195	0xbed547cb	-0.41656336
196	0xbe8fcfeb	-0.28088316
197	0x3f062980	0.52407074
198	0xbe8f8e87	-0.28038427
199	0x3e91d88d	0.28485528
200	0x3ca1a8a4	0.019733734
201	0x3dc21307	0.094762854
202	0xbd9cb937	-0.076525144
203	0xbe9a7fae	-0.30175537
204	0x3e2b1472	0.16707018
205	0x3e664f10	0.22491097
206	0x3f0a23ae	0.5396069
207	0x3eea388c	0.45746267
208	0xbe318e73	-0.17339496
209	0x3e02a059	0.1275648
210	0x3e25d0e9	0.16192974
211	0xbdccce27	-0.10000258
212	0x3dc5e536	0.09662859
213	0x3e8bb265	0.27284542
214	0x3d349716	0.0440894
215	0x3c52509f	0.012836604
216	0xbd14ea0e	-0.036356024
217	0xbb265806	-0.0025382056
218	0x3c200e97	0.0097691035
219	0x3ddd21c0	0.10797453
220	0xbe332963	-0.17496257
221	0x3f077d44	0.52925515
222	0xbe8398a9	-0.25702408
223	0x3d5c91cd	0.053849984
224	0xbe0b3966	-0.13596115
225	0xbc201f01	-0.009773017
226	0xbcfb3262	-0.030663673
227	0xbeff084a	-0.49811012
228	0x3df34d0d	0.11879931
229	0xbdbac746	-0.0912004
230	0xbf1480a1	-0.5800877
231	0xbd47244c	-0.0486186
232	0xbeb6b605	-0.35685745
233	0x3e50ff2f	0.20409845
234	0x3d4fa779	0.050696824
235	0xbec2a01a	-0.38012773
236	0xbe30fffe	-0.17285153
237	0xbf257792	-0.64635575
238	0xbcd34c76	-0.025793295
239	0x3e23909d	0.15973134
240	0x3d9fcbee	0.078025684
241	0x3e8fe1bb	0.28101906
242	0xbe3491df	-0.1763377
243	0x3eef002f	0.46679828
244	0x3b1fd98d	0.0024391145
245	0xbeadf65d	-0.33977023
246	0xbd2bad76	-0.041913472
247	0xbe932ce8	-0.28745198
248	0xbc9e947b	-0.01935791
249	0x3e00970f	0.12557624
250	0xbe0e236a	-0.13880697
251	0x3e46d136	0.19415745
252	0x3e86906c	0.2628206
253	0x3d680aab	0.0566508
254	0xbde55c19	-0.11199207
255	0x3e0043b9	0.12525834

signal_classifier.body.0.layers2.0.0.bias f4 [16]
0	0xbd4540b2	-0.0481574
1	0x3d995dc6	0.07488589
2	0x3e0d134a	0.1377689
3	0xbbbe74f4	-0.0058122817
4	0x3e12d61a	0.14339486
5	0x3e2464f4	0.16054136
6	0xbcc093c7	-0.023507966
7	0x3db6a4db	0.089181624
8	0x3c0414d1	0.008061604
9	0x3d962530	0.07331312
10	0xbd598091	-0.053101126
11	0xbe3d0aea	-0.18461195
12	0xbe1e399a	-0.15451661
13	0xbe00a507	-0.12562953
14	0xbe29a23d	-0.16565795
15	0xbd2d90f3	-0.042374562

signal_classifier.body.0.layers2.0.1.weight f4 [16]
0	0x3f7ffbd9	0.99993664
1	0x3f77c6db	0.96787804
2	0x3f8077fd	1.0036618
3	0x3f830fa5	1.0239149
4	0x3f808d61	1.0043145
5	0x3f7637c4	0.9617884
6	0x3f7f3cae	0.99701965
7	0x3f845aaf	1.0340174
8	0x3f7ab344	0.9792979
9	0x3f7b1bd4	0.9808934
10	0x3f8a2337	1.0791997
11	0x3f882f6d	1.0639473
12	0x3f783ab7	0.9696459
13	0x3f87f13b	1.0620493
14	0x3f7a23a1	0.97710615
15	0x3f83a8ad	1.0285851

signal_classifier.body.0.layers2.0.1.bias f4 [16]
0	0x3cf1329e	0.029443081
1	0xbd4bc2d2	-0.049746342
2	0x3ca0150e	0.01954129
3	0x3b59a4bb	0.003320976
4	0x3cf47485	0.029840717
5	0x3d206a65	0.039163966
6	0x3d00142d	0.03126924
7	0x3d5b552e	0.05354803
8	0xbd68a96d	-0.056802202
9	0xbce2ec80	-0.027700663
10	0x3db24e6c	0.08706364
11	0xbcd6d902	-0.026226524
12	0x3d6535b8	0.055959433
13	0x3d9ad097	0.075593166
14	0x3dcc40e7	0.09973317
15	0x3d2d297d	0.042275894

signal_classifier.body.0.layers2.0.1.running_mean f4 [16]
0	0xbb5a32d6	-0.003329446
1	0x3aa1a0af	0.0012331213
2	0xbbf9da1f	-0.007624879
3	0x3c795fe6	0.015220618
4	0x3d6d0406	0.057865165
5	0x3d4ba1bb	0.049714785
6	0x3da64a5f	0.08119654
7	0xbdb5be90	-0.088742375
8	0x3de7d91f	0.113207094
9	0x3ebdc268	0.37062383
10	0xbe8a4ef7	-0.2701337
11	0xbe0debf6	-0.13859543
12	0xbe36d30a	-0.17853943
13	0x3d43e9ae	0.047830276
14	0xbe039416	-0.12849459
15	0xbeb3d053	-0.35119876

signal_classifier.body.0.layers2.0.1.running_var f4 [16]
0	0x3f2c6359	0.6733909
1	0x3edea8b4	0.43488085
2	0x4016609d	2.3496468
3	0x3f80fa1b	1.0076326
4	0x3ed5cb82	0.41756827
5	0x3f5c3476	0.8601755
6	0x3fba4ee9	1.4555331
7	0x3edc9012	0.43078667
8	0x3ed996b0	0.42497778
9	0x3ed55a3d	0.4167041
10	0x40219672	2.5248075
11	0x40104c45	2.2546551
12	0x3ec23c16	0.37936467
13	0x3f1293c4	0.5725672
14	0x402027fc	2.5024405
15	0x3f8ddfae	1.1083887
