experiments/weights/m202_MultiOutput_20230518_114418/best_uar-1.pth (torch, 383971 bytes, 138 tensors)

signal_classifier.stem.0.0.weight f4 [32, 1, 11]
00000000: 3f5e 183f 6cf9 2a3d 1dee 88bd 9dc3 0c3e
00000010: 9869 123f 928e c8be 2a84 a8be acea b7be
00000020: dd5b 18bf 9c55 5bbe dd3f fe3e 6edf 313f
00000030: 8114 cc3d 28a1 4e3e e721 2b3c d11a 84be
00000040: c8f2 3f3e 5b9e d5be c474 08bf b272 d8be
00000050: 120d 9ebd 6a98 003f 9f5a 833f 83b2 3a3f
00000060: cf96 60bd f1b7 93be 67bf f33e b561 62be
00000070: 42db eebe 9c12 d8bd 4608 d53e 6bf7 0b3d
00000080: e03c 583e 2420 5a3e 0172 a8be 17f4 463f
00000090: 6f70 073e b0d2 2bbe f708 2b3f f484 dbbe
000000a0: 1878 4bbe 6e31 53be 0353 9ebe aafe 653e
000000b0: 5e0f 97be 9679 81be 009c 303e bd7f 673d
000000c0: 8eac 63be a2e0 473e eebb 77be 66cd babe
000000d0: 830a 6a3e d6a6 81be f57e 753f 63be 0ebf
000000e0: 14dc cb3e d39d 81bc 85bb 083e 73e6 14bf
000000f0: b46a 9cbd 55eb 2a3e 67c1 d53e 683b 0abe
00000100: 5f83 863e 64ac 003e 8594 43bd 0789 dbbe
00000110: 6f16 c4be 5780 07bf d526 6b3f 5f7c 92be
00000120: b7ce 403e 1e4b 493e 7e2c 80be 58d1 a33e
00000130: 67f3 263f d865 4dbc 7da0 873f f596 ccbd
00000140: c733 33bf 9470 02bf e1c4 ac3e c422 aa3d
00000150: 0a62 03bd 5b91 7abc a090 3ebf 8e52 ba3e
00000160: f9a2 5b3e 7981 ec3e 0cb9 25bf 0e26 66be
00000170: 811d 4b3e 5cb7 d4be 284c 2ebe 1e39 383e
00000180: 9515 68bd 9668 1bbf 747a 78bf 8f8d bb3c
00000190: 4ed8 5a3d ecb4 fdbd ac53 afbe 4a61 a53d
000001a0: 1b57 87be e128 cfbe 3fc8 08bf 97fd 9f3e
000001b0: b146 0f3f c669 473f 3af2 d63e a40d 3bbe
000001c0: 545c dabe d881 92bb 6c66 33be 52c9 a8bd
000001d0: cd55 33bf 88fe 813d 091d 2bbe 22ed 003e
000001e0: 1f32 ddbe 6236 b63e 957e 04bf d188 8d3e
000001f0: df00 0abd 8e02 0a3e ad55 613e b1ee 853e
00000200: cd1b 61bf 3785 983e 7650 843f 4c6b c73e
00000210: 3527 323f e516 e83e 070f 1b3e 244f 303f
00000220: 02d8 19bf 8631 3c3f db3d d63e ffea 913e
00000230: 7c09 573e b6e3 d1be e9b7 11be 6685 573e
00000240: 1bbf 143e ab52 263f b315 ab3e 76c6 11bf
00000250: 3107 fb3b fcbb 37bd 4e38 843f 5880 f8be
00000260: 6801 ac3d a54d a2be 78d6 02bc 2833 16bf
00000270: be9b a6be 9776 5b3e 6471 c6bd 222c ab3f
00000280: 56e5 68be 2c40 0cbd b9f3 a9be 9b64 26bf
00000290: d192 b2be 917d d73e 3a1b a8be ccba 883e
000002a0: 0d1b 773f 739d 46bd b2ad 733e b878 933e
000002b0: 38b5 d93e 5d49 873e 67a5 133f b40f 93bb
000002c0: 2627 4fbe d39a 80bd a5b0 04bf 6a44 dabe
000002d0: 90ef efbe f2f2 023e 278e cabe 3be0 9cbe
000002e0: 40bd 173e b74e a8be 7d93 da3d 6d67 3c3f
000002f0: e43f efbd 10c4 343f 6f9b cabe 0f4d d83c
00000300: 7451 19be 6e21 883e b224 8c3d d45c 763e
00000310: 9fff 85be b072 b93d c89e d73e 3d6c a43e
00000320: 6192 d33e bf03 b03e bad7 fa3e 33be 9d3e
00000330: 8349 aabd e6a7 2bbd fb53 af3e 96a5 0e3e
00000340: acb8 103d 0891 c3be a49d bebe eb6a 22be
00000350: 7daf 81bd 9ddf af3d 557a 053e 4fa5 0a3f
00000360: 1581 a7bc 0182 913d 0fc8 d13d 2188 353e
00000370: 0d37 e0bd 72c6 3b3e 034b dc3d 084b 9c3e
00000380: e2a9 26be 1ad0 043f feed 843e 6bd2 39bc
00000390: 30d0 98bd 5ad3 833e 62da 013f 859f aebe
000003a0: b5a6 ad3d 1854 bc3e b84f 53be 0a09 4abe
000003b0: fc6e cfbe d3b7 52be 93f5 11bd 3a1c e13e
000003c0: 2b95 4c3e 26f3 d03d e4c5 0a3e 9a7d 793b
000003d0: 5871 38bf fa9b 83bf 3d65 0abd 842f bd3e
000003e0: 307a 71be 53b2 0c3f d718 32be 87f9 013f
000003f0: c902 0d3f 4f8f 5b3e d9b5 88be 77a4 5abe
0.5951881 0.041741773 -0.066860415 0.13746496 0.57192373 -0.39171273 -0.32913333 -0.35921228
-0.5951517 -0.21419376 0.496581 0.6948155 0.09964848 0.20178664 0.010445095 -0.2580171
0.18744957 -0.41722378 -0.5330317 -0.42275006 -0.07717337 0.50232565 1.026203 0.7292864
-0.054831322 -0.28851274 0.47606966 -0.22107585 -0.46651655 -0.105504245 0.41607875 0.034171503
0.21116972 0.21301323 -0.32899478 0.777162 0.13226484 -0.1677959 0.66810554 -0.42874873
-0.19870031 -0.20624325 -0.30922708 0.22460428 -0.29503912 -0.25288075 0.1724701 0.056518305
-0.22233793 0.19519284 -0.24192783 -0.36484832 0.22855572 -0.25322598 0.95896846 -0.5575926
0.39816344 -0.015822327 0.13352783 -0.5816414 -0.076375395 0.16691335 0.41749117 -0.13499224
0.26272103 0.12565762 -0.04774906 -0.4287798 -0.38298365 -0.52930206 0.9185613 -0.28610513
0.18828855 0.19657561 -0.25033945 0.31995654 0.6521515 -0.0125364885 1.0595852 -0.0998973
-0.7000088 -0.5095303 0.33743957 0.08307412 -0.03207592 -0.0152934445 -0.7443943 0.3639111
0.21448888 0.4619253 -0.64735484 -0.22475454 0.19835474 -0.41546142 -0.17021239 0.17990538
-0.056661207 -0.6070646 -0.9706185 0.022894649 0.05342894 -0.12388024 -0.34243524 0.08075197
-0.26433644 -0.40460876 -0.5343055 0.3124816 0.5596724 0.7789577 0.4198168 -0.18266922
-0.42648566 -0.004471045 -0.1751954 -0.08241524 -0.70052797 0.06347376 -0.16710295 0.12590459
-0.43202302 0.35588366 -0.5175565 0.27643445 -0.033692237 0.13477537 0.22005339 0.2615867
-0.87933046 0.29789135 1.0337055 0.3894905 0.69591075 0.45329967 0.15142451 0.6887076
-0.60095227 0.73513067 0.41844067 0.284996 0.20999712 -0.40994042 -0.14230312 0.21046981
0.14526026 0.6496989 0.33414993 -0.5694345 0.0076607694 -0.04485701 1.0329683 -0.4853542
0.08398706 -0.31699863 -0.007985704 -0.5867181 -0.32540697 0.21431957 -0.09689596 1.3372843
-0.22743735 -0.034240887 -0.33193758 -0.6499726 -0.34877637 0.42087987 -0.32833272 0.26705015
0.9652565 -0.04849 0.23796728 0.2880304 0.4252107 0.2642316 0.5767426 -0.004487956
-0.20229778 -0.062795304 -0.5183204 -0.4263032 -0.4686246 0.12787989 -0.3956158 -0.30639824
0.14818287 -0.32872555 0.106726624 0.73595315 -0.11682108 0.7061167 -0.3957171 0.026403932
-0.14972478 0.26588005 0.068429366 0.24058849 -0.26171586 0.09055078 0.42113328 0.3211383
0.41322616 0.34377858 0.4899271 0.30809173 -0.083148025 -0.041908167 0.3424376 0.13930354
0.035332367 -0.38196588 -0.37229645 -0.15861098 -0.063323 0.08587573 0.13034947 0.5415849
-0.020447293 0.071048744 0.10243236 0.1772771 -0.10948 0.1833742 0.10756495 0.30525994
-0.16275743 0.5188004 0.25962824 -0.011341671 -0.074615836 0.25747186 0.5072385 -0.3410608
0.084790625 0.36782908 -0.20635879 -0.1973001 -0.40514362 -0.20577936 -0.03563459 0.43966848
0.19978778 0.10202627 0.13552052 0.003806925 -0.7204795 -1.0281975 -0.033787955 0.36950314
-0.23581767 0.549596 -0.17392288 0.50771374 0.55082375 0.21441387 -0.2670124 -0.21351801

signal_classifier.stem.0.0.bias f4 [32]
00000000: 5c44 993e 79ec 163d 54f7 a4be 6a3f a23c
00000010: 1b4c 453e 1c30 8f3d 882d 94be 1475 80be
00000020: 67fa de3c b186 72be ec93 b93d 8c42 b8bd
00000030: 1990 383e 1b1b 3e3e d372 74be 0342 063e
00000040: 088c 30be 86f4 60be 8728 adbe 123c c1bd
00000050: 26c7 fa3d cd00 d63b 565e 813e f6cc 653d
00000060: d25e 92bd 962d 6fbe 2306 85be 5080 223e
00000070: b119 4a3e a40f 203e d5b7 80be d684 87bc
0.29934967 0.03684661 -0.32219946 0.019805629 0.19267313 0.06991598 -0.28940988 -0.25089324
0.02721901 -0.23684193 0.09061417 -0.08997068 0.18023719 0.18565027 -0.23871927 0.13111119
-0.17240918 -0.21968278 -0.33819982 -0.09435286 0.12245016 0.006530857 0.25267285 0.05610367
-0.07146992 -0.23357233 -0.25981244 0.1586926 0.19736363 0.15630966 -0.25140253 -0.016542833

signal_classifier.stem.0.1.weight f4 [32]
00000000: f367 7d3f caee 8d3f e0a5 763f 5ecb 5e3f
00000010: 8eed 833f a3e9 863f 8afd 683f 064c 7a3f
00000020: 33bc 823f 95ae 853f 0e63 7d3f 4418 793f
00000030: a01b 7a3f 75ec 813f 0c28 813f 0ab1 823f
00000040: b4f8 8a3f 9e0e 813f 5e09 8a3f 016e 893f
00000050: 76e9 703f 7187 7a3f aa63 6d3f a5c6 823f
00000060: 1503 813f 5e70 733f 2ada 7e3f 2945 773f
00000070: 1d34 853f 09b5 7b3f 3d83 7c3f 35b3 8c3f
0.9898674 1.1088498 0.96346855 0.87029064 1.0306871 1.054005 0.9101187 0.9777225
1.0213684 1.0443903 0.9897927 0.9730265 0.976984 1.0150286 1.0090346 1.0210278
1.0857148 1.0082586 1.0784109 1.0736696 0.94106233 0.9786292 0.927302 1.0216872
1.0079066 0.95093334 0.9955164 0.96589905 1.0406529 0.9832311 0.98637754 1.099219

signal_classifier.stem.0.1.bias f4 [32]
00000000: 6076 133d b52b 12bc 0cad 8dbd 6c12 803d
00000010: 49bb f43a 1414 8a3b 4a1b d03d 0830 87bb
00000020: 75fa 81bc 20cd af3b 7c5e 90bc 3f9c bc3d
00000030: 502d 4bbd dee6 db3d d8f6 1dbc a517 05bc
00000040: a731 12ba 6db9 f6bb 8bd8 a1bb 3e0f b7bb
00000050: f43e a73d d3ec f0bd dddd 5d39 990c 29bb
00000060: 07b5 283b d089 23bd 6456 b4bc 0512 e2bc
00000070: 4e43 59bb de99 9ebd 36ed 193d 4c95 e53b
0.036001563 -0.008921553 -0.06917772 0.06253514 0.0018671538 0.0042138193 0.10161455 -0.004125599
-0.015866498 0.005365029 -0.017623179 0.09209489 -0.04960376 0.10737394 -0.009641372 -0.008123313
-0.0005576857 -0.0075294287 -0.004939144 -0.005586534 0.08166304 -0.11763921 0.00021158853 -0.0025794862
0.0025742666 -0.03992635 -0.02201385 -0.027596483 -0.003315169 -0.077441916 0.037579738 0.007006323

signal_classifier.stem.0.1.running_mean f4 [32]
00000000: 2062 993e 7281 103d f1fb a4be efa2 9b3c
00000010: 5116 453e 6f91 913d abad 93be c6bb 80be
00000020: b5fe e33c 9e30 70be a671 ba3d 238d b6bd
00000030: 862c 383e 5869 3e3e 9834 74be 0d52 083e
00000040: 7554 32be 7323 61be b16b adbe e962 c5bd
00000050: c5b4 fc3d 687d dc3b f900 813e 0550 693d
00000060: 524b 91bd 4d52 6cbe a0b7 84be f587 213e
00000070: 8685 493e 4c06 213e e271 80be 4505 82bc
0.29957676 0.0352797 -0.32223466 0.018998591 0.19246794 0.071078174 -0.28843436 -0.2514326
0.027831415 -0.23456046 0.09103708 -0.089136384 0.17985734 0.18594873 -0.23848188 0.1331255
-0.1741503 -0.21986179 -0.33871225 -0.09638006 0.123391666 0.006728817 0.25196055 0.05696108
-0.07094444 -0.2307827 -0.25921345 0.1577452 0.19679841 0.15725058 -0.25086886 -0.015871653

signal_classifier.stem.0.1.running_var f4 [32]
00000000: c736 613e c922 423e b9d7 933e 10e1 553e
00000010: a7e9 3e3e 663e 0e3e 69fc 833e c483 933e
00000020: a759 963e 62fb 403e 456c 093e d9a1 903e
00000030: f63f 9d3e 69bc 943e d65b b53e 3c3c 5c3e
00000040: 02c2 eb3d 2d0c 203e 5a99 f03d 52e2 aa3d
00000050: eb68 d23d 2bbd d13d 1bc7 943e 5c0e 993e
00000060: 833e 1d3e 407e 893d a86e 593e f373 fd3e
00000070: da79 943e be1b 123e 0f93 133f 0c2e 6e3e
0.21993552 0.18958582 0.2887552 0.20886636 0.18643819 0.1389099 0.2577851 0.28811467
0.29365274 0.18845895 0.13420208 0.2824848 0.3071286 0.29049996 0.35421628 0.21507353
0.115116134 0.15629645 0.117479995 0.083439484 0.10273918 0.10241159 0.29058155 0.29893768
0.15355878 0.067135334 0.21233618 0.49502525 0.28999215 0.14268395 0.5764627 0.23259753

signal_classifier.stem.1.0.weight f4 [32, 32, 3]
00000000: 6581 a5bd 58da 203e 02ae 0a3e 8f20 ea3a
00000010: 00d9 4cbd 905c 39bd 3b96 c0bd 7ede 5b3e
00000020: 704e f43d 5700 97be c59f 523b eacc 223d
00000030: f521 d23d f70c e6bd 3bec 0e3e e423 353d
00000040: e783 57bb 6527 653d 119c 1a3e 1882 d7bd
00000050: a132 24be 2db8 02be de90 9a3d af13 4c3e
00000060: 431f b83d e157 cf3d 4e72 1cbd 1e51 433e
00000070: e2cd 39be 9e53 69bd 3e82 5ebd 986b dcbd
00000080: 0500 e23d 5537 773e caae 89bd 165f 91bd
00000090: ebfe 96be 7ee2 163e f272 22be 27e8 bc3d
000000a0: 01ca d23d 325a 913d 4924 61be 0d07 8bbd
000000b0: 3368 6ebd 6d8d 833e 7a31 c33e 263e 103e
000000c0: a45c 02bd 54ac 11be 4c84 a13d 92b2 673e
000000d0: ad98 823c 358a 15be 7315 b4be 184c 0bbe
000000e0: 58d2 0d3e 4244 3c3e 3387 123e 4249 1cbd
000000f0: 8843 cebd 6769 75be 3f8f d2be c541 1cbe
00000100: 4abd 4d3e bd1a 7e3d 731c 073e 445e 993d
00000110: c99a 0a3d d94d 2a3e b019 753e 16e4 0a3e
00000120: af2e a0be 81c2 933e 8007 973b f62a 313d
00000130: 9e86 1c3e 9929 3cbe 37b7 91bd 27cf 4e3c
00000140: 0cd5 50bc 811c 4bbd 975c f23d a2ac d7bd
00000150: b264 6fbd 470d 9fbc c86f 95bd 971f 473e
00000160: 655f 493e c4f6 49be 6531 a5bd 271b 1b3e
00000170: 345a 95bd e119 1c3c bb99 443e 6dfe 90bd
00000180: fbe1 ecbd 8fd6 233e 2f10 073d 65f4 50be
00000190: 1a4c 89bd 0be3 203e 3bff 3bbd f59e 41be
000001a0: 83f1 9e3d 6f0e 7bbe a59f 9a3d d423 b93d
000001b0: 36c9 a3bd c342 07be 5b9a 8fba 0a5f af3d
000001c0: 8612 fbbd c1b0 99bd c91e d9bd 858f 6c3d
000001d0: 507c 69bb e6f7 db3e 65c2 b8bd 8f6d 5ebe
000001e0: ff1d aabd fb96 73be 7084 953e 123b bf3d
000001f0: 5c31 52bd d83c c63d d5a7 8b3d 40f4 6ebe
00000200: 1565 813d fbdf 8ebe 01b9 203d ed1d ccbd
00000210: 15c1 f7b9 f487 8e3d 116e 4d3d 3e11 9c3d
00000220: 7004 d0bd 1bde 6d3e c975 d83d 8c01 04be
00000230: 648e 783d 24da 01bc ad75 22ba 7243 36be
00000240: 69c9 80be b62e 953c 2da1 233c aefb 5abd
00000250: b598 c0bd b459 e63e 20f4 1cbe 3384 c1be
00000260: 4ff3 2f3e 012e 433e e1e3 04be b79f 25be
00000270: de79 17bd 3b35 b63d b9e8 6dbd 2499 9a3d
00000280: 2c73 7fbd 8f99 01be b311 503d 1960 663d
00000290: 4b2c a2bd d5aa 243e dc0b 91bd 8e5f 7b3d
000002a0: b836 42bd 5596 06bc c2db 7b3e 30d4 293e
000002b0: 6b1b 65be 5304 61be fe51 303e ffa2 85bc
000002c0: 5271 d3bc 5ac8 aa3d a98e 21be 4f4b 393e
000002d0: 13ef 0abe 4e8b 713d 1c97 353e a040 7abe
000002e0: f58f d5bb 2113 1ebd c68a 5cbe 19da cbbd
000002f0: 2547 6abe 504a 223e 48a7 f73d 70c7 5b3d
00000300: c57c 68be 340a 7bbd 9361 553d 9436 983d
00000310: 69d3 39bd 0a66 34bd 959e c93c 6d61 12bd
00000320: 0245 d73d 9aeb 95bd f9fb 43be e0e8 44be
00000330: 416a ac3d e1b4 d83c adf7 0dbd 0d78 01be
00000340: 8b94 2f3e 7c6c 383e 03d1 afbe 9b84 c73d
00000350: 8106 f5bd 3740 3f3d 337f 1c3d d4ab 3bbe
00000360: e8af 163e 3600 fe3d 847c 8cbe 0240 393e
00000370: e0da 973e 0fbf 7f3e 88ad 5fbe 6c69 d2be
00000380: f39e a5bd 16c9 873d cc4a 00be 70ec 143e
00000390: abbd fb3d 527e cc3c b675 22be b594 05bd
000003a0: dfa5 c7bd aa68 863e 53ef 15be d8d2 03be
000003b0: 2840 313e d704 2fbe a468 13be 42ae 053e
000003c0: ca96 41be e3d1 c63c 8903 7cbc 8313 213c
000003d0: f08c 3e3d 2fc6 9cbe 2ce8 743d aa1e 8bbd
000003e0: 8645 b83c 9f9e 403e c2bc 7fbd 1a33 383e
000003f0: 58a4 9dbd 160e 92bd 0242 4fbd 33b9 00bd
-0.08081321 0.15708292 0.13542941 0.0017862486 -0.050011635 -0.04525429 -0.09403654 0.21471593
0.11929023 -0.29492447 0.0032138687 0.039746203 0.10260383 -0.112329416 0.13957302 0.04422368
-0.0032885016 0.055945773 0.15098597 -0.1052286 -0.16034938 -0.1276557 0.075471625 0.19929384
0.08990338 0.101241834 -0.038194947 0.19073913 -0.18144944 -0.05696451 -0.054323427 -0.107627094
0.1103516 0.24142201 -0.067227915 -0.07098214 -0.29491362 0.14734837 -0.1586416 0.09223967
0.102924354 0.070972815 -0.21986498 -0.06788454 -0.05820484 0.25693837 0.38123685 0.14086208
-0.03182663 -0.14225894 0.07886562 0.22626713 0.015941942 -0.14603503 -0.35172614 -0.13603246
0.13849771 0.18385413 0.14309387 -0.0381558 -0.10071474 -0.23965989 -0.41124913 -0.15259464
0.2009174 0.06203722 0.13194446 0.07488683 0.03383902 0.16631259 0.2393558 0.1356357
-0.31285617 0.28859332 0.0046090484 0.04325386 0.15285727 -0.18375243 -0.071150236 0.012622631
-0.012746107 -0.04958773 0.11834066 -0.10530974 -0.05844564 -0.01941551 -0.07296711 0.19445644
0.19665296 -0.1972304 -0.08066062 0.15147077 -0.072925955 0.009527654 0.19199269 -0.07079778
-0.1156654 0.15999816 0.03297442 -0.20405729 -0.06703968 0.1571161 -0.045897704 -0.18908294
0.077609085 -0.24517225 0.07549981 0.09040037 -0.07997362 -0.13209061 -0.0010956036 0.08563049
-0.122593924 -0.07504416 -0.10601575 0.05775406 -0.0035627075 0.4296257 -0.09021453 -0.21721481
-0.083065026 -0.23788063 0.29202604 0.09337439 -0.051316604 0.09679574 0.06819121 -0.23335361
0.06318108 -0.2790526 0.039238933 -0.099666454 -0.0004725537 0.06959525 0.050153796 0.07620476
-0.101570964 0.23229258 0.10569341 -0.12891215 0.06068267 -0.007925544 -0.00061973446 -0.17799166
-0.25153664 0.01821075 0.009987158 -0.053462677 -0.094041266 0.44990313 -0.15327501 -0.37796172
0.17182659 0.19060518 -0.12977554 -0.16174208 -0.036981456 0.08896872 -0.05808327 0.075487405
-0.062365696 -0.12656234 0.05079813 0.05624399 -0.079186045 0.16080792 -0.0708234 0.061370425
-0.047415465 -0.008214553 0.2459555 0.1658485 -0.2237374 -0.21974306 0.17218778 -0.016313074
-0.025810871 0.08338995 -0.15777077 0.18095134 -0.13567762 0.058970742 0.17733425 -0.24438715
-0.006517405 -0.03859246 -0.21537313 -0.09953708 -0.22878702 0.1584866 0.12092453 0.053656995
-0.22703846 -0.061289027 0.052095007 0.07432285 -0.045367632 -0.044042625 0.02461175 -0.035737444
0.10511209 -0.07320328 -0.19139089 -0.1922946 0.08418704 0.026453437 -0.03466003 -0.12643452
0.17146508 0.18010134 -0.3433915 0.09742089 -0.11964131 0.0466921 0.038207244 -0.18327266
0.1471554 0.12402384 -0.27438748 0.18090823 0.29659176 0.24975227 -0.2184354 -0.41096056
-0.08086958 0.06630151 -0.12528533 0.14543319 0.12292036 0.024962578 -0.15865216 -0.03261252
-0.09748434 0.26251727 -0.14642076 -0.128734 0.1730963 -0.1709169 -0.14395386 0.13054755
-0.18905178 0.024270004 -0.015381702 0.009831312 0.046521127 -0.30619952 0.05979173 -0.06792958
0.022494089 0.18810509 -0.062435873 0.17988244 -0.07697362 -0.07131593 -0.05060006 -0.03142662

signal_classifier.stem.1.0.bias f4 [32]
00000000: c65a 983b 758e 863d 1b14 1abd f8fd fcbd
00000010: 83fd ebbc 4199 183e a1d4 143d 5957 bdbd
00000020: 16a6 9dbd 32d8 08bd 1141 65bc 1ece a3ba
00000030: 3fcb 9b3d 27c2 b3bb 133b d13d 7c69 853d
00000040: aed9 f03d b847 96bd fab0 a33c ae13 c43a
00000050: 7c0e bb3d 5152 11be d4d2 eebd ffed 843d
00000060: ffb1 063e dbf8 f33c ff74 46bd a20d 89bd
00000070: 349b 92bc 135e a9bd 4449 ee3c 1902 d4bc
0.004649493 0.0657014 -0.03761683 -0.12353128 -0.028807407 0.14902212 0.03633559 -0.09245176
-0.07697694 -0.033409305 -0.013992564 -0.0012497341 0.076071255 -0.0054857912 0.10216346 0.0651426
0.11760269 -0.07337898 0.01998185 0.0014959478 0.09133622 -0.14191557 -0.11661306 0.06490707
0.13153838 0.02978175 -0.04845142 -0.066920534 -0.017896272 -0.08269896 0.02908767 -0.025879906

signal_classifier.stem.1.1.weight f4 [32]
00000000: 2e9f 843f 4bb6 703f 2bd8 7b3f 6408 8f3f
00000010: 84ad 823f 46c0 753f 3a47 7c3f 2b36 633f
00000020: 0cd6 773f 2ecc 843f e169 7f3f bf84 8e3f
00000030: 3038 683f 15fc 863f 3c3f 823f 2c41 753f
00000040: 84dd 833f 20da 7b3f 46d8 703f 7073 783f
00000050: 5adc 773f 86b7 8f3f 1f58 883f 7dc7 873f
00000060: e904 883f 38d7 763f ad93 823f 73b6 7d3f
00000070: f638 673f 73f3 833f 8036 7f3f 2af6 703f
1.0361078 0.94028157 0.9837672 1.1174436 1.0209203 0.9599651 0.98546183 0.8875453
0.96810985 1.0374811 0.99770933 1.1134261 0.90710735 1.0545679 1.0175548 0.9580257
1.0301976 0.9837971 0.9408001 0.97051144 0.96820605 1.1227882 1.0651892 1.0607754
1.0626498 0.9642215 1.0201317 0.9910652 0.9032129 1.030867 0.99692535 0.94125617

signal_classifier.stem.1.1.bias f4 [32]
00000000: 31f5 f03b 90d3 c63c 7327 b03c bcd6 793d
00000010: 5c20 afbc 8cba 06bd 2695 ae3c 420b 71bd
00000020: 6b08 b3bb 9b78 1fbd a188 0d3e 3b26 6c3c
00000030: 016f ac3c 6faa 1c3d 7b8e 22bd 0e7f 45bc
00000040: e541 e43b 3a91 b63d b945 253c 1213 123c
00000050: 611d e03a 4cba 913d 4de8 da3c 7787 1e3d
00000060: 71af 123d b3e5 2db5 bf69 05bc 90b1 3c3d
00000070: 7612 eb3c 7962 e53b bc03 123d 0803 cabc
0.007353448 0.024270803 0.021503186 0.060995802 -0.021377735 -0.03289275 0.021311354 -0.058848627
-0.00546365 -0.038933378 0.13821651 0.014413412 0.021049025 0.038248476 -0.03968666 -0.012054218
0.006965863 0.089144185 0.010087424 0.0089156795 0.0017098599 0.071156114 0.026722098 0.038703408
0.035811845 -6.478178e-07 -0.008142888 0.046067774 0.028695326 0.0070002642 0.035648093 -0.024659649

signal_classifier.stem.1.1.running_mean f4 [32]
00000000: 3abc 803d 9789 89bd 9385 75be 0ee7 e9be
00000010: 215b d3be 3ac2 173e a2e1 843e 7b8d abbe
00000020: 2365 08be 563f cb3d 7da9 483e 5611 2dbe
00000030: 8e07 553e 967b 0a3e 4795 4d3e 93bb 8d3e
00000040: 48c7 ce3c e50f e83d 52ff 70bc 0088 623e
00000050: 187d 29be 4e75 8fbe 295f 8bbe 549a 993e
00000060: 1ea8 46be 9df6 9cbd 3458 62bc 8c68 00be
00000070: a882 77be a138 403b 39fa d2bd 2c51 bdbd
0.06285901 -0.06715696 -0.23976736 -0.45684093 -0.41280463 0.14820185 0.25953394 -0.3350638
-0.1331983 0.0992419 0.19595905 -0.16901144 0.20803663 0.13523707 0.20076476 0.2768217
0.02524151 0.11331157 -0.014709311 0.22122192 -0.16551626 -0.28019184 -0.2722104 0.30000556
-0.19400069 -0.07664225 -0.013814975 -0.12539881 -0.24170935 0.0029330628 -0.103016324 -0.09243998

signal_classifier.stem.1.1.running_var f4 [32]
00000000: 6dee 853f d25f 883f 324e 8c3f b01f 4840
00000010: 3d74 2b40 e4bf 8b3f 81ff b23f 5696 cd3f
00000020: 4d20 863f 9ee6 db3f 4e48 c73f e646 403f
00000030: 01f2 983f 9d81 ba3f 7f22 ab3f 83f7 d23f
00000040: 2c27 673f e5d5 a63f 3248 593f 7b5a 0940
00000050: fef2 ed3f 4c9c 8b3f 664c 8e3f ad3a be3f
00000060: 628d 3c40 f7f5 523f 5107 983f 48b5 933f
00000070: 4cd4 b13f 029c c33f 23fd 743f 40aa 713f
1.0463387 1.0654242 1.0961363 3.126934 2.6789696 1.0917935 1.3984224 1.6061504
1.0478607 1.7179754 1.5568941 0.7510818 1.1948854 1.4570805 1.3369902 1.6481785
0.90294147 1.3034025 0.84875786 2.1461475 1.858978 1.0907073 1.1117065 1.4861656
2.9461293 0.8240656 1.1877233 1.1539698 1.3892913 1.5281985 0.95698756 0.94400406

signal_classifier.stem.2.0.weight f4 [32, 32, 3]
00000000: 9441 22be 3a5f f8bd 0099 7b3e b8e5 ba3d
00000010: 3250 e8bb 0d6a 293d 65d1 b63d e4b3 69be
00000020: e8c8 2dbc 7e57 f6bb 4c65 d8bd e288 09bc
00000030: 5afb b6bd 41a4 6d3e 1db8 203e 7b73 023e
00000040: 99eb cabd 717f 16be e08d 40bd de77 7c3d
00000050: 104a 413d 0530 a13d e87f ad3c 299e c1bd
00000060: 1a10 6bbe 6720 17be 371f 4a3e e3a0 b93d
00000070: 58a6 933e ff83 863e 712e f53d fb81 79be
00000080: 8b6f 033d 842a fa3b ba14 493e 0f41 6f3d
00000090: ad5e a43e 365c 413e dfb3 683d 2861 1b3e
000000a0: c269 35bd e982 2fbd e441 48be 9033 ae3d
000000b0: 189f b53d ce37 d93d 4574 1bbe 1a00 6a3d
000000c0: 0560 bf3d ba02 393e c15c 693e b7e9 a93c
000000d0: 7b05 573e 2499 12be 3f89 88be e910 62be
000000e0: 44fc 913c 77f3 a73c 2da4 f1bd e503 9ebd
000000f0: f5c7 af3d 1e2c b13d f6c2 96be 6ed4 cf3d
00000100: 1eb6 3cbe 9f59 443b d269 09be e118 21be
00000110: 6546 00be 757d e8bd d858 ba3d ba1d 9e3e
00000120: c00a d73c cb3f 3fbd 30ad 8dbd b01b 183c
00000130: 913e d8bc 0b0a e53c 9661 32be 4910 453e
00000140: 4ff8 bf3d 2dd1 89bd d9d1 a9bb 7ca1 6a3e
00000150: 1d54 2dbe db99 823e eb88 8abc 1d87 43be
00000160: c8d7 2bbc 7348 d43d a197 e23d 98f6 543d
00000170: 1b63 47be a37f 1cbe fe05 20be 4e88 003e
00000180: 7fe4 e43c 3206 253e c792 a23e 1b25 eebc
00000190: a32f 5abd cfc7 52bd 21ee 343c fb13 bdbd
000001a0: 19aa 2ebe 66de e5bd 7937 8e3e 351c 593e
000001b0: c703 06be 23af 3ebd e9bf c23d 88ca 90bd
000001c0: 77bb 06bd 4787 41bb c229 933d 987d 07bd
000001d0: a2ee a0bd a52e a93d fcbf 8cbc a07e 12be
000001e0: 74e8 8b3d 4309 a43d 7658 963e bac2 023e
000001f0: fe51 ba3d 31e3 b53c 7564 4a3e fc6c bcbb
00000200: a423 02bd 6092 583e d362 b7bd fe27 373b
00000210: 7d3b 1c3d 9226 febd 434a 86bd 830c 6b3e
00000220: defe 2dbe 4099 66bd 0c3b d93d f3f0 66bd
00000230: 180d cfbd 9b85 883e f479 b5be 0686 463c
00000240: 9712 85be ce49 033e 2430 703d 3b62 063e
00000250: f63b a03b 528e c73c 7c8b 3f3e bf3a c43d
00000260: a6e0 b03d 3ae6 053e 1507 723c be2a bcbd
00000270: fd0e 6ebd c048 363e cd28 733d 076d 063e
00000280: 4501 a23c 40f8 a0bd 224d 0abe 8924 3e3d
00000290: b69d 4fbc b122 973e 703e 29be 08c2 56bd
000002a0: 42ce a73e 4fcc b63e fe60 86be 5c59 963d
000002b0: ad30 84bd 4c0b d93d 4009 75bc a566 96be
000002c0: 64dd b1bd 0531 e93d 8f5e 85be 1556 1c3c
000002d0: ee57 ec3d 3d98 6f3e 15b0 213e e7e3 813e
000002e0: ad57 833d ac35 ddbd b325 813e 4528 af3d
000002f0: 763f debc dfb9 f63b 46e9 06bd 4647 20bd
00000300: 0287 373e 5022 4d3e 586c fe3c cf30 3fbe
00000310: df39 a2bd 94ce a03c 48c5 1cbd 5b17 d3bd
00000320: fb75 d5bd 13fb b4be cbcd eebd 1314 1a3d
00000330: b64a 9f3c 8115 253e 23c6 3fbd cfdf a8bd
00000340: b45a eebd d434 0fbd 0f75 60be 2c07 613c
00000350: 8ec5 d9bd 9659 d0bd 93d0 ce3d e5f2 1a3e
00000360: 438e 8f3d ca89 553b 55fc 9c3e 5781 353e
00000370: 152c f5bd a654 8c3d b757 9a3d aa45 4cbd
00000380: cbb3 083c 1866 a0be 0e9a e43d ee2c 93bd
00000390: 9a2c a4be 1733 5f3d 382b 1c3e 5956 f33e
000003a0: 2647 46be 1084 0abd 635e 36be fb6e afbc
000003b0: a1f1 50be fd25 d23c 56db e73d 2775 2f3d
000003c0: 3636 0c3e 7fc8 4e3d 0f06 593e 323f 4cbe
000003d0: b1f9 2fbe 5e39 c5bd c55f 3abb a969 dcbe
000003e0: bf30 983e af38 cc3c 8d24 86be 4c5f 43bc
000003f0: 8535 ba3d d930 123d 75f1 91bb fd16 ed3d
-0.15845329 -0.12127538 0.24570084 0.091258466 -0.007089638 0.041360904 0.089266576 -0.22822529
-0.010606982 -0.007517754 -0.10566196 -0.008394452 -0.0893466 0.23207189 0.15695234 0.12739365
-0.09908218 -0.14697053 -0.047010303 0.06163775 0.047189772 0.07870487 0.021179155 -0.09453995
-0.22955361 -0.14758454 0.1973847 0.0906389 0.28837848 0.2627258 0.119717486 -0.2436599
0.032088798 0.007634463 0.19636813 0.058411654 0.32103482 0.18882832 0.056812163 0.15173781
-0.04429031 -0.042849455 -0.19556385 0.085059285 0.08868235 0.10606347 -0.15181072 0.057129003
0.09344486 0.18067446 0.22789289 0.020741327 0.20998184 -0.14316231 -0.2666721 -0.22076763
0.017820485 0.020501835 -0.11798892 -0.077155866 0.08583061 0.08650993 -0.29445618 0.101479396
-0.18428847 0.0029960645 -0.13419273 -0.15732147 -0.12526853 -0.11352054 0.09098977 0.30882055
0.026250243 -0.046691697 -0.069177985 0.009283945 -0.026397021 0.02795889 -0.17420039 0.19244494
0.09373533 -0.0672935 -0.0051824865 0.22913164 -0.16926618 0.25508007 -0.01691099 -0.1909451
-0.010488458 0.10365381 0.11064077 0.051992983 -0.194714 -0.15283065 -0.15627286 0.12551996
0.027940987 0.16115645 0.31752607 -0.029070428 -0.053268086 -0.051460084 0.0110431025 -0.092323266
-0.17057075 -0.1122406 0.27776697 0.21202166 -0.13087378 -0.046553742 0.0950926 -0.0706988
-0.032893624 -0.0029530094 0.07185699 -0.03307876 -0.078580156 0.0826085 -0.017181389 -0.14306116
0.06831446 0.08009579 0.29364365 0.12769595 0.0909767 0.02220306 0.19764884 -0.0057502966
-0.03177227 0.21149588 -0.08954396 0.0027947421 0.03814267 -0.124097005 -0.06557133 0.22953992
-0.16991755 -0.056298494 0.106069654 -0.05638213 -0.10109919 0.26664433 -0.35444605 0.012116915
-0.25990745 0.12821123 0.05863966 0.1312341 0.0048899604 0.024359856 0.18705553 0.095815174
0.08636598 0.13076106 0.014772196 -0.0918784 -0.058119763 0.1780119 0.059365083 0.13127528
0.019775996 -0.0785985 -0.13505986 0.04642156 -0.012671879 0.29518655 -0.16527724 -0.052431136
0.3277455 0.3570275 -0.26245874 0.07341263 -0.06454597 0.10597858 -0.014955819 -0.29375187
-0.08684805 0.11386303 -0.26048705 0.009542008 0.11540209 0.23397918 0.15789826 0.25369188
0.06413207 -0.10801253 0.25224075 0.08552603 -0.02712987 0.007529482 -0.03293731 -0.03913047
0.17922595 0.2003262 0.031057522 -0.18670963 -0.07921194 0.019629754 -0.03827408 -0.10307189
-0.104228936 -0.35347804 -0.11660346 0.0376168 0.019444805 0.16121484 -0.046819817 -0.08245813
-0.11638394 -0.03496249 -0.21919654 0.01373462 -0.10633384 -0.10173337 0.10098376 0.1513172
0.07009556 0.003258335 0.30661264 0.1772512 -0.119712986 0.06852083 0.075362615 -0.049871124
0.008343647 -0.3132789 0.11162196 -0.07186304 -0.32065278 0.054492082 0.15250862 0.47526816
-0.19363078 -0.03381735 -0.17809443 -0.021415224 -0.20404674 0.02565288 0.11321132 0.042836335
0.13692555 0.050484177 0.21193717 -0.19945982 -0.17185093 -0.096300825 -0.002843843 -0.43049362
0.2972469 0.024929373 -0.2619976 -0.011924576 0.09092239 0.035691116 -0.0044538327 0.1157665

signal_classifier.stem.2.0.bias f4 [32]
00000000: 1b1e 2b3d 8d5e 03bd 2288 00be 41f7 d93c
00000010: a0c3 c5bd 7596 3e3c 1ff9 16bd 2e6b 9bbc
00000020: 8dac 953a f049 b33d 0aac 823d c57d 93bd
00000030: 43c7 23bd e472 19bc 165e a73d fa1a 593d
00000040: 87e7 6bbd 658d b83d e407 933d 169a 66bd
00000050: e72e 763d 2253 0dbd 1268 1c3d cef7 6e3b
00000060: 1661 74bd 2193 ddbd 760e c53c 3d4e 03be
00000070: 40ff 953c 0a4d 843d b68b 8fbd 25bb acbd
0.041776758 -0.032072593 -0.1255193 0.026607158 -0.09656453 0.011632551 -0.036858674 -0.018972006
0.0011419222 0.08754337 0.0638047 -0.07201723 -0.039984953 -0.009365771 0.08172242 0.053004242
-0.05759385 0.09011344 0.071792394 -0.05629929 0.060103323 -0.03450311 0.038185187 0.003646362
-0.0596629 -0.10819078 0.024054747 -0.12822814 0.01831019 0.064600065 -0.070090696 -0.084341325

signal_classifier.stem.2.1.weight f4 [32]
00000000: f10b 793f b192 863f b853 753f 5ed5 7e3f
00000010: 086e 7b3f 0f9c 7d3f 532b 8d3f 4d18 863f
00000020: d0e3 753f 9159 673f 3d09 8a3f b7f0 8a3f
00000030: 26ad 803f b2d2 793f 9ef5 843f f021 823f
00000040: a846 793f 999a 783f ae12 843f ad54 823f
00000050: ed09 813f 737a 823f afae 7a3f e85d 763f
00000060: cbdc 773f 03a6 7e3f 3718 7f3f d229 6f3f
00000070: d7a9 883f 4964 7b3f 5cf5 8a3f f2d0 8d3f
0.97283846 1.0513517 0.9583087 0.9954432 0.9821477 0.9906625 1.1028847 1.0476166
0.9605074 0.9037104 1.0784069 1.085471 1.0052841 0.9758712 1.0387456 1.0166607
0.9737344 0.971109 1.03182 1.0182091 1.0081154 1.0193619 0.97922796 0.9623704
0.9682128 0.99472064 0.99646324 0.9342319 1.0676831 0.981999 1.0856128 1.107939

signal_classifier.stem.2.1.bias f4 [32]
00000000: 7c1d 6abc 67b2 28bb b4fd 97bc de46 c93c
00000010: 3030 88b9 56b8 54bd 025a 493d 9623 9a3c
00000020: 1da7 f33c 0020 0b3b d6c2 093e bb4a 193d
00000030: 5770 5a3c 515f 693d 2462 753d 8df0 cbbc
00000040: e221 c13d 9748 f5bc 329f f33d 3a5c b13d
00000050: 3cfe 78bd 0512 03bd fbdb 973b 80bb 82bb
00000060: ce65 30bd b0bd 403d aa36 303d c63f 143d
00000070: 5881 703d d1ec a6bd a101 423d a9f5 c93c
-0.014289256 -0.0025741102 -0.018553592 0.024569925 -0.00025975844 -0.05193361 0.049158104 0.018815797
0.029742772 0.002122879 0.1345323 0.037424784 0.013332448 0.056975666 0.059908047 -0.024894977
0.09430291 -0.02994184 0.118955985 0.08660169 -0.06078933 -0.031999607 0.004634378 -0.003989637
-0.04306584 0.0470559 0.04302088 0.03619363 0.0587171 -0.08150638 0.047364835 0.024653273

signal_classifier.stem.2.1.running_mean f4 [32]
00000000: afc3 fd3d e2f1 b23e 18d3 38be c6b1 dfbe
00000010: 41ca 6ebe 5bbf 08bf 6700 cdbe b217 7fbd
00000020: 2050 18be 22b9 a53e ee75 9b3d 11b6 ffbe
00000030: 203e 34bf f977 2bbd 8af2 5f3e d4f3 2d3e
00000040: eca3 1c3e 6a68 413e b765 363e 8c86 0f3e
00000050: 039a 053f 2280 263e d777 3d3e 6f8b 47be
00000060: f527 9ebe c99c 49be 2ffe 973e 4b23 69be
00000070: c0a6 0c3d f38d 523e 705b dbbd c865 8dbd
0.12390839 0.34950167 -0.18049276 -0.43690318 -0.23319341 -0.53416985 -0.4003937 -0.062278457
-0.14874315 0.32367808 0.07590853 -0.49943593 -0.70407295 -0.04186246 0.21869865 0.16987544
0.15296906 0.18887487 0.17812239 0.1401617 0.5218813 0.16259816 0.18502747 -0.19486783
-0.3088986 -0.19688715 0.29686114 -0.2276737 0.034338713 0.20561962 -0.107108 -0.06904179

signal_classifier.stem.2.1.running_var f4 [32]
00000000: 5f2a c93f 08e2 a53f f973 203f 2d31 873f
00000010: 498b 6f3f 0006 6240 6a75 733f a328 f33f
00000020: 0484 963f ca51 da3f 27cc ed3f 53af 6340
00000030: 58eb 4f40 408e 573f 3b70 813f 61a5 bd3f
00000040: ce9f 0a40 7327 533f 3d39 333f 423c 3a3f
00000050: 77d9 1440 85a6 a23f 2918 0840 2707 8d3f
00000060: cba1 ae3f ca0e 5e3f e17d 8940 ae67 323f
00000070: e425 f73f 1b20 e53f 0b23 4e40 176a d13f
1.5716056 1.2959604 0.6267696 1.0561882 0.9357191 3.5316162 0.95101035 1.8996776
1.1759038 1.705621 1.8577927 3.557576 3.2487392 0.8420143 1.0112375 1.4816095
2.1660037 0.8248207 0.70009214 0.72748196 2.325773 1.2707068 2.1264746 1.1017808
1.3643125 0.86741316 4.296616 0.6968945 1.9308438 1.7900423 3.2208889 1.6360501

signal_classifier.body.0.layers1.0.weight f4 [16, 32, 1]
00000000: d99e 223e 7493 243f 0c64 143e 6adf a83e
00000010: 1302 db3e 5911 fb3d 7765 723e 12d8 1fbe
00000020: 6995 103e 3179 203e a75a 8bbe 0821 703e
00000030: 1e20 a0be ada9 c13e 5e39 77be 7aee 41be
00000040: c846 113e db9f 2ebc 7459 803e 392c 22be
00000050: c0d9 0c3e c0bd 6abf 9e41 0e3e faf8 2bbe
00000060: ce74 e83b 6e33 73bd 2dd5 7ebd cb71 f93d
00000070: 2830 b03d 8604 54be f973 e73e cca2 23be
00000080: fc4a 293d f4b8 ce3e aefb 8dbe 95c4 aa3d
00000090: ac72 d63d 5213 033e 1e12 88bc ba14 133e
000000a0: af98 e9bd 41fe a1bd 84d1 a03c 97b2 ddbe
000000b0: 132e b8bd 12c3 9bbd d31f 37be 2f38 633c
000000c0: 9245 6a3e b350 a93d c147 7ebe 9aea 8abc
000000d0: d53b 77be 9b6c 873e 2e4c 8c3e 4945 13bc
000000e0: af16 873e f0ff 8dbd b818 6c3e 3b29 df3c
000000f0: f763 293e 4a1f 0ebe dc8e f23e 385d b6be
00000100: e134 4fbd 6040 68be faf1 303e 0e19 543d
00000110: 4093 b9bd ce07 bc3d 2c97 6ebc 4799 073e
00000120: 37db b63c 2c53 2d3e baf8 93bd a5f0 23be
00000130: 611a 9fbe cc32 873e 3a3b 69be e8a2 94be
00000140: 77e2 6b3e 8b02 de3e c253 503d 0d23 0b3f
00000150: a290 803e 6f01 423e 8947 04bd a4c7 c93e
00000160: fd9c d7bd 9ed5 19be 9dac d5bc f562 febc
00000170: 145c 52be dabc d73e 2af0 e03d 76ad 96be
00000180: af15 ef3d 7bb0 c23e b911 1f3e 4904 60bd
00000190: e807 c83e 2936 103e 4547 48be d34c 063f
000001a0: 8701 1fbd 79db 83be 3133 013f a0c3 9e3d
000001b0: 63d1 9fbc ecac 093e f29b 0c3e 8399 693e
000001c0: 0652 623e 2fc0 6dbd dca7 173d b1f4 d53e
000001d0: a682 e4bc 76fd 483d bf37 81be 0f3a e8bb
000001e0: d266 063e 4a6c 47be 7531 8dbe 7cc3 1ebf
000001f0: 5dea 4f3d 4d7a 923e c9b7 993e e8b4 023f
00000200: ca66 883e 13fc ae3e b0ed d53d ed2c debc
00000210: 1dbf f03e 06e8 e3be 4590 dbbe 77a2 acbd
00000220: eaeb 313d 5f88 243e 38e0 02bf 95c2 90be
00000230: 2524 4ebe f08f 803d 8c05 c13d c8b2 bdbe
00000240: 3686 89bc e4bc 1e3e 0233 523b addb febd
00000250: e510 e4be 3d0a e83e 6a1d 89bd 7c99 5a3e
00000260: 4164 65be d9d3 53be b860 97be 2c55 2c3e
00000270: 1669 46be 1940 fc3e 5026 2cbe d79a d8bd
00000280: ab0c 423d 785b 88bd 25de 493e 872c 593e
00000290: 796d 263d ca06 f23e 0060 353e f4b4 14be
000002a0: fbee 51be 75c7 123e 8c43 f83e 40ae 9abe
000002b0: c212 093f e332 423d 7116 f03e 3c6f c93d
000002c0: 5440 683a b7e3 a0be 54e6 c63c 031a 21be
000002d0: 3ae4 293c 03ba 103e b4f9 c4bd c695 0dbe
000002e0: 13b6 73be dfb8 1ebd 6622 e13d 4635 883e
000002f0: 3f3d e7be a070 903c f89c 8bbe 4dca 9abe
00000300: ff67 49be 8439 46be 7b2b 1a3e 2e5b 8a3e
00000310: 4d7d a33d 4c88 fcbd 10ae a7be efcf 5c3e
00000320: 7637 09bc 5e95 edbd 6e34 0b3e 6051 20be
00000330: 745e 4ebd 6953 cd3e 6aea 323e 8de0 dfbe
00000340: 74a7 a7bd 3b78 20be 664f 183f 0e7c 5abd
00000350: e283 c9bd a897 b5bd 5503 52be c2bf 453e
00000360: 50f4 68be 69c7 78be ebdd 71bd fa29 1c3c
00000370: b722 7dbe dc4e 543e e771 1abe 2740 8e3e
00000380: d0bc 1a3e 753a dbbe f598 a0be a048 5ebd
00000390: ab80 94be d18f 0c3e cebc b53e 9893 863e
000003a0: 4abc 943d 169f 05be efbb 723c c289 453e
000003b0: a7ae 483c 4639 17be de25 8dbe 8a38 05be
000003c0: 58fe d8be 2991 0a3e 75ba 533c d1c8 b1bd
000003d0: 3848 333e 7ed1 47be f59e 97bc 7907 8fbd
000003e0: 9317 293e 41a7 85be 5a61 f23d b8e9 9abe
000003f0: d286 d43d 5526 eebe 66e0 7d3e a332 38be
0.15880908 0.64287496 0.1449129 0.3298295 0.4277502 0.12259168 0.23671518 -0.15609768
0.14119495 0.15671231 -0.272176 0.234501 -0.31274503 0.37824765 -0.24142978 -0.18938628
0.14187157 -0.01065823 0.25068247 -0.15837182 0.1375494 -0.91695786 0.13892218 -0.16794196
0.0070940023 -0.05937522 -0.06221502 0.121799074 0.08602935 -0.2070485 0.45205668 -0.15980071
0.041331276 0.40375483 -0.2773108 0.08338276 0.10471091 0.12800339 -0.016610201 0.14363375
-0.11406075 -0.07909823 0.019631155 -0.43300316 -0.08993163 -0.07605566 -0.17883234 0.013868376
0.22878101 0.08267345 -0.2483206 -0.01695757 -0.24143918 0.26450047 0.2740187 -0.008988687
0.26384494 -0.06933582 0.23056304 0.02724134 0.1654204 -0.13879123 0.47374618 -0.35617995
-0.05058754 -0.22680807 0.17279807 0.051781707 -0.09061289 0.09181176 -0.014562409 0.13242064
0.022321327 0.16926259 -0.07225175 -0.16009767 -0.31074813 0.26405942 -0.227765 -0.29030538
0.23035608 0.43361315 0.050861128 0.5435036 0.25110346 0.1894586 -0.032294784 0.39410126
-0.1052799 -0.15022895 -0.026083285 -0.031053046 -0.20542938 0.4213627 0.10983308 -0.29429215
0.11674058 0.3802527 0.15534104 -0.054691587 0.39068532 0.1408316 -0.19558437 0.52460974
-0.038819816 -0.25753382 0.50468737 0.07752156 -0.019509023 0.1344487 0.13731363 0.22812466
0.22101602 -0.05804461 0.037025318 0.41788247 -0.02789433 0.049069844 -0.25237843 -0.0070869992
0.1312516 -0.19474903 -0.27576795 -0.62017035 0.050760616 0.28608933 0.3002303 0.5105729
0.26640922 0.34176692 0.10445726 -0.027121032 0.47020808 -0.44512957 -0.42883506 -0.08429425
0.043437876 0.16067646 -0.5112338 -0.28273454 -0.20130976 0.06277454 0.09424886 -0.37050462
-0.01678763 0.15501744 0.003207386 -0.124442436 -0.4454414 0.4532031 -0.066950634 0.21347612
-0.22401525 -0.20686282 -0.29565978 0.16829365 -0.19376025 0.49267653 -0.1681149 -0.10576408
0.047375362 -0.06658071 0.19713648 0.21208392 0.040631745 0.47270805 0.17712402 -0.14522153
-0.2050132 0.143339 0.48489034 -0.30211067 0.5354425 0.04741181 0.4689212 0.098356694
0.00088596833 -0.31423733 0.02427975 -0.15732579 0.010369355 0.14133458 -0.096179396 -0.13826665
-0.23799925 -0.038750526 0.10992889 0.26603144 -0.45163915 0.017631829 -0.27268195 -0.30232468
-0.19668578 -0.19357878 0.15055649 0.2702269 0.079828836 -0.12330684 -0.32749987 0.21563695
-0.008375039 -0.11600755 0.13594219 -0.15656042 -0.050383046 0.401027 0.17472234 -0.43726006
-0.08186236 -0.15670864 0.5949615 -0.053340964 -0.09839608 -0.08866817 -0.20509084 0.19311431
-0.22749448 -0.24294819 -0.059049528 0.009531492 -0.24720274 0.20733207 -0.15082513 0.2778332
0.15111089 -0.42818037 -0.31366697 -0.05426848 -0.29004416 0.13726737 0.3549561 0.2628448
0.07262476 -0.13048968 0.014815315 0.19290832 0.012248672 -0.14767942 -0.27567953 -0.13009849
-0.4238155 0.13531937 0.012922873 -0.08680881 0.17508018 -0.19513509 -0.018508414 -0.06983847
0.16512899 -0.26104167 0.118349746 -0.30256438 0.103772774 -0.4651362 0.24792632 -0.17988066

signal_classifier.body.0.layers1.0.bias f4 [16]
00000000: 1d9f 0d3e 70ed f8bd d51a f4bc f24d 363e
00000010: 2287 f1bd 4968 c4bb f6c4 e9bc 597a 09bd
00000020: 4033 903b 64e4 ddbd 294d 3c3e 4174 283e
00000030: 8e42 11be e2b8 c1bd ba04 0fbe 3b87 bbbd
0.13830228 -0.121546626 -0.02979795 0.17803171 -0.11793353 -0.005993877 -0.028536301 -0.033563945
0.0044006407 -0.10834578 0.1838881 0.16450597 -0.14185545 -0.09459092 -0.13966647 -0.091566525

signal_classifier.body.0.layers1.1.weight f4 [16]
00000000: c9ce 853f 6a1b 843f a85e 663f f295 803f
00000010: cfc7 713f ad1f 803f 8320 803f d9c8 893f
00000020: dde8 843f 0b81 7a3f 396a 763f 1522 6b3f
00000030: 271d 6e3f 2b8b 853f e435 6a3f 9e40 7b3f
1.0453731 1.0320866 0.89988184 1.004576 0.9444551 1.0009667 1.0009922 1.0764419
1.0383564 0.97853154 0.9625583 0.9184888 0.9301323 1.0433096 0.9148848 0.98145473

signal_classifier.body.0.layers1.1.bias f4 [16]
00000000: 3683 a83d 153b 5a3d 9943 073d b0ef 163d
00000010: 0862 8c3d 32ad ec3d 6c63 33bd e7da fc3d
00000020: 4ed8 5f3d 555e f33c 2d2c 63bd 1e43 7bbd
00000030: b1bf 713d 2f97 e83d c532 c5bb a942 c33d
0.082281515 0.053279 0.03302345 0.036849678 0.068546355 0.11556472 -0.043795988 0.1234644
0.054649644 0.029708067 -0.05546205 -0.061343305 0.0590207 0.11356961 -0.006018015 0.09534199

signal_classifier.body.0.layers1.1.running_mean f4 [16]
00000000: fa4f 8b3e 1093 a2bd ee04 c83d f23f 2b3f
00000010: 6f75 cdbe e67d a63d e0e1 1ebd c641 4cbe
00000020: b557 053d fadc c6be f8ae b7bd 19eb 753e
00000030: 4ea1 06bf a334 e23c 4106 9e3e c5f9 9cbe
0.27209455 -0.07938206 0.09766565 0.6689445 -0.40128657 0.08129482 -0.03878963 -0.19946966
0.032554347 -0.38840467 -0.089689195 0.24015464 -0.5258988 0.02761299 0.30864146 -0.3065931

signal_classifier.body.0.layers1.1.running_var f4 [16]
00000000: 20af 8d3f 50de f93e 9e54 883f c2ec 1a3f
00000010: 964e 623f 1760 d73e 72ab 083f 78db 3440
00000020: 6982 8a3e 1829 163f 3c29 c43e ca37 6c3f
00000030: 85f3 f73e 6a6d 183f e815 003f 3e81 e23e
1.1069069 0.48802423 1.0650823 0.60517514 0.8840116 0.42065498 0.53386605 2.8258953
0.2705262 0.58656454 0.3831271 0.9227263 0.48427978 0.5954195 0.50033426 0.4423923

signal_classifier.body.0.layers2.0.0.weight f4 [16, 32, 1]
00000000: 1bec 55be 53bc 973e f132 66be 474a 19bf
00000010: b87b 46bd 9d9a 01be 5287 2f3f 2a15 903d
00000020: 0592 db3e 6e72 22be 0f4c 7c3e b2d1 1f3e
00000030: dbcc 4abe 272f 41bd d55a 653d cea2 0f3f
00000040: 1178 63bd 656a 453e d279 1b3e 785f 0cbe
00000050: 74b0 193c 35f3 033f 7a88 4a3d 8595 a5be
00000060: 2884 34bf 9307 23be 5476 ccbe c205 d7bc
00000070: a1fb 51be b56a f13d f004 4c3e a538 503e
00000080: 2214 81be d125 d23d ab88 d23e 3561 093d
00000090: 7993 ea3e c05c 283d d5ee c8bd d2d4 c33d
000000a0: f931 bcbe de9b 8fbe b977 4f3e fb7a e43d
000000b0: 723a cabe 2883 8abe 8714 f2be d97d 213e
000000c0: cb15 6e3e f1f1 9fbd ef1b 953c bf65 0abd
000000d0: 850d 863d 8fdc 263d 7624 14bd c9df d4be
000000e0: d33d f23d c7f8 f9be bc68 b83e 935a 1d3d
000000f0: 0a60 6b3c a3e7 c2be ebb6 07be 1957 a03c
00000100: 8b33 c0bd 6e5b 0ebe 3d5a 45be ad8c 893e
00000110: ff81 a13d ee96 493d 61ad ca3d 2365 5c3e
00000120: a94e a93e 99d7 0fbf 4519 afbd 9d3b 353e
00000130: d8a9 1ebd a516 063e 0afa 0bbe d212 9fbd
00000140: 0c0f f7bd 07b4 523d d234 28be 7fd2 9abe
00000150: 29dd d43d ef56 373e 7678 a0be 5ba2 ca3e
00000160: a495 68be 885f 1c3e ee0a 48bd 0daf 4f3d
00000170: a285 64be ad63 8abe a63a 02be 6a8b 333f
00000180: 0ff9 01bf e1b6 04bf 7916 6f3e 8344 9ebe
00000190: e70a 56be a9c9 11be a4e4 193c 9889 c53e
000001a0: 3be2 843e 5e7d 7a3e 8a59 28be d409 f1bd
000001b0: eca8 3d3e 91f5 a439 e971 113d d819 883e
000001c0: 5be0 a53d 4a78 3fbe 7231 08bd 2d25 bebe
000001d0: 8933 a43e 70ba c4bb 75b4 3f3e 07a8 0e3e
000001e0: c025 6b3e 2649 2d3f 9e4d 663e bcec 88be
000001f0: c21c 2bbe 2124 1abd 6e2b 2fbe 9395 323d
00000200: 8de5 2e3e 8f7d f4bd e8c1 923d e54a 68be
00000210: d4cc 843e a317 cbbe 27fe 48bd 2127 7dbe
00000220: 0387 453e 378d 013e e777 9fbc dd7d a53d
00000230: cc9b 3cbf 57c3 30be 5fa6 88be fe88 3abd
00000240: 056e 4e3e 653d 9a3d 1689 753e 18f1 213e
00000250: 3c85 ca3c 74e9 8dbe e794 c93e 4a76 5a3e
00000260: fcf9 753e 805a 113e f562 f3bd 35f3 5f3c
00000270: 24b5 2dbf dab3 073c bbca 133e 2666 a83e
00000280: a621 f93d fe8d b8bd 842d 6f3d 261c 013d
00000290: 9c81 ab3e c882 f4bd ed63 0abe 8bbe c63d
000002a0: 1684 00bd d634 553e dd4c f9be d0f5 03bf
000002b0: db23 553e 8f19 d53e 9882 c43e 8bc0 20bf
000002c0: bb3c 17bd e34b d2ba c597 523c 854a e53e
000002d0: ad09 ccbd 87f6 543f 3aa6 98be 1ac5 953e
000002e0: 71ed 7d3e 27db 8abe e56c 363d 29cd 94be
000002f0: 3ae2 a7be 3ab3 a83d 0940 a3be 3f05 883e
00000300: 8099 8abc 65f9 13bd a682 c5bd e089 d2be
00000310: e34e aabe 8f78 0d3f e3b8 88be 0852 993e
00000320: 0891 353c e558 d43c 691b c5bd b467 a2be
00000330: d8d8 293e b614 5d3e d749 0d3f 0f06 e53e
00000340: fe30 31be fbde 033e 1fc4 073e 5066 18be
00000350: e9cc a63d b003 a33e 5a12 afba e9ab d2bb
00000360: 5761 2abd 385e 8a3c 39ff 663b b41f ee3d
00000370: 9196 56be e3ed 013f 29d8 8cbe 25a9 8a3c
00000380: 8a40 29be 23ab 2abd 43ad 2abd ef4a fbbe
00000390: 0cd3 9a3d 9cad 06be c19f 23bf 8056 23bd
000003a0: 98e0 b3be 42f2 283e db53 c53d d0eb bdbe
000003b0: efd6 6abe 1514 21bf 8afb e7bb 65aa fe3d
000003c0: f40b 4b3d 0460 753e cbd1 57be b9f6 fe3e
000003d0: f642 d5bc 9b5c b6be 6987 a3bd 0e56 9bbe
000003e0: 8ef2 acbc 0757 cb3d 854a 28be 3ef9 0a3e
000003f0: 4742 8e3e bc4e d13c 17b9 d4bd 1c30 103e
-0.20890848 0.29635867 -0.2248037 -0.59878963 -0.04845783 -0.12656637 0.6856586 0.07035287
0.42884842 -0.15863964 0.24638389 0.15607336 -0.19804709 -0.04716411 0.055994827 0.56107795
-0.055534426 0.19278868 0.1518319 -0.13708293 0.009380449 0.5154298 0.04944656 -0.32340637
-0.70514154 -0.15920858 -0.39934027 -0.026247863 -0.20506145 0.11787931 0.19923759 0.20334108
-0.25210673 0.10261119 0.41119894 0.03353997 0.45815638 0.04110408 -0.098111786 0.09562077
-0.36756876 -0.28048605 0.20260514 0.11156269 -0.39497715 -0.2705319 -0.47281286 0.15770663
0.23250501 -0.078098185 0.018201796 -0.03378844 0.065455474 0.040737685 -0.036167584 -0.41576985
0.11828198 -0.48822615 0.36017406 0.038416456 0.014366159 -0.3806735 -0.13253371 0.019572781
-0.09384831 -0.13902065 -0.19272704 0.2686514 0.07886123 0.049216203 0.09896351 0.21522956
0.33067825 -0.5618835 -0.08549742 0.17698522 -0.038736194 0.13094576 -0.13669601 -0.077672616
-0.12063417 0.05144122 -0.164264 -0.3023872 0.103937455 0.17904256 -0.31341904 0.39576992
-0.22713333 0.15270817 -0.04883855 0.05070405 -0.22316602 -0.27029172 -0.12717685 0.70134604
-0.5077066 -0.5184155 0.23348416 -0.30911645 -0.20902596 -0.14237083 0.009392891 0.38581538
0.2595385 0.24461886 -0.16440406 -0.11769453 0.1852147 0.0003146348 0.035509024 0.26582217
0.08099433 -0.1869823 -0.03325028 -0.37137738 0.32070568 -0.0060036704 0.18721183 0.13931285
0.22963619 0.6768974 0.22490546 -0.26743114 -0.16710189 -0.03763211 -0.17106411 0.043599676
0.17079754 -0.11938011 0.07165891 -0.2268482 0.2593752 -0.3966647 -0.049070504 -0.24721958
0.19289784 0.12651525 -0.019466354 0.08080647 -0.7367523 -0.17262016 -0.2668943 -0.045540802
0.20159157 0.07531241 0.23978075 0.15814626 0.024721734 -0.27717173 0.39371416 0.21334186
0.24021143 0.1419468 -0.11884109 0.013668825 -0.67854524 0.008282626 0.14432804 0.32890433
0.12164621 -0.09011458 0.058393016 0.031520985 0.33497322 -0.11939007 -0.13514681 0.09704312
-0.031375967 0.20820937 -0.48691455 -0.51546955 0.20814459 0.41621062 0.38380885 -0.627938
-0.03692315 -0.0016044345 0.0128535675 0.44783416 -0.09962783 0.8318867 -0.2981432 0.2925194
0.24797608 -0.27120325 0.044537444 -0.29062775 -0.32789785 0.0823731 -0.31884792 0.26566502
-0.016918898 -0.036126513 -0.0964406 -0.41120815 -0.3326331 0.5526208 -0.26703557 0.29945397
0.011081941 0.025921294 -0.09624369 -0.31719744 0.16586626 0.21589932 0.55190796 0.44731185
-0.17303845 0.12878029 0.13258408 -0.14882779 0.08144552 0.3183875 -0.001335691 -0.0064291847
-0.041596737 0.01689063 0.003524734 0.11627141 -0.20955874 0.5075361 -0.27508667 0.016926358
-0.16528526 -0.041667115 -0.04166914 -0.49080607 0.07559785 -0.13152164 -0.6391564 -0.039877415
-0.3513229 0.16498664 0.09635135 -0.37093973 -0.22933553 -0.6292127 -0.0070795463 0.12434844
0.049571946 0.23962408 -0.21076123 0.4979761 -0.026032906 -0.35617527 -0.07984812 -0.30339092
-0.021111753 0.099287085 -0.16434677 0.13571641 0.2778494 0.025550239 -0.103868656 0.14080852

signal_classifier.body.0.layers2.0.0.bias f4 [16]
00000000: 4778 65bd 36ad a23d 9b2b 4e3e 8192 16bd
00000010: a533 fb3d 9775 fd3d 4acf f13b 905c 173e
00000020: 466f 5a3c c588 a43d 6f18 bd3c f949 68be
00000030: 657e 28be 801d 04be dd70 33be e627 bcbc
-0.05602291 0.079431936 0.20133822 -0.03676081 0.1226571 0.12375944 0.007379447 0.14781404
0.013332194 0.08033899 0.02308294 -0.22684468 -0.16454466 -0.12901878 -0.17523523 -0.022968244

signal_classifier.body.0.layers2.0.1.weight f4 [16]
00000000: d7b5 7a3f 6ad4 6f3f 97de 873f a0ae 7d3f
00000010: 9b1b 843f 3a3a 773f 3370 7b3f a249 833f
00000020: 5e63 743f cea1 6e3f 134f 8e3f 295e 883f
00000030: da68 683f 2fd1 8b3f 488f 7e3f 3d8f 863f
0.97933716 0.93683493 1.0614804 0.9909458 1.0320925 0.9657322 0.9821808 1.0256846
0.9546412 0.93215644 1.1117882 1.0653735 0.9078499 1.0923213 0.9943738 1.0512463

signal_classifier.body.0.layers2.0.1.bias f4 [16]
00000000: fbe6 463d c14b 48bd 6d3c 513d 28b1 343d
00000010: a148 753d fd2a 323d c839 0d3d 9de0 ba3d
00000020: 0719 63bd 44ef 173d af41 e93d 7e3c c5bc
00000030: c59e cf3c 83f8 803d c4de c23d a3c4 4e3d
0.048560124 -0.04890037 0.051083017 0.044114262 0.059883717 0.043498028 0.034478933 0.09124873
-0.05544379 0.037093416 0.11389481 -0.024076696 0.025344262 0.062974 0.095151454 0.050480496

signal_classifier.body.0.layers2.0.1.running_mean f4 [16]
00000000: 8257 e43d 14de bfbd d966 4a3e a3fb 44bd
00000010: 6c92 813d ee63 c93d b300 c53d 31e8 08be
00000020: fd46 593e 5341 f03e 87c1 04bd 3d74 6bbe
00000030: 36b9 71be b508 1a3e 63f4 39bd be2a ffbe
0.11149503 -0.0936853 0.19765796 -0.048091542 0.06326756 0.09833513 0.09619274 -0.13369824
0.21218486 0.46924838 -0.032411125 -0.2299356 -0.23605809 0.15042384 -0.04539908 -0.49837297

signal_classifier.body.0.layers2.0.1.running_var f4 [16]
00000000: bbca 123f fa1f cf3e 17f2 a93f ec8c 503f
00000010: fe90 263f 5894 693f 62ea 883f 19c4 613f
00000020: f508 103f 2cc1 023f bd39 3d40 eadc 3c40
00000030: b19f e43e d90b f03e c63a 6a40 daf7 3e3f
0.5734059 0.40454084 1.3277005 0.8146503 0.6506499 0.9124198 1.0696528 0.88189846
0.5626367 0.51076007 2.956649 2.9509835 0.44653085 0.4688404 3.6598372 0.7459694
