experiments/weights/m202_MultiOutput_20230518_114418/best_loss-2.pth (torch, 384129 bytes, 138 tensors)

signal_classifier.stem.0.0.weight f4 [32, 1, 11]
000000 c5 56 13 3f 3d f5 c5 3b 3d d6 8d bd 7a 39 15 3e
       0.57554275 0.0060411976 -0.06925628 0.14572707
000010 ad 41 15 3f 59 9b d0 be 9d aa ac be a8 ce bd be
       0.5830334 -0.4074352 -0.33723918 -0.3707173
000020 ec c3 13 bf cc b3 18 be 49 8b 02 3f 70 6c 31 3f
       -0.5772083 -0.14912337 0.5099378 0.6930609
000030 af 35 81 3d f6 3a 2d 3e e6 45 10 bc 48 89 7b be
       0.063090675 0.16917023 -0.008805728 -0.24564087
000040 ee bd 4a 3e 27 32 bc be fb 0c 11 bf f4 72 b8 be
       0.19799015 -0.36757013 -0.5666043 -0.36025202
000050 c2 8d 60 bd 60 c0 0e 3f 90 41 81 3f ca f4 33 3f
       -0.05482269 0.5576229 1.0098133 0.70295393
000060 24 68 de b9 19 f5 8c be 7a 66 09 3f 09 7d 4b be
       -0.0004242073 -0.27530745 0.5367199 -0.19871916
000070 ec 45 f9 be ac c2 e8 bd 4c 60 c4 3e e6 f7 96 3d
       -0.4868616 -0.11365256 0.3835472 0.073715016
000080 81 4d 6d 3e ee 4c 58 3e 24 ff a0 be 90 93 4b 3f
       0.23174097 0.21123096 -0.31444657 0.7952204
000090 99 2e 40 3e 63 5b 4e be 81 60 28 3f ff d9 cf be
       0.18767776 -0.20152049 0.65772253 -0.40596005
0000a0 85 63 2a be cb ac 74 be d8 f1 6f be 1b b0 83 3e
       -0.16639526 -0.2389404 -0.234321 0.25720295
0000b0 3f 37 93 be 64 4f 8c be 35 4a 4e 3e 1e 80 44 3d
       -0.28753087 -0.2740432 0.20145495 0.047973745
0000c0 f5 75 81 be 42 48 45 3e 9f cb 53 be de c4 b3 be
       -0.25285307 0.19265845 -0.20683144 -0.35111135
0000d0 cf 7c 7f 3e 00 41 92 be ce 67 6d 3f 84 af 00 bf
       0.24949954 -0.28565216 0.9273652 -0.50267816
0000e0 83 b1 ae 3e 82 02 25 bd ed 7f 0c 3e bb fa 31 bf
       0.34119806 -0.040285595 0.13720675 -0.6952321
0000f0 c0 7f d1 bd 24 8b e9 3d 6e 62 c1 3e ae d6 68 be
       -0.102294445 0.11403492 0.37770408 -0.22738144
000100 8f 7b 48 3e 09 e2 d5 3d 49 e7 30 3d 9c 43 de be
       0.19578384 0.104435034 0.04318932 -0.43410957
000110 13 3c 9c be cd 16 0d bf 17 b7 67 3f 95 9b 90 be
       -0.30514583 -0.55112916 0.9051375 -0.282437
000120 33 2e 65 3e 24 7f 77 3e 4a 44 9f be af a2 9a 3e
       0.22380905 0.24169594 -0.31106788 0.30202243
000130 05 bf 21 3f e1 46 d7 bd 81 d5 7c 3f 0a 4f 12 be
       0.631821 -0.10511566 0.9876328 -0.14287964
000140 b9 71 45 bf 95 8f 06 bf cc fc 9f 3e a4 1a 58 3d
       -0.7712665 -0.5256284 0.31247556 0.05275978
000150 36 76 b4 bd c6 7e 9d bd 1f c1 4c bf 3a f1 90 3e
       -0.088116094 -0.07690196 -0.7998218 0.2830904
000160 48 e0 8b 3e 7b ee 08 3f 2e f6 14 bf 65 0e 8e be
       0.2731955 0.5348889 -0.5818814 -0.27745357
000170 c6 8a 7e 3e 38 e1 bf be 2a b6 55 be 54 0a 63 3e
       0.24857625 -0.37476516 -0.20870271 0.22171909
000180 61 d0 30 bd 8d 9d 1f bf ee 39 64 bf 65 27 c1 3d
       -0.043167476 -0.6234978 -0.89150894 0.09431342
000190 ec 75 c5 3d 1c e2 88 bd 67 47 a4 be 5e 3c 41 3e
       0.096416324 -0.06683752 -0.32085726 0.18870685
0001a0 aa 49 46 be 12 e3 98 be e0 90 01 bf 73 31 b8 3e
       -0.19364038 -0.2986074 -0.50611687 0.35975227
0001b0 89 b4 17 3f a6 d9 4e 3f aa a6 dd 3e 4c ec 35 be
       0.5925985 0.80800855 0.43291217 -0.17765921
0001c0 91 fb cf be 94 24 31 3c a2 3b 2c be e7 e9 0b bd
       -0.40621617 0.010811944 -0.16819623 -0.034158614
0001d0 d5 25 2c bf e1 dd cc 3d c1 0d e0 bd ea cd 05 3e
       -0.6724523 0.100032575 -0.10940123 0.13066831
0001e0 b4 44 f3 be 23 d4 c0 3e 38 5a ff be e3 43 9d 3e
       -0.47513354 0.37661847 -0.4987352 0.30715856
0001f0 a3 63 91 bb 78 4c 2a 3e 8b 86 6b 3e 61 61 99 3e
       -0.0044369265 0.16630733 0.23000543 0.29957107
000200 77 3e 63 bf 4d e5 9d 3e e4 78 75 3f 15 12 dd 3e
       -0.8876719 0.30839005 0.9588759 0.43177858
000210 14 90 23 3f ba d5 fb 3e 7d e0 2b 3e 4c b6 2a 3f
       0.6389172 0.49186498 0.16784854 0.6668441
000220 5b 24 38 bf 32 d1 30 3f 01 67 d1 3e 67 4c 92 3e
       -0.71930474 0.69069207 0.40898898 0.28573915
000230 d0 d4 1f 3e e0 22 c3 be 7b e4 8e bc 90 ff 5d 3e
       0.15608525 -0.38112545 -0.017442932 0.2167952
000240 f3 a8 30 3e eb e2 24 3f b4 d6 ac 3e fa cd 08 bf
       0.17251949 0.6440875 0.33757555 -0.53439295
000250 00 3f 9d 3c 97 eb 2e bd d7 26 8a 3f 1a 7d dc be
       0.01919508 -0.042705145 1.0793103 -0.43064195
000260 b4 26 b8 3d fb 17 a1 be b0 9d 11 bd 22 cb 22 bf
       0.08991757 -0.31463608 -0.035550773 -0.63591206
000270 f4 45 bd be 19 3f 41 3e 70 0f 15 be b3 b6 9d 3f
       -0.36967432 0.18871726 -0.1455667 1.232138
000280 b2 3e 8d be 3e c5 d0 bd fa 36 b5 be 67 83 31 bf
       -0.27586895 -0.10193871 -0.35393506 -0.6934113
000290 27 53 b9 be 87 ff c6 3e 2e 93 df be 3a a3 5b 3e
       -0.36196253 0.38866827 -0.43666977 0.21448985
0002a0 51 87 78 3f 60 8e 18 be 51 d1 30 3e 8c 10 37 3e
       0.97081476 -0.14898062 0.17267348 0.17877406
0002b0 24 d1 c7 3e 01 ab 70 3e 0f a2 08 3f 53 02 1f be
       0.3902675 0.23502733 0.5337228 -0.1552823
0002c0 fb f4 b5 bd 86 1e c9 3c c5 be ee be d5 27 b8 be
       -0.08884617 0.024550688 -0.4662992 -0.3596789
0002d0 e9 8b c4 be 86 02 8a 3e de f3 b5 be 7d fa 69 be
       -0.38387993 0.2695505 -0.35537618 -0.2284946
0002e0 f8 d5 98 3e 9c a6 a3 be 9c 25 94 3e 3b 7e 3e 3f
       0.29850745 -0.3196305 0.28934944 0.7441136
0002f0 b9 e7 b8 bd a5 7a 2d 3f b7 29 d4 be dc a7 2d bd
       -0.090285726 0.67765266 -0.41438076 -0.04239641
000300 f1 1a 05 be 4d 92 8a 3e d4 9f c9 3d ed 17 67 3e
       -0.12998559 0.27064744 0.09844938 0.2256772
000310 2e 4d 6d be b2 ed 19 3e 52 44 dc 3e 67 4f 76 3e
       -0.23173973 0.1503208 0.43020874 0.24053727
000320 64 7d eb 3e ca 11 b2 3e 2a 98 ed 3e d2 1e 6e 3e
       0.45994103 0.34779197 0.46405154 0.23253945
000330 6b 94 50 be 66 f8 38 be 88 60 36 3e a5 3f a2 3d
       -0.20369117 -0.18063506 0.17810261 0.079222955
000340 b0 ea 36 be d3 78 99 be a1 1b 9a be cc 85 a1 bd
       -0.17862964 -0.29974994 -0.30099204 -0.07886848
000350 15 10 eb b9 b8 f4 29 3e aa fc 18 3e db 14 1a 3f
       -0.00044834675 0.16597259 0.14940134 0.6018807
000360 ec d7 0d bd 8a f6 a2 3d e0 ea c1 3d 18 87 8d 3e
       -0.034629747 0.0795718 0.09468627 0.2764213
000370 12 11 ea bd fe f0 54 3e 8b 66 94 3d e2 b3 98 3e
       -0.11429037 0.20795056 0.07246121 0.2982474
000380 e4 99 5c be 45 3e 01 3f 13 1c 80 3e 33 85 af 3c
       -0.2154308 0.5048564 0.2502142 0.021425819
000390 c4 76 95 bd ca ba 68 3e 3d a3 fa 3e 75 33 99 be
       -0.07298043 0.22727504 0.48952666 -0.2992207
0003a0 a4 61 02 3d e7 65 bd 3e 1a 4d 8f be f7 70 81 be
       0.0318314 0.36991808 -0.2798851 -0.25281498
0003b0 ed f3 86 be f9 b7 41 be ac 9f 1e bd 5f 77 03 3f
       -0.26357976 -0.18917836 -0.038726494 0.5135402
0003c0 9b e5 39 3e 5e 18 75 3d 28 a3 90 3d c1 70 04 bd
       0.18153994 0.05983769 0.070623696 -0.032334093
0003d0 ee ec 44 bf a2 e0 89 bf af 93 e8 bd 7a da ab 3e
       -0.76924026 -1.0771677 -0.113562934 0.33565122
0003e0 cf 07 b6 be e1 d8 d7 3e ec 86 b9 be 27 13 ca 3e
       -0.35552832 0.42157653 -0.3623575 0.39467737
0003f0 3f a4 f6 3e 73 3c 85 3e 28 f9 6d be 2d d0 2d be
       0.48172185 0.26022682 -0.23239577 -0.16973944

signal_classifier.stem.0.0.bias f4 [32]
000000 86 1b 81 3e ed 85 86 bc d5 8f 97 be 3e 2b 18 3d
       0.2521631 -0.016421283 -0.29601923 0.037150614
000010 8f 6a 4c 3e 07 1d 88 3c 84 1f 99 be e4 27 1b be
       0.19962524 0.016615404 -0.29906857 -0.15151936
000020 8e e5 0c bb 38 00 4f be c9 d4 09 3d c9 53 13 be
       -0.002149913 -0.20214927 0.033650193 -0.1438743
000030 d5 1d 38 3e df 44 18 3e 6c 3e 56 be c0 14 21 3e
       0.1798013 0.14870022 -0.2092225 0.15730572
000040 7e e7 7e be f8 ac 5a be 0c bb 8d be b2 a9 22 be
       -0.24892995 -0.21355045 -0.27681768 -0.15885046
000050 df b7 d7 3d d5 b2 81 3d 25 0c 88 3e 2e 59 9f 3d
       0.105331175 0.06332938 0.26571766 0.077806816
000060 94 e4 64 bd 53 4e 1b be d7 64 80 be 29 dd 5e 3e
       -0.05588205 -0.15166597 -0.25076935 0.21764053
000070 29 d7 4c 3e 06 b4 55 3e 9b bd 91 be ae 6c e0 bc
       0.20003952 0.20869455 -0.2846497 -0.027395573

signal_classifier.stem.0.1.weight f4 [32]
000000 80 c2 84 3f 2d 3b 81 3f 1e b3 75 3f ba c0 77 3f
       1.0371857 1.0096184 0.95976436 0.9677845
000010 10 1c 7d 3f f4 dc 83 3f f9 31 6e 3f 75 f7 78 3f
       0.98870945 1.0301805 0.93045 0.9725259
000020 27 da 81 3f f9 3a 82 3f f0 b7 82 3f ac f2 82 3f
       1.01447 1.0174247 1.0212383 1.0230308
000030 45 6a 81 3f ae 6e 84 3f 9f fe 7f 3f 0f 69 7d 3f
       1.0110556 1.0346277 0.99997896 0.9898843
000040 07 de 83 3f 7e 10 82 3f b8 89 82 3f a1 db 80 3f
       1.0302132 1.0161283 1.0198278 1.0067025
000050 38 21 7c 3f 60 09 83 3f e3 c1 77 3f 67 6c 84 3f
       0.9848819 1.0237236 0.9678022 1.0345582
000060 20 01 74 3f 0e 58 81 3f 59 4c 75 3f 39 9f 79 3f
       0.95314217 1.0104997 0.9581962 0.9750858
000070 fd 51 7f 3f 3f 87 80 3f 31 8b 7f 3f 4f aa 85 3f
       0.9973448 1.0041274 0.99821764 1.0442599

signal_classifier.stem.0.1.bias f4 [32]
000000 1b 80 c2 3c e0 01 87 b9 b8 1a dd bc d9 7b 52 3d
       0.023742726 -0.00025750604 -0.02699028 0.05138764
000010 03 a0 12 36 98 36 c6 39 c8 db 80 3d 45 c1 57 3b
       2.1848834e-06 0.00037806178 0.0629192 0.0032921594
000020 b2 4b d1 bc 96 d4 35 3b c1 53 cb bc 06 7f 4b 3b
       -0.02554879 0.002774512 -0.02482021 0.0031051054
000030 b8 b2 29 bd d7 ac f2 3c 6e 97 3c 3c 94 e6 95 ba
       -0.041430205 0.029623432 0.011510713 -0.0011436515
000040 1a 89 74 bc 16 87 ce 3c 05 ec 13 3a 40 a9 25 3c
       -0.014925266 0.025210898 0.00056427746 0.010111153
000050 88 94 1f 3d a9 fe 55 bd f0 3e 1c 3c 1d 47 ee 3a
       0.03896001 -0.052244816 0.00953649 0.0018179152
000060 b2 1b 04 bc 6b a6 67 3c 12 f9 39 bd 32 d8 4c bc
       -0.008063244 0.014138798 -0.045403548 -0.012502717
000070 ce 2e 8c 3b 32 60 6a bd 1f 75 2d 3d 80 e0 10 3c
       0.0042780405 -0.057220645 0.042348024 0.0088425875

signal_classifier.stem.0.1.running_mean f4 [32]
000000 ee 4e 82 3e d9 cd 97 bc 57 b8 97 be e9 69 1d 3d
       0.25450844 -0.018530773 -0.29632828 0.038431082
000010 a7 ca 4c 3e 25 9c 84 3c 77 9b 99 be d7 d2 1b be
       0.1999918 0.016187737 -0.30001423 -0.15217148
000020 88 76 11 bb 1e 23 50 be 62 f6 09 3d 44 9f 13 be
       -0.0022195894 -0.20325896 0.033682235 -0.14416224
000030 0e 7b 36 3e 06 9e 19 3e 98 d4 54 be ba f4 20 3e
       0.17820379 0.15001687 -0.20784223 0.15718356
000040 ba bf 7d be 5c 27 5a be 03 fa 8c be cf ba 21 be
       -0.24780169 -0.21304077 -0.27534494 -0.15793918
000050 c7 a3 d6 3d 14 a0 83 3d c9 0e 88 3e bc da 9f 3d
       0.10480457 0.06427017 0.2657378 0.07805392
000060 d5 c3 65 bd ff 89 1b be 29 7e 80 be 72 5a 5d 3e
       -0.056094963 -0.1518936 -0.25096253 0.21616533
000070 2c 74 4d 3e bf 14 56 3e d3 a9 92 be da 30 ef bc
       0.20063847 0.20906352 -0.2864519 -0.029198099

signal_classifier.stem.0.1.running_var f4 [32]
000000 df 3d 55 3e ac 09 2d 3e 5a eb 88 3e d9 61 4b 3e
       0.20824383 0.16898221 0.2674206 0.19861545
000010 de e7 2e 3e 63 04 13 3e 33 7c 78 3e d6 53 a1 3e
       0.17080638 0.14357142 0.24266128 0.31509274
000020 50 7c 9a 3e 96 a9 3f 3e e6 93 0a 3e 97 da b0 3e
       0.30172968 0.18717036 0.13532981 0.3454177
000030 8f a8 8f 3e 2a 81 92 3e a8 de b7 3e 17 dd 6b 3e
       0.28058288 0.2861417 0.3591206 0.23033558
000040 af c5 ef 3d 5f bb 20 3e 47 20 ef 3d 12 ae a6 3d
       0.11707627 0.15696476 0.11676078 0.0813867
000050 28 15 d0 3d 72 85 c5 3d da e6 a3 3e 03 78 a4 3e
       0.10160285 0.09644593 0.32012063 0.32122812
000060 65 1f 2a 3e 8a 53 81 3d d3 07 62 3e 76 08 ff 3e
       0.16613539 0.06314762 0.22073297 0.49811143
000070 22 ed 97 3e 59 6e 02 3e f6 a8 0f 3f 4f 32 71 3e
       0.29673105 0.12737407 0.5611719 0.23554347

signal_classifier.stem.1.0.weight f4 [32, 32, 3]
000000 03 e7 3f bc c6 8a 01 3e 63 8b 16 3e 35 a8 6e 3d
       -0.011712792 0.12650594 0.1470161 0.058265883
000010 51 e8 a1 bc 72 06 f9 bc cb 99 aa bd 5c d9 14 3e
       -0.019764097 -0.030398581 -0.08330115 0.14536041
000020 a9 a1 0a 3e 55 9a 91 be e8 b8 97 3c a3 91 bb 3d
       0.13538231 -0.28438058 0.018520787 0.091586374
000030 be 25 14 3e 86 d3 88 bd 15 1a 27 3e 90 8a 67 bc
       0.14467523 -0.0668097 0.16318543 -0.014132157
000040 12 6b 9b bc 8e 5d c8 3b 93 2a cd 3d f5 22 d4 bd
       -0.018971954 0.006114668 0.10017886 -0.1035823
000050 8a 49 2c be 62 fb 1b be b4 cf 94 3d 75 43 1e 3e
       -0.16824928 -0.15232614 0.07266179 0.1545542
000060 0e 66 3c 3d 56 78 f3 3c 2c f5 9d bd 2c cd 7b 3e
       0.045995764 0.029720467 -0.077127784 0.24589986
000070 36 b1 20 be a7 f6 11 bd 9b 9c 29 bd 36 38 e8 bd
       -0.156926 -0.035635617 -0.041409116 -0.113388464
000080 0b d6 0d 3e 40 96 46 3e b4 bc 84 bc f8 64 a1 bd
       0.13851182 0.19393253 -0.016203262 -0.078805864
000090 10 3f 91 be 84 3d 03 3e 58 9f 29 be f4 5c 9f 3d
       -0.28368425 0.12816435 -0.16564691 0.07781401
0000a0 6e c9 8f 3c d3 98 8b 3d d7 9d 49 be 1c 7a c5 bc
       0.017552104 0.06816258 -0.19689117 -0.024106078
0000b0 76 d9 4f 3a 1b a9 87 3e eb 35 9e 3e 47 27 58 3e
       0.00079288275 0.26496205 0.3090051 0.21108733
0000c0 b8 db 98 3b 7a 4a 07 be b8 da e6 3d 9f bb 6e 3e
       0.0046648644 -0.13212004 0.11272186 0.2331376
0000d0 4d 2f e2 3c a7 28 04 be 0b 53 9a be 1c 08 f5 bd
       0.027610445 -0.12906133 -0.30141482 -0.11964437
0000e0 2c ba 56 3e 4e 30 01 3e c7 76 38 3e 71 57 72 bd
       0.20969456 0.12616083 0.1801406 -0.059165422
0000f0 8e 8d 13 be 88 da 2c be 1f c6 de be d3 4d 0a be
       -0.14409468 -0.16880238 -0.4351053 -0.1350625
000100 bd 1e 31 3e 7e 7c 9e 3b 18 ec f6 3d b4 8b bd 3d
       0.17296882 0.004836618 0.1205675 0.09255162
000110 ad a8 35 3c f4 f9 30 3e f6 68 45 3e a6 f4 ee 3d
       0.011087579 0.1728285 0.1927832 0.11667757
000120 ea 44 ad be 09 f3 93 3e 37 8d 09 bd ba 8b 35 3d
       -0.3384164 0.2889636 -0.03358194 0.044322707
000130 46 40 33 3e b0 11 1f be 8c d6 9d bd f6 52 8b bc
       0.17504987 -0.15534091 -0.07706937 -0.017007332
000140 e8 b0 96 3a 4c c5 68 bd bd ea de 3d e6 3a f6 bd
       0.0011496814 -0.056828782 0.108846165 -0.12022953
000150 81 14 84 bd f9 3b f4 bb a4 7d 78 bd 84 0c 4a 3e
       -0.06449223 -0.0074534384 -0.060666695 0.19731337
000160 2f 5b 4a 3e c1 62 5b be cd 19 d2 bd e4 36 f5 3d
       0.19761346 -0.2142439 -0.10258827 0.1197336
000170 54 70 ea bd 5a b8 26 3b cd 76 f8 3d 63 ed 1f be
       -0.11447206 0.0025439472 0.121320345 -0.156179
000180 a7 37 18 be 15 60 55 3e c9 f0 cc 3c da 87 75 be
       -0.1486498 0.20837434 0.025017159 -0.23977605
000190 99 66 3e bd b7 e2 02 3e b5 c2 aa bc d5 1e 13 be
       -0.046484563 0.12781797 -0.020844797 -0.1436723
0001a0 09 14 89 3d d8 c2 66 be 9e f2 ba 3d 6d 24 f7 3d
       0.066932745 -0.22535264 0.09128307 0.120674945
0001b0 4f 5b aa bd 30 4b 00 be d6 62 51 3b d7 3f 92 3d
       -0.08318197 -0.12528682 0.003194978 0.07141083
0001c0 2f 90 0c be 60 a7 4b bd 05 0e c5 bd f0 91 38 3d
       -0.13726877 -0.049720168 -0.09621815 0.04506105
0001d0 fc 14 4f 3c cb 1e d2 3e 19 6e d5 bd 66 37 4d be
       0.01263928 0.41039118 -0.1042139 -0.20040664
0001e0 a8 73 c6 bd 15 e5 62 be 53 75 80 3e 69 a6 a7 3d
       -0.096900284 -0.221577 0.2508951 0.08186037
0001f0 4d 50 c4 bc ee 55 da 3d d3 2d db 3d 84 94 28 be
       -0.023964072 0.10660921 0.107021 -0.16462904
000200 76 f2 47 3d 15 61 7f be 41 40 95 3d 08 e9 d0 bd
       0.048815213 -0.24939378 0.07287646 -0.10200697
000210 a8 b9 b3 3c 4f 66 97 3d f0 7c 92 3d 1a 5a a8 3d
       0.021939114 0.07392561 0.07152736 0.082203105
000220 0d 59 eb bd 01 e6 83 3e 00 7e ef 3d 42 67 d1 bd
       -0.114915945 0.25761417 0.116939545 -0.10224773
000230 79 4a 38 3d b7 35 68 3d 33 32 08 3d 9f 8b 05 be
       0.044992898 0.05669185 0.033251 -0.13041542
000240 a7 71 4d be 9b 9b 45 3d 4e ef 48 3d ef a7 76 bd
       -0.20062886 0.0482441 0.049056344 -0.060218748
000250 5a f4 b3 bd 59 ee e1 3e ed 85 b5 bd 63 58 a9 be
       -0.08786841 0.44127157 -0.08863435 -0.33075246
000260 c9 f5 58 3e d3 46 7a 3e bd 47 28 be 39 24 15 be
       0.2118751 0.2444108 -0.16433616 -0.14564599
000270 33 37 4c bc 63 b4 c1 3d 18 f1 8c 3b 46 51 a5 3d
       -0.012464332 0.09458234 0.0043012016 0.08072142
000280 80 2c 50 bd a4 3f 06 be 04 21 25 3d 12 1c 29 3d
       -0.05082369 -0.13110214 0.04031469 0.041286536
000290 68 c6 65 bd 60 6f 1e 3e af 1a 1f bd e7 2d d4 3d
       -0.056097418 0.15472174 -0.038843807 0.10360318
0002a0 0c e7 90 bd 12 67 2b bb 6b 84 6d 3e 84 0a 3f 3e
       -0.07075319 -0.0026153964 0.23195045 0.18656355
0002b0 f7 6b 63 be 01 b8 77 be 3e 86 29 3e 7d d2 ce bb
       -0.22209154 -0.24191286 0.16555116 -0.0063117133
0002c0 a0 2a 83 bc c8 dd d6 3d 27 38 38 be 08 8b 22 3e
       -0.016011536 0.1049152 -0.1799017 0.15873349
0002d0 1b 7e 15 be 4b 5b 9f 3d e8 f6 2b 3e e6 de 51 be
       -0.14598887 0.077810846 0.16793406 -0.20495185
0002e0 6a 66 9b 3c 0f c9 6d bd 2e cd 5c be 2c e4 bb bd
       0.018969733 -0.058053073 -0.21562645 -0.0917438
0002f0 27 cb 5f be 72 28 05 3e 61 90 f3 3d b8 5b 90 3c
       -0.2185484 0.1300371 0.118927725 0.01762186
000300 29 47 60 be 27 57 4c bd 9e 7f 00 3d ff 74 02 3d
       -0.21902145 -0.049887802 0.031371705 0.031849857
000310 70 4f d7 bd 22 52 a1 bd ec 7e a9 bc da d0 6a bd
       -0.105131984 -0.07876994 -0.020690404 -0.057328083
000320 4e 5a 08 3e 35 05 41 bc 03 ea 76 be 82 9e 5d be
       0.13315699 -0.011781027 -0.24112706 -0.21642497
000330 6d e3 d4 3d 9b 65 1d 3d 13 e6 b3 bd 9e 81 06 be
       0.103949405 0.038426977 -0.087841175 -0.13135383
000340 4a 6b 24 3e e2 7b 1c 3e 53 e4 a6 be 8f 4d 2b 3e
       0.16056553 0.15281633 -0.32596073 0.16728805
000350 c5 06 af bd b5 8c b0 3d c7 d2 9e 3d 74 be 2f be
       -0.08546213 0.08620588 0.07755046 -0.17162496
000360 33 a1 2b 3e 6e 18 37 3e fb c6 48 be f1 b0 b6 3d
       0.16760711 0.17880413 -0.19607155 0.08920468
000370 18 3f 77 3e d4 77 7f 3e 68 a7 42 be d8 5f c3 be
       0.24145162 0.24948055 -0.19009173 -0.3815906
000380 4e bc 07 3c 5c a1 79 3d 76 24 12 be 1b 4d 45 3e
       0.008284641 0.0609449 -0.14271721 0.19267695
000390 ec 05 d1 3d 83 00 71 3d a4 c9 a5 bd 58 72 15 bd
       0.10206208 0.05883838 -0.080951005 -0.036486
0003a0 1a 4d 0e be 13 f5 8c 3e a2 dd 09 be a3 66 ee bd
       -0.138966 0.27530727 -0.13463452 -0.1164067
0003b0 9c 1c 38 3e 8a 9a 2c be 81 32 d7 bd f0 e2 14 3e
       0.17979664 -0.16855827 -0.1050768 0.14539695
0003c0 20 44 10 be 0b ef d2 3d f9 f2 80 3d e6 4d 06 bc
       -0.14088488 0.102995 0.06296343 -0.008197283
0003d0 bf 6c 93 3d 49 d0 8d be 24 1a 95 3d ff 5e 1a bd
       0.07198476 -0.2769797 0.072803766 -0.03768825
0003e0 f7 83 94 3d a1 39 34 3e 25 70 6d bd e0 d7 18 3e
       0.07251733 0.17600109 -0.057968277 0.149261
0003f0 e9 49 64 bd 34 31 86 bd 9b fd 68 bd 2c 4c a1 bd
       -0.05573455 -0.065523535 -0.056882482 -0.07875857

signal_classifier.stem.1.0.bias f4 [32]
000000 e0 f1 43 3d 4e 35 59 3d 8b 6f a9 bd 4b f5 a1 bd
       0.04783809 0.05302935 -0.08273228 -0.07908114
000010 10 80 1e 3c 31 64 e5 3d 14 6a a0 3d 2d b4 e8 bd
       0.009674087 0.112007506 0.07832733 -0.11362491
000020 7e 8c 17 bd b9 f9 eb bb e9 42 c6 bd 8a 16 a8 bd
       -0.03699922 -0.0072014 -0.09680731 -0.08207424
000030 e3 9d 62 3d 85 fa c0 bb f1 8e b7 3d 12 4e 94 3d
       0.055326354 -0.0058892393 0.08962811 0.07241453
000040 b3 1e cf 3d 07 be b6 bd 40 5d f5 3c 65 c9 13 3d
       0.10113277 -0.089229636 0.029951692 0.036080737
000050 86 fa 82 3d 56 e7 d5 bd 02 c4 c6 bd 0a 22 b8 3d
       0.0639544 -0.104445145 -0.09705354 0.089908674
000060 5d 58 bd 3d 81 9b 14 bc d0 2e 9b bd 06 5c bc bd
       0.092453696 -0.009070278 -0.07577288 -0.091972396
000070 6c 53 2f bd a7 b6 9f bd ad 07 2c 3d a1 c5 9e bc
       -0.042804167 -0.0779851 0.041999508 -0.019381346

signal_classifier.stem.1.1.weight f4 [32]
000000 d5 7d 81 3f 10 6c 79 3f b8 33 74 3f ab 64 85 3f
       1.0116526 0.97430515 0.95391417 1.0421346
000010 07 05 7e 3f 6e 7b 81 3f 68 b6 81 3f c9 38 73 3f
       0.9922642 1.0115793 1.0133791 0.9500852
000020 7c 22 7e 3f d7 2b 80 3f 1b 5a 82 3f f8 91 81 3f
       0.9927137 1.0013379 1.0183748 1.0122671
000030 b6 4e 79 3f 17 46 85 3f 58 af 7e 3f 1e 5a 7e 3f
       0.9738573 1.0412015 0.99486303 0.9935626
000040 ba 69 81 3f 5b 52 7e 3f b4 fe 81 3f 0a bc 7f 3f
       1.011039 0.99344414 1.0155854 0.998963
000050 80 35 7a 3f a0 d3 84 3f 3f 31 7d 3f 28 67 86 3f
       0.97737885 1.0377083 0.9890327 1.0500231
000060 71 5e 83 3f b3 d9 78 3f 0b 8d 82 3f 04 88 79 3f
       1.0263196 0.9720718 1.0199293 0.9747317
000070 fc 92 76 3f 88 d4 81 3f e8 e4 7e 3f 7c d3 7e 3f
       0.9631803 1.0142984 0.99568033 0.9954145

signal_classifier.stem.1.1.bias f4 [32]
000000 0b 6d 95 bc ce d2 4b 3c 49 da 67 bc 4b 3a 51 3d
       -0.018240472 0.0124403965 -0.014151164 0.051080983
000010 21 6e 3f bd 34 70 f3 bb 8e c1 e9 3c d1 03 cd bc
       -0.046735886 -0.007429147 0.028534677 -0.025026234
000020 b2 db ab 3c e1 f4 2c bb 68 c9 88 3d 8a 82 4f bd
       0.020978782 -0.0026391076 0.0667904 -0.0506616
000030 6d c2 5e bb b2 cd d4 3b e6 57 9f bd 0b 2c b6 3c
       -0.0033990399 0.0064942474 -0.07780437 0.022237798
000040 9d 52 d2 bc 87 38 85 3d 42 13 2c bc 67 2d 66 bc
       -0.025674159 0.06504922 -0.010502638 -0.014048911
000050 82 98 d3 3b 90 43 12 3c 03 41 c9 3c ee 7e 95 3d
       0.0064573893 0.008927241 0.024567133 0.072996005
000060 6a 1a 29 3d 1d 4b ec bb 10 13 bc 3c 43 b2 88 38
       0.041284956 -0.0072111026 0.022958308 6.518189e-05
000070 38 b8 9f 38 12 e6 70 3a 1e 48 27 bb e8 5f 09 bc
       7.616024e-05 0.00091895566 -0.0025525163 -0.008384682

signal_classifier.stem.1.1.running_mean f4 [32]
000000 9c 09 f4 3d 4d 22 9e 3c cd cb 81 be 3f fc aa be
       0.11915895 0.019303465 -0.253508 -0.33395573
000010 7b 0b 16 be 92 76 88 3d 1c 6d 61 3e dd 4e 91 be
       -0.14652817 0.066632405 0.22014278 -0.2838048
000020 d4 4f 41 be 3e 7c 49 3e 60 2d f9 3d 67 e0 35 be
       -0.18878108 0.19676301 0.12166858 -0.17761384
000030 72 e2 12 3e db 4e d3 3d c3 b1 b6 3d 9b 3b 84 3e
       0.14344195 0.10317775 0.08920624 0.25826725
000040 be 97 e2 3c d1 fa 4e 3e 49 00 f3 3d be 2a 8c 3e
       0.027660247 0.20212866 0.11865289 0.2737636
000050 28 91 59 bd 66 9c 80 be 37 d1 51 be a2 e8 e3 3d
       -0.053116947 -0.25119323 -0.20489965 0.111283556
000060 b6 41 46 be 9a 60 d9 3d 46 25 9f 3d 43 74 32 be
       -0.19361004 0.106141284 0.07770781 -0.17427163
000070 36 dd 82 bc 66 32 b1 3d 7c b5 1d be ed 1c 45 3b
       -0.015974622 0.08652191 -0.15401262 0.0030077056

signal_classifier.stem.1.1.running_var f4 [32]
000000 9b af 5b 3f 8b bb 4e 3f 42 70 55 3f 90 c9 b4 3f
       0.8581483 0.8075492 0.83374417 1.4124012
000010 e2 eb 97 3f 1a a3 52 3f 69 32 7a 3f 07 5f 95 3f
       1.1868861 0.82280123 0.9773317 1.1669625
000020 95 1c 7b 3f 0d 79 ad 3f 5b 20 a0 3f af 4c 25 3f
       0.9809049 1.3552567 1.2509874 0.64570135
000030 8d f1 37 3f 6c a9 a9 3f 38 4e 35 3f b3 c9 a6 3f
       0.7185295 1.3254828 0.7082248 1.3030304
000040 95 6f 33 3f c6 b9 fa 3f 59 22 1c 3f 15 90 c1 3f
       0.70092136 1.9587944 0.6098991 1.5122095
000050 74 f0 7f 3f 36 f8 93 3f 63 9e 3c 3f ca 70 37 3f
       0.9997628 1.1560123 0.7367918 0.7165648
000060 ee 9e 06 40 6e 2a 7a 3f 2e 06 95 3f 99 c4 7e 3f
       2.1034503 0.9772099 1.1642511 0.99518734
000070 11 4a 61 3f 0d 29 af 3f 9e e4 8f 3f 05 14 40 3f
       0.8800364 1.3684403 1.1241643 0.7503055

signal_classifier.stem.2.0.weight f4 [32, 32, 3]
000000 84 51 c1 bd ab 7c f5 bd 44 89 70 3e d7 0b f7 3d
       -0.09439376 -0.11986669 0.23489863 0.12062805
000010 7b 3a ca bc 65 cc 62 3c 28 73 bb 3d 4c 6c 6a be
       -0.024686089 0.013842677 0.09152824 -0.22892874
000020 47 33 22 bc b9 3b b6 bc dd 3f 73 bd c4 9c d0 bc
       -0.009899921 -0.022245275 -0.059387077 -0.025465377
000030 18 0e 95 bd 4e 35 6d 3e 3d 14 1d 3e 36 20 b5 3d
       -0.07278079 0.23164865 0.15339752 0.088440344
000040 91 f2 ed bd a5 c6 29 be 07 05 30 bd be 4c 88 3d
       -0.116185315 -0.16579683 -0.042973544 0.066552624
000050 39 c9 cf bc 57 85 6f 3d 4a 64 02 bb 0c 44 c5 bd
       -0.025364505 0.058476772 -0.0019896203 -0.096321195
000060 05 2c 62 be 75 a3 23 be 12 eb 61 3e 45 a7 c5 3d
       -0.22087105 -0.15980323 0.22062328 0.09651045
000070 8c d2 48 3e ad 13 6d 3e cb 07 09 3e 1c 28 80 be
       0.19611567 0.23152037 0.13381879 -0.250306
000080 31 9a 62 3c 7a 6a ac 3d a2 c7 73 3e 94 96 2c 3d
       0.013830707 0.08418746 0.23806623 0.04213579
000090 cf 83 b3 3e 76 28 21 3e 66 83 1c 3c 63 21 04 3e
       0.350615 0.15738091 0.009552812 0.12903361
0000a0 97 55 c4 bd 4a e3 70 bd df 1a 58 be ee a1 a5 3d
       -0.095866375 -0.05881051 -0.21104 0.08087526
0000b0 a7 82 a1 3d b4 da ec 3d 8c 88 ea bd 1a ef ef 3c
       0.07886248 0.11565152 -0.114518255 0.029288817
0000c0 d2 ab 80 3d 07 68 2b 3e be 88 61 3e cb 57 08 3d
       0.06282772 0.16738902 0.22024819 0.03328685
0000d0 95 57 37 3e 4d 05 32 be 8c 78 6d be ab 49 82 be
       0.17904504 -0.17384835 -0.23190516 -0.2544683
0000e0 d2 18 30 bd 18 c4 2f 3d a3 d7 22 be 19 18 a2 bd
       -0.04299242 0.04291162 -0.15902571 -0.079147525
0000f0 cc 25 f0 3d 4e d8 16 3d 00 60 a4 be a4 44 e5 3d
       0.11725959 0.036827378 -0.32104492 0.11194733
000100 a7 a9 28 be a3 e5 12 bc 7a 01 2f be 42 3a a8 bd
       -0.16470967 -0.0089658825 -0.17090407 -0.08214237
000110 e1 ae f2 bd 01 ff c7 bd 6c c9 c4 3d 79 d7 86 3e
       -0.11849762 -0.09765435 0.09608731 0.26336268
000120 a0 90 9b bb 09 8d 38 bd 2c 48 fd bc ea d7 82 3d
       -0.0047474653 -0.045056377 -0.030918203 0.063888386
000130 84 db 1d 3d dc 87 39 3d f0 e4 40 be 05 db fc 3d
       0.038539425 0.04529558 -0.18837333 0.12346462
000140 2d c5 0e 3e 04 9b c1 bd f8 f0 d5 bc e8 3b 39 3e
       0.13942404 -0.09453395 -0.02611588 0.18089259
000150 cf 87 0a be f8 26 52 3e 05 08 75 bd 89 aa 4d be
       -0.1352837 0.20522678 -0.0598221 -0.20084585
000160 3e 24 c2 bd f7 b4 bb 3d 00 6c 09 3d ba ec 71 3c
       -0.09479569 0.09165376 0.033550262 0.014765913
000170 ed 1d 85 be a4 a9 10 be 98 3b 2f be 98 83 eb 3d
       -0.25999394 -0.14127213 -0.17112577 0.11499709
000180 c5 33 e5 3b c3 3e 36 3e 2e f8 90 3e ef e2 e0 bc
       0.006994697 0.17797379 0.28314346 -0.02745196
000190 bf 3b b4 bd 10 68 99 bd 8a ee 3a 3c 23 7c ae bd
       -0.08800458 -0.074905515 0.011409411 -0.08519771
0001a0 01 ee 08 be 5f f9 bd bd 2e a0 81 3e 58 ac 4f 3e
       -0.13372041 -0.092760794 0.2531752 0.20280588
0001b0 3d 45 1e be 81 3d 90 bd 61 78 16 3e 35 64 a6 bd
       -0.154561 -0.07042981 0.14694358 -0.08124582
0001c0 0b 3e 95 bd c5 08 9f 3b 06 57 f8 3c 2e 64 bb 3c
       -0.072872244 0.0048533403 0.030314934 0.022874918
0001d0 f7 23 b0 bd 59 e6 4d 3d 8c a3 b8 bc 29 a0 f5 bd
       -0.0860061 0.050268505 -0.022538923 -0.11993439
0001e0 a5 a8 6e 3c bf df e5 3d 7c f6 91 3e c1 63 f7 3d
       0.014566575 0.11224317 0.28508365 0.120795734
0001f0 ff 12 de 3d b8 16 b4 3c 3c 4a e8 3d 91 8d 52 bc
       0.10843467 0.02198349 0.11342284 -0.012851135
000200 c0 33 3a bd 78 24 1e 3e 83 d0 e3 bd 2f f1 57 3d
       -0.04545951 0.15443599 -0.11123755 0.052720245
000210 f3 eb 7c 3d b0 aa 90 bd 2e b4 38 bd d1 f9 5b 3e
       0.061748456 -0.07063806 -0.045093708 0.21482016
000220 24 d8 36 be e3 02 9f bd dc 0d c9 3d 0e e8 d3 bd
       -0.17855889 -0.077642225 0.098170966 -0.10346995
000230 9b 33 9c bd 20 dc 41 3e f0 0c bd be 3b 95 1e bd
       -0.076270305 0.18931627 -0.36923933 -0.038716536
000240 f0 d0 6b be 27 d2 2d 3e fd 0a 5d 3c c2 5b fb 3d
       -0.23028922 0.16974698 0.013491389 0.12273361
000250 5a 00 cb 3c c6 91 ec bc a9 48 32 3e d7 8a b3 3d
       0.024780441 -0.028878104 0.1741053 0.08766716
000260 c7 00 92 3d d0 0e d3 3d a7 ad 02 3d e0 78 91 bd
       0.071290545 0.1030556 0.03190389 -0.07103133
000270 43 ef bc bd 5f 66 19 3e 05 b6 ac 3d 4b 73 8a 3d
       -0.09225323 0.14980458 0.08433155 0.06760272
000280 3f e5 5a 3d 59 99 e6 bd 75 c9 36 be 42 0a 15 3d
       0.053441282 -0.112597175 -0.17850287 0.036386736
000290 9f 2b b4 bd 4d 4f 86 3e a6 e2 19 be 77 d9 11 bd
       -0.087973826 0.26232377 -0.15027866 -0.03560778
0002a0 b5 4e af 3e 78 d4 a9 3e b1 bf 4a be 3b 09 14 3d
       0.34239736 0.33169913 -0.19799687 0.036141615
0002b0 b4 67 47 bd a2 e7 82 3d 38 12 49 bd c4 ed a0 be
       -0.048682883 0.06391837 -0.04908964 -0.314314
0002c0 43 39 9c bd bf 10 ec 3d d2 e6 88 be d5 b3 83 bc
       -0.07628109 0.115266316 -0.26738602 -0.016076962
0002d0 2e c7 24 3e 32 c3 95 3e a3 d2 3a 3e 7d 84 49 3e
       0.16091606 0.29250485 0.18244414 0.19679447
0002e0 7a 71 5d 3d 8a ae 16 be 7c f0 85 3e aa cd 27 3e
       0.054063298 -0.14715019 0.26160038 0.16387048
0002f0 f2 57 01 3d 24 d2 88 bd b4 14 63 bd cd 47 87 bc
       0.03157801 -0.06680706 -0.055439666 -0.01651373
000300 61 07 05 3e f5 7f 53 3e 7b 47 1e 3d 9c da 33 be
       0.12991096 0.2065428 0.038642388 -0.17563862
000310 f1 c0 58 bd c0 a8 29 bd d6 0d ce bd 84 22 88 bc
       -0.05291838 -0.0414207 -0.10061233 -0.01661802
000320 28 e6 00 be d2 77 a9 be 88 95 94 bd 4f 67 fd 3a
       -0.12587798 -0.33099228 -0.07255083 0.0019333157
000330 ca 35 53 bc b5 51 04 3e fc ae 9a bc 9c f9 bb bd
       -0.012891242 0.12921794 -0.018882267 -0.091784686
000340 80 3e cc bd 84 29 9f bb bd f6 6f be a6 5e 53 3d
       -0.099728584 -0.004857244 -0.23433967 0.051603936
000350 62 62 ec bd 7f ca 11 be e7 0c 00 3e cb 3d 15 3e
       -0.115422025 -0.14237402 0.12504922 0.14574353
000360 a8 08 76 3d 0c 0c 25 bd a2 80 86 3e b3 7b 34 3e
       0.06006685 -0.040294692 0.26270014 0.17625313
000370 dc 64 f6 bd 8c 4a 42 3c 9a 57 0c 3d 51 ce 9d bd
       -0.12030956 0.011858594 0.03426323 -0.07705367
000380 76 18 41 bd 48 d0 aa be 19 4c 55 3d b1 3b 19 be
       -0.04714247 -0.3336203 0.052074526 -0.14964177
000390 76 fc a7 be 6f 15 58 3d 37 cb 18 3e c9 31 d8 3e
       -0.328098 0.052754816 0.1492127 0.42225483
0003a0 46 bf 2e be eb 0b 87 bd 17 b5 3c be eb 22 ce bc
       -0.17065153 -0.0659407 -0.18428455 -0.025163135
0003b0 cd 37 59 be b1 76 dc bb c1 58 b4 3d 77 11 d8 3c
       -0.21212693 -0.0067280163 0.08805991 0.026375515
0003c0 55 cd 41 3e 0d d4 7e 3d ec da 36 3e 0b 3a 31 be
       0.18925984 0.062213946 0.1785695 -0.17307298
0003d0 3d 60 1a be 25 a9 c9 bd 66 1f e1 bb 6b 93 f4 be
       -0.15075774 -0.09846715 -0.006870198 -0.4776872
0003e0 e6 b8 96 3e 06 5e 32 3d 3d 01 82 be 3b 89 c2 bc
       0.2943794 0.0435467 -0.2539157 -0.023747077
0003f0 52 d9 6a 3d 85 b4 31 bc 82 d5 b4 bc 07 7b ed 3d
       0.05733616 -0.010846262 -0.022074465 0.11595731

signal_classifier.stem.2.0.bias f4 [32]
000000 aa 53 36 3d 83 6f 0b ba a1 c2 ab bd f2 be b9 b8
       0.044513382 -0.0005319046 -0.08386732 -8.857054e-05
000010 0e 2b bb bd 3d 3d 8b 3d 1d 84 46 bd 54 a0 3b bd
       -0.091390714 0.0679879 -0.048465837 -0.045807198
000020 ff 40 4c 3c fe 35 9e 3d 6c f4 49 3d f5 ad d4 bd
       0.012466668 0.07725142 0.049305364 -0.10384742
000030 83 81 91 bb 22 5d 48 bc b0 4e 47 3c 15 75 94 3d
       -0.004440488 -0.012229236 0.012164757 0.07248894
000040 df fa 74 bd 0c b6 4c 3d 34 4b 78 3d 4f 51 0b bc
       -0.05980956 0.0499783 0.060618594 -0.008503272
000050 f3 38 97 3d 3c 1d 6a bd dd 6b 0e 3d 60 61 2c bd
       0.07383909 -0.057156786 0.034770835 -0.04208505
000060 ec b7 94 bd 48 66 ca bd 15 9a 30 3d 68 2e 68 bd
       -0.07261643 -0.0988279 0.043115694 -0.05668488
000070 85 6f a4 bc e2 14 9d 3d ab a1 a0 bc 8e 9e 95 bd
       -0.020072708 0.07669999 -0.01960834 -0.073056325

signal_classifier.stem.2.1.weight f4 [32]
000000 ec cf 78 3f 8b 10 83 3f 0c ce 80 3f 28 a8 84 3f
       0.97192264 1.0239424 1.006288 1.0363817
000010 14 0c 7e 3f e4 ad 7a 3f 29 62 84 3f da 4d 7f 3f
       0.9923718 0.97921586 1.0342456 0.9972817
000020 ea 88 7a 3f 22 7c 7a 3f 43 2e 81 3f 64 06 8b 3f
       0.97865164 0.9784566 1.0092243 1.0861325
000030 8d 19 7b 3f 52 f1 7b 3f 96 5c 80 3f 97 19 84 3f
       0.9808586 0.984151 1.0028255 1.0320309
000040 54 cc 7b 3f 41 59 80 3f fd 96 80 3f 57 a1 7e 3f
       0.98358655 1.0027238 1.0046078 0.99464935
000050 40 59 84 3f c1 ae 80 3f 94 b4 7c 3f 35 03 7d 3f
       1.0339737 1.0053331 0.9871304 0.9883302
000060 44 f7 7c 3f 86 cd 81 3f f3 41 7b 3f 99 ea 7e 3f
       0.988148 1.0140846 0.98147506 0.9957672
000070 a1 89 83 3f b4 2b 78 3f 10 9a 80 3f 35 87 84 3f
       1.0276376 0.96941686 1.0047016 1.0353762

signal_classifier.stem.2.1.bias f4 [32]
000000 b3 8c 06 3c 13 e6 60 3d 96 ca 0f 3d 05 a6 0b 3d
       0.008212256 0.054906916 0.03510531 0.034093875
000010 48 fd f1 3c 41 2a cb bc c8 f4 44 3c dc 71 6b 3c
       0.02953972 -0.024800422 0.012021251 0.014370408
000020 46 31 87 bc b8 6a 62 3d 1f 0d a6 3d 40 6d 36 3d
       -0.016502988 0.055277556 0.081079714 0.044537783
000030 ba 71 53 3c fc 8b bd ba ee f3 00 3d e4 bc b0 bc
       0.0129055325 -0.0014461274 0.03148263 -0.021574445
000040 55 b8 4d 3d a3 f9 4b bd 5f 2a 77 3c 85 28 d6 3c
       0.05022462 -0.04979862 0.015085786 0.026142368
000050 42 42 1b bd 76 2c a1 bd 74 f4 8b 3c f7 83 97 bb
       -0.037904985 -0.078698084 0.017084338 -0.0046238857
000060 a9 29 8c bc d0 0d 0f bc 7b ca e7 3c f8 5e 44 3d
       -0.017109709 -0.0087313205 0.028294792 0.04794213
000070 c4 52 ef 3c ce 8c 6b bd 8e 66 a6 3c fe d1 1a 3d
       0.02921427 -0.05750733 0.020312574 0.03779792

signal_classifier.stem.2.1.running_mean f4 [32]
000000 d2 c5 d9 3c 7f b5 97 3e a3 f0 26 be 2d bd b6 be
       0.026583586 0.29630658 -0.16302733 -0.35691205
000010 01 88 e4 bd 2d ab 4f be c6 46 17 bf 18 6b d5 be
       -0.11158753 -0.20280142 -0.59092367 -0.4168327
000020 53 22 58 3b ef 59 ef 3d 99 11 bd bd 47 4c 1b bf
       0.0032979443 0.11687075 -0.09231872 -0.60663265
000030 2f 25 d3 be 8f e4 da 3c 70 e4 94 bd 3b f9 47 3e
       -0.41239306 0.026720313 -0.072701335 0.19528668
000040 bb 77 ce 3d af 7d 12 3d 1f 9d b3 3e 91 c5 2c 3e
       0.100814305 0.035764392 0.3508081 0.1687224
000050 e8 c1 d2 3e f5 58 cf bc fc df 53 3e 74 32 08 bc
       0.41163564 -0.025310973 0.20690912 -0.00831281
000060 cf 2e 6f be 9d 6a 32 3d dc 45 c0 3e 86 e1 5d 3c
       -0.233577 0.043558706 0.37553298 0.0135425385
000070 af 3b f6 bd e7 13 b2 3d d0 92 d9 be 30 5c fb be
       -0.120231025 0.08695202 -0.42494822 -0.4909377

signal_classifier.stem.2.1.running_var f4 [32]
000000 82 a7 15 3f 13 2c 5e 3f 79 1d 2b 3f c6 32 86 3f
       0.5845872 0.86786 0.66841847 1.0484245
000010 b0 f5 80 3f 9c 17 dc 3f a2 c6 6e 40 8b 79 19 40
       1.0074978 1.7194705 3.7308736 2.3980434
000020 5e f6 15 3f e5 1c 8e 3f 25 0a dc 3f 07 45 87 40
       0.5857905 1.1102568 1.7190596 4.227176
000030 e9 ab da 3f 78 b4 46 3f 0f 44 54 3f 03 de 86 3f
       1.7083713 0.77619123 0.8291635 1.0536503
000040 36 d1 d8 3f 05 6b 35 3f aa 70 a9 3f 3c af 8b 3f
       1.6938846 0.70866424 1.3237507 1.0912852
000050 00 ec ce 3f 13 32 13 3f c6 87 37 40 b9 96 12 3f
       1.6165771 0.5749828 2.867662 0.57261235
000060 36 e4 70 3f 78 31 58 3f 33 84 92 40 b0 5e 68 3f
       0.9409822 0.84450483 4.5786376 0.9076948
000070 0e 48 11 40 09 1c 27 3f 03 f0 8b 40 d6 d6 b2 40
       2.2700229 0.65277153 4.3730483 5.588725

signal_classifier.body.0.layers1.0.weight f4 [16, 32, 1]
000000 f2 87 3c 3e 94 4d 25 3f 53 34 3c 3e 38 87 a9 3e
       0.18411234 0.645715 0.18379335 0.33110976
000010 fe 06 e0 3e 87 c2 d6 3d a1 20 6e 3e 8b 00 43 be
       0.43755335 0.10486322 0.23254634 -0.19043176
000020 9d 54 20 3e aa f0 0b 3e 58 ac 94 be d4 ec 87 3e
       0.15657277 0.13666025 -0.29037738 0.26547873
000030 39 29 8f be 7c e0 8c 3e 88 a9 84 be ca 0c 6e be
       -0.27961138 0.27515018 -0.25910592 -0.23247066
000040 45 d2 2b 3e 9c 13 c1 bc ed e9 61 3e 82 a1 d2 bd
       0.1677943 -0.02356892 0.22061892 -0.102847114
000050 d5 9f 13 3e 44 90 65 bf 64 0f 0e 3e ab 9c de bd
       0.1441644 -0.89673257 0.13873059 -0.10869726
000060 24 f2 32 bc 52 92 33 bd f7 45 ec bc 15 a7 03 3e
       -0.010921989 -0.043840714 -0.028841956 0.12856705
000070 89 87 a2 3d 80 7a 65 be 59 b8 e3 3e 2f 24 2e be
       0.079360075 -0.22410011 0.44476584 -0.1700599
000080 7a 6d f3 3c e5 64 c7 3e 76 6c 7a be 2b b7 f7 3c
       0.029715288 0.38944164 -0.24455437 0.030238708
000090 77 5e ec 3d ef aa 25 3e ce f4 51 3c 9f e6 fc 3d
       0.11541455 0.16178487 0.012814714 0.12348675
0000a0 2a cb 9f bd 81 06 c4 bd 53 24 ed 3c 2b e5 e5 be
       -0.07802422 -0.09571553 0.028947985 -0.44901404
0000b0 be 8f a0 bd 34 27 06 bd 55 d8 47 be e4 0f a6 bc
       -0.07839917 -0.03275223 -0.19516118 -0.02027125
0000c0 d7 49 28 3e d0 c6 17 3e 0d e1 88 be b7 4e 6a bb
       0.16434418 0.14821935 -0.267342 -0.0035752484
0000d0 7d 16 95 be 41 01 80 3e 3e c5 85 3e 49 e2 85 3d
       -0.2911872 0.25000957 0.26127046 0.06537301
0000e0 3d e7 7f 3e 5a a2 8e bd c4 b5 59 3e 1b 50 07 3c
       0.24990554 -0.0696456 0.21260744 0.008258845
0000f0 99 e3 f2 3d 10 b6 e8 bd c8 b9 f2 3e b7 41 b0 be
       0.11859817 -0.11362851 0.47407365 -0.34425136
000100 57 44 e5 bd 78 c9 85 be 62 8a 16 3e e1 ba 32 3e
       -0.111946754 -0.2613027 0.14701226 0.17454101
000110 9a 58 e7 bd e7 20 6f 3d 40 92 c4 3c 94 90 03 3e
       -0.11296196 0.058380987 0.023995519 0.12848121
000120 ef 64 85 3d eb b0 f2 3d 8f c9 c0 bd b3 a4 1c be
       0.06513392 0.11850151 -0.09413444 -0.15297203
000130 a8 20 98 be e2 ef 9b 3e 3a 02 75 be 4a f5 aa be
       -0.29712415 0.30456454 -0.2392663 -0.33390266
000140 a2 c5 55 3e db ea d6 3e 24 62 d4 bc 13 24 f5 3e
       0.20876172 0.41976056 -0.025925703 0.47879085
000150 6a 6a 4f 3e ef 4a 0a 3e b2 21 1e bd 42 40 e3 3e
       0.20255437 0.13505147 -0.038606353 0.44384962
000160 a4 10 8f bd a4 74 2d be 42 a4 56 bd 2d 2d 4f bd
       -0.06985596 -0.16939026 -0.052402742 -0.050580192
000170 25 62 56 be 08 7e ba 3e 60 da a5 3d 7a 3b 9f be
       -0.20935877 0.3642428 0.08098292 -0.31100065
000180 b8 df 0a 3e ad f2 d8 3e 12 22 24 3e 10 5c 1f bd
       0.13561904 0.42372647 0.16028622 -0.038906157
000190 9b a3 d0 3e aa bb 1b 3e ba b6 69 be c5 5f ec 3e
       0.4074982 0.15208307 -0.22823611 0.46166816
0001a0 07 18 ac bd 1f a2 4b be 84 db d2 3e 77 dd 1d bd
       -0.0840302 -0.19886063 0.41183102 -0.038541283
0001b0 23 73 d6 bc d4 89 5d 3e 29 11 0d 3e 35 64 72 3e
       -0.026177948 0.21634609 0.13776077 0.23671038
0001c0 20 dc 73 3e 36 d8 b8 bc 70 cb 1f 3d fd a0 e7 3e
       0.2381444 -0.022564035 0.039012372 0.45240012
0001d0 3e d9 aa bb a3 1d e3 3d 81 b9 6d be 79 bb a9 bd
       -0.0052138856 0.11089637 -0.23215295 -0.08287711
0001e0 4b d9 f5 3d 7a bb 58 be e7 7f 85 be 23 d3 1b bf
       0.12004336 -0.21165267 -0.26074144 -0.60869044
0001f0 f7 02 1b 3c 87 45 94 3e 45 4c 5b 3e 38 c2 c7 3e
       0.009461156 0.28959295 0.21415813 0.39015365
000200 5e ef 8b 3e 44 be 9c 3e 0a 85 94 3d 81 ba 9e bd
       0.2733106 0.3061391 0.07251938 -0.077504165
000210 3c dc df 3e fe 37 de be ab cc f7 be c9 0c f1 bd
       0.43722713 -0.43402094 -0.48398337 -0.11770017
000220 fd d6 a0 3d 39 43 20 3e 42 28 03 bf ed e5 81 be
       0.07853506 0.15650643 -0.51233304 -0.25370732
000230 fe d7 5c be 06 52 03 3e 12 0d ac 3d 55 0e c4 be
       -0.2156677 0.12824258 0.084009305 -0.38292184
000240 84 d5 19 bc 8c f0 4d 3e fc 34 e6 3b 31 a1 13 be
       -0.009389285 0.20111293 0.007025359 -0.14416958
000250 4a e8 e5 be 4c 38 cb 3e d3 2b a8 bd e3 bb 84 3e
       -0.44903785 0.3969139 -0.08211484 0.25924596
000260 07 41 6e be 8f f5 2f be 95 ce 99 be 6f 81 0d 3e
       -0.23266993 -0.17183517 -0.30040422 0.13818906
000270 c1 1c 43 be f9 3a f4 3e 90 f8 13 be 29 06 bb bd
       -0.19053937 0.47701243 -0.14450288 -0.09132034
000280 17 5e ec 3c 70 14 6f bd e7 a0 37 3e 2c 91 24 3e
       0.02885346 -0.0583691 0.17932473 0.16071004
000290 1c 28 34 3d 32 47 01 3f 74 9d 37 3e 96 46 5d be
       0.043983564 0.5049926 0.17931157 -0.21608958
0002a0 45 da 4e be 66 57 08 3e 7f 1c e4 3e 08 50 9c be
       -0.2020045 0.1331459 0.4455299 -0.3052981
0002b0 7b a2 02 3f 31 1c cd 3d 5e 1c de 3e 34 17 e9 3d
       0.51029176 0.10015143 0.43381017 0.11381379
0002c0 ce 54 e8 3c 6a 09 7c be cf f8 e4 3c 4d cd 00 be
       0.02836075 -0.24612966 0.027950672 -0.12578316
0002d0 48 55 5d 3c 4d e3 2c 3e a8 07 e9 bd cc 9d 0d be
       0.013509102 0.16883583 -0.113784134 -0.13829726
0002e0 cd 3e 84 be ad eb d4 3c fb bd fe 3d b9 f0 b0 3e
       -0.25829163 0.025991285 0.1243858 0.34558657
0002f0 eb c3 d6 be 59 1e 18 3c 53 a7 68 be 81 67 9e be
       -0.4194635 0.009284579 -0.22720079 -0.30938342
000300 3c 70 66 be 68 77 2f be ff 55 46 3e c2 af 79 3e
       -0.22503752 -0.17135394 0.19368742 0.24383453
000310 67 e6 43 3d be 90 ee bd e8 9a bd be c9 82 41 3e
       0.04782715 -0.11648701 -0.37032247 0.18897547
000320 8c 1b 8f bc 7a 95 69 be fb fe ef 3d 06 e1 42 be
       -0.01746919 -0.22810927 0.117185555 -0.19031152
000330 d1 c5 31 bd 2c c9 ab 3e d9 1e 11 3e 5c 84 fb be
       -0.043401543 0.3355192 0.14171924 -0.4912442
000340 48 f4 02 be b0 9c 00 be d1 fe 0c 3f 00 2d d6 bc
       -0.12788498 -0.12559772 0.5507632 -0.026144505
000350 26 32 05 be a4 7a e7 bd 16 01 76 be 8f 5f 4b 3e
       -0.13007411 -0.11302689 -0.24023852 0.19860671
000360 d6 9b 4d be a8 b8 6c be 1a 92 8c bd 53 82 74 3c
       -0.20078978 -0.23117316 -0.06863804 0.01492365
000370 b7 83 55 be 7d 1c 3c 3e 4f 0a 0e be 37 f7 90 3e
       -0.20851026 0.18370242 -0.1387112 0.2831361
000380 da 75 46 3e ae 34 b2 be ff e4 bf be d6 6e 52 bd
       0.19380894 -0.34805816 -0.37479398 -0.051375233
000390 96 bc b4 be f7 a8 f4 3d 77 25 a9 3e 6d f0 67 3e
       -0.3530013 0.1194629 0.33036396 0.22650309
0003a0 bd c3 16 3c ae 9f cd bd 10 2c 32 bd 08 fd a3 3d
       0.009201941 -0.10040222 -0.043499053 0.08007246
0003b0 e8 8c c7 bb 3d 6f 9c bd b1 ee 87 be 8c 2c 1f bd
       -0.0060897954 -0.076384045 -0.26549295 -0.038860843
0003c0 c3 af c5 be 38 cd 20 3e 4c 95 98 3c 3b f5 1c bd
       -0.38610658 0.15703285 0.018625878 -0.038319807
0003d0 a2 0e 80 3e 50 04 d5 bd 74 3e 7c 3c cb 81 cc bd
       0.25011164 -0.10401213 0.015395749 -0.099856935
0003e0 c3 d3 2c 3e 17 15 6a be 8f 79 34 3e b8 35 82 be
       0.16877656 -0.22859608 0.17624496 -0.2543161
0003f0 1b 4b 85 3d 37 b1 f0 be e7 a0 2f 3e ba b7 94 be
       0.06508466 -0.47010204 0.17151223 -0.29046422

signal_classifier.body.0.layers1.0.bias f4 [16]
000000 58 78 e4 3d 07 e4 b7 bd 5e 25 9f bc 1c 19 2d 3e
       0.11155766 -0.0897904 -0.019426998 0.1690411
000010 d8 1b e8 bd 4b b3 80 3d 33 f7 3e bd 1b 12 9e bb
       -0.11333436 0.062841974 -0.046622466 -0.0048239357
000020 ee 54 3e bc 8b 4f e0 bd 1b 9d 3d 3e 77 3f 0b 3e
       -0.0116169285 -0.109526716 0.18516962 0.13598429
000030 1d bc 1a be bb bd 16 be 08 92 a7 bd 9a 6e f5 bd
       -0.15110822 -0.14720814 -0.0818215 -0.11983986

signal_classifier.body.0.layers1.1.weight f4 [16]
000000 77 e6 7d 3f 83 0d 82 3f 0c 89 76 3f bd 02 7f 3f
       0.99179786 1.0160373 0.96302867 0.99613553
000010 e3 fe 73 3f 15 bb 7a 3f dc 1e 78 3f 6a 0d 88 3f
       0.953108 0.97941715 0.9692209 1.0629094
000020 50 f6 7e 3f da 7c 7b 3f d0 9e 7c 3f 99 82 76 3f
       0.99594593 0.98237383 0.9867983 0.96293026
000030 c1 f5 7a 3f e4 3d 85 3f ed ef 73 3f b6 13 7f 3f
       0.9803124 1.0409513 0.9528797 0.9963945

signal_classifier.body.0.layers1.1.bias f4 [16]
000000 ae a8 2d 3d 44 dd 51 3d a7 73 48 3d e4 34 03 bc
       0.042397194 0.051236406 0.04893842 -0.008008216
000010 1f bf 2f 3d fc f6 b0 3d 56 a5 fe bc 13 b2 b5 3d
       0.042906877 0.086408585 -0.031084698 0.088718556
000020 67 ca 5c bc 92 b9 59 bc 12 43 4f bd bf f4 81 bd
       -0.013475991 -0.013288872 -0.050601073 -0.0634551
000030 96 74 30 bb 35 1b 1e 3d 9b a0 8d 3c 55 fa 39 3d
       -0.002692496 0.038600165 0.017288497 0.04540475

signal_classifier.body.0.layers1.1.running_mean f4 [16]
000000 12 5f a8 3e da ed 74 bd 8c cf f6 3a e5 11 05 3f
       0.32885033 -0.059797145 0.0018830164 0.5198043
000010 fc d6 c2 be 28 37 39 3e 9d e4 37 be 65 ce 5d be
       -0.38054645 0.18087447 -0.17958303 -0.21660765
000020 b1 7d 95 3d cf 6d b1 be 63 e4 5f bd a6 e7 36 3e
       0.07299364 -0.3465409 -0.054661166 0.17861804
000030 39 a8 d1 be ad 71 46 ba 28 f3 89 3e c7 19 50 be
       -0.40948656 -0.00075700396 0.26943326 -0.20322333

signal_classifier.body.0.layers1.1.running_var f4 [16]
000000 d6 b3 cd 3f cd ed b9 3e 9e 30 5f 3f d6 d2 26 3f
       1.6070507 0.3631424 0.8718356 0.6516546
000010 a3 e2 23 3f 35 c4 f7 3e ad 22 61 3f 61 f9 ae 3f
       0.64017695 0.48391882 0.87943536 1.3669854
000020 fa 1d cf 3e 80 c3 5b 3f 1e 8b f3 3e 2c d2 43 3f
       0.40452558 0.85845184 0.47567075 0.7649257
000030 10 6c ad 3e b3 07 8f 3f 4e ce 07 3f 6c be 29 3f
       0.33871508 1.1174225 0.5304917 0.66306186

signal_classifier.body.0.layers2.0.0.weight f4 [16, 32, 1]
000000 da eb 44 be 3b 08 98 3e 78 0f 24 be d8 2b 16 bf
       -0.19230595 0.2969378 -0.16021526 -0.5866065
000010 80 33 0c bd 1a fe c4 bd e8 55 2c 3f 00 4a 2e 3d
       -0.0342288 -0.096187785 0.6731858 0.04255104
000020 b7 2f be 3e aa b4 23 be 43 c3 55 3e cd 25 fc 3d
       0.3714578 -0.15986887 0.20875268 0.123118974
000030 8c 36 31 be 23 4b a3 bd e7 1b 16 3d be 1f 12 3f
       -0.17305964 -0.079733156 0.036647703 0.57079685
000040 ce eb a0 bd 05 33 49 3e 2d 8c 2e 3e 7d 0a cb bd
       -0.07857476 0.19648369 0.1704566 -0.0991411
000050 a3 d6 45 3c 2c 1a 12 3f 65 e6 78 3d 92 74 b7 be
       0.012075099 0.57071185 0.060766596 -0.35831124
000060 55 6b 2c bf 93 b5 27 be 89 e8 d2 be 8e b5 49 3d
       -0.67351276 -0.16377859 -0.41193035 0.04924541
000070 d5 66 74 be cf c7 0a 3e 77 71 1f 3e f6 05 23 3e
       -0.23867352 0.13552783 0.15570627 0.15920243
000080 0e 95 6f be 65 21 a1 3d 3b 67 d7 3e fa 24 3e 3c
       -0.23396704 0.078676976 0.42070946 0.011605496
000090 2a 27 e9 3e ec e9 06 3d ed 32 e4 bd a4 c3 8d 3d
       0.45537692 0.03293793 -0.11142526 0.06922081
0000a0 15 f3 c8 be ad 85 8c be ee a2 39 3e 3c 31 df 3d
       -0.39247957 -0.27445737 0.18128559 0.108980626
0000b0 e3 96 b2 be 1c 06 7c be 7b 69 e3 be 18 95 f4 3d
       -0.34880742 -0.24611706 -0.44416413 0.119425
0000c0 6e a6 79 3e 55 5d 87 bd df ea a7 3b 69 40 6b 3a
       0.24379894 -0.066095985 0.0051244344 0.00089741364
0000d0 4e 7d 14 3d a3 8c d6 3d d2 43 3f bd 7e 14 d6 be
       0.036252312 0.10476043 -0.046695538 -0.4181251
0000e0 af 0e e6 3d 69 4a fc be f6 eb b5 3e b9 95 43 3d
       0.112332694 -0.4927552 0.35531586 0.04775021
0000f0 19 eb 09 3d 55 6d c5 be a8 d4 dd bd d9 6d a6 3c
       0.033671472 -0.38559976 -0.108315766 0.020316051
000100 62 e7 b0 bd f1 38 02 be f5 fe 72 be 24 32 82 3e
       -0.08637883 -0.12717034 -0.23730071 0.2542888
000110 25 3d 2f bc 99 aa 44 3d 04 2e 0d 3d 99 f8 3b 3e
       -0.01069573 0.048014257 0.034467712 0.18356551
000120 36 21 9f 3e 02 03 22 bf 54 13 21 be c7 7e ec 3d
       0.31080025 -0.6328584 -0.1573003 0.11547618
000130 ff 9f 1e bd 7c bd a6 3d d1 f6 f5 bd ac 2c c7 bd
       -0.038726803 0.0814161 -0.12009967 -0.09725317
000140 36 8a 1a be 42 74 9e 3a b9 17 3f be 14 40 7a be
       -0.15091786 0.0012089091 -0.18661393 -0.24438506
000150 fc e6 a1 3d a2 dc 32 3e a1 6f c9 be 95 19 bf 3e
       0.07905385 0.17466977 -0.3934298 0.37324205
000160 24 3d 82 be 6b c1 f7 3d 0a 0f 56 bd e6 4c 24 3d
       -0.25437272 0.120974384 -0.052260436 0.0401124
000170 06 03 73 be e1 31 a9 be 5c 06 02 be a9 19 1f 3f
       -0.23731622 -0.33045867 -0.12697738 0.6214853
000180 50 34 0c bf 42 18 fb be e1 29 91 3e bd f8 a5 be
       -0.5476732 -0.49041945 0.28352264 -0.32416335
000190 f9 3f 70 be 21 94 43 be 28 c9 09 3d f0 80 bd 3e
       -0.23461904 -0.19099475 0.033639103 0.37012434
0001a0 a1 6f 5b 3e 31 e3 71 3e a8 5a 61 be 05 e8 96 bd
       0.21429302 0.23621823 -0.22007239 -0.07368473
0001b0 8d 14 45 3e 6e e6 25 bd 2d e6 43 bc b5 30 6d 3e
       0.19246121 -0.040502958 -0.011956734 0.23163112
0001c0 69 0d 5d 3d f4 62 46 be 50 e1 c9 bd 20 54 95 be
       0.053967867 -0.19373685 -0.09857428 -0.29165745
0001d0 9c d8 8f 3e d2 4f e0 bc 31 9c 46 3e 37 78 01 3e
       0.28094947 -0.027381811 0.1939552 0.12643515
0001e0 e9 97 66 3e 37 00 36 3f 46 2c 5f 3e fb 4d 4b be
       0.22518887 0.7109408 0.21794233 -0.19853966
0001f0 92 1f 06 be c5 ef 44 bd 6a 33 e5 bd e1 04 b1 3d
       -0.1309798 -0.048080225 -0.11191447 0.08643509
000200 6a 3e ff 3d ca 7e 00 be 3b 7b d0 3d 81 4e 92 be
       0.124630764 -0.12548366 0.10179754 -0.2857552
000210 dd fb 5d 3e e0 ac cd be 7a 85 4c 3c 71 29 64 be
       0.2167811 -0.40170956 0.012482995 -0.22281434
000220 02 eb 00 3e 09 f6 e6 3d 55 6c 5e bc 72 91 ca 3d
       0.12589648 0.11277396 -0.013575633 0.09891023
000230 12 dc 36 bf 27 58 42 be ef a8 a7 be 69 32 d7 bd
       -0.7142955 -0.1897894 -0.32746074 -0.10507662
000240 5f 6c 37 3e 40 e2 81 3d 3a 7a 3e 3e 98 82 86 3e
       0.17912434 0.06341982 0.18601313 0.2627151
000250 51 ea 04 bd e9 90 93 be 1d 4d a6 3e bc dc 7d 3e
       -0.032450024 -0.28821495 0.32480708 0.24791235
000260 e1 9d 24 3e 1b 32 0d 3e fd a0 18 be d9 86 92 bd
       0.16075851 0.13788645 -0.14905162 -0.071546264
000270 66 a8 28 bf e0 96 00 bc 7a f2 45 3e 06 6d bc 3e
       -0.65881956 -0.007848471 0.19330779 0.36801928
000280 4d 44 87 3d b5 1f bf bd a2 e7 27 3d 88 56 24 3c
       0.06604824 -0.093322195 0.040992387 0.010030396
000290 df 53 af 3e fd 19 d7 bd 13 fa a8 bd b7 71 6a 3d
       0.34243676 -0.10503004 -0.08250823 0.057237353
0002a0 b3 e6 95 bd 12 35 5c 3e 76 a3 f2 be 4a 8b 06 bf
       -0.07319393 0.2150462 -0.47390336 -0.5255629
0002b0 ac 8d 0c 3e 1e 88 e1 3e 59 21 b7 3e 3d a7 22 bf
       0.13725919 0.44049162 0.3576763 -0.63536435
0002c0 84 d0 23 bd 54 89 85 3d 1b 06 2d 3d ac b1 e9 3e
       -0.039993778 0.06520334 0.04224215 0.45643365
0002d0 54 84 d5 bd da 74 4b 3f 27 4e 9e be d3 23 80 3e
       -0.1042563 0.79475176 -0.30919 0.25027332
0002e0 da 53 9d 3e fc 42 58 be 9e 89 94 3c 4c cd 95 be
       0.30728036 -0.21119303 0.018132027 -0.29258192
0002f0 ed 88 ce be b4 ae 96 3d 03 25 b3 be 2e 03 8c 3e
       -0.4033884 0.07357541 -0.34989175 0.27346176
000300 ca 84 30 bd 5f c3 94 bd 0d 5d 58 bd 55 e2 d6 be
       -0.043095388 -0.072638266 -0.052823115 -0.41969553
000310 64 4b 91 be b7 ea 06 3f fd a6 90 be 92 32 91 3e
       -0.2837783 0.52701896 -0.28252402 0.28358895
000320 6e ed b0 3c 65 83 dc 3d e3 c3 98 bd 4f 58 9d be
       0.02159759 0.10767249 -0.074592374 -0.30731437
000330 dd e6 32 3e 23 92 69 3e 1a 7a 07 3f 3b 53 e6 3e
       0.1747088 0.22809653 0.5292069 0.44985375
000340 e9 57 3a be 67 e5 fb 3d 10 26 24 3e c7 86 cb bd
       -0.18197598 0.122996144 0.16030145 -0.09937816
000350 4a 6c aa 3d 97 16 8c 3e 6e d2 e2 3c 96 4a 64 3c
       0.08321436 0.27360985 0.027688231 0.013933798
000360 c3 46 13 bd ac 21 ad ba 05 da ce ba 59 97 d4 3d
       -0.035956156 -0.0013208888 -0.0015781528 0.1038043
000370 ef f0 2a be 46 d0 07 3f 62 06 81 be 8f 40 4e 3d
       -0.16693471 0.53052175 -0.25200182 0.050354537
000380 61 43 13 be 06 33 b7 bb 25 91 b0 bc 1b 10 fa be
       -0.14381172 -0.0055907993 -0.021553585 -0.48840412
000390 25 94 01 3e e3 cd b8 bd 0c 92 0f bf fc a2 5d bd
       0.12654169 -0.09023645 -0.56082225 -0.054110512
0003a0 1a ee b0 be d5 d6 59 3e 47 10 2c 3d f9 42 c9 be
       -0.34556657 0.21273358 0.04200771 -0.3930891
0003b0 ca ab 28 be c5 1b 24 bf 59 00 08 bd d9 a8 23 3e
       -0.16471782 -0.6410487 -0.033203457 0.15982379
0003c0 77 cc 99 3d 23 63 90 3e dc 30 3e be 38 00 f4 3e
       0.07509702 0.28200635 -0.18573326 0.47656417
0003d0 6e a8 12 3b 7c 48 aa be f4 03 14 bd 2c 53 8f be
       0.0022378224 -0.33258426 -0.036136582 -0.27993143
0003e0 87 00 6f bb 12 01 03 3e 2a fe 0f be 4c 4f 48 3e
       -0.003646882 0.12793377 -0.140618 0.195615
0003f0 77 4c 84 3e f5 e4 58 3d 42 4c f8 bd 8a f6 f9 3d
       0.25839588 0.052952725 -0.1212392 0.12205227
