experiments/weights/m202_MultiOutput_20230518_114418/best_loss-1.pth (torch, 384129 bytes, 138 tensors)

signal_classifier.stem.0.0.weight f4 [32, 1, 11]
000000 cd a8 1e 3f 55 2b 9c 3d ee 6b 74 bd 9e fa 13 3e
       0.6197632 0.076254524 -0.059673242 0.14451072
000010 59 dc 13 3f db 92 cd be cd 0c 99 be 4c 05 b7 be
       0.577581 -0.40151104 -0.2989258 -0.3574623
000020 de f5 0f bf f4 cf 3c be 93 89 05 3f 4a 4e 2c 3f
       -0.5623454 -0.18438703 0.52163047 0.6730696
000030 4d 92 c8 3d cd eb 75 3e d2 cb e3 3c 6b 2f 83 be
       0.0979353 0.24015732 0.02780715 -0.25622115
000040 e8 59 65 3e 04 11 d1 be d1 2f 09 bf 2f b3 e1 be
       0.22397578 -0.40833294 -0.5358859 -0.4408202
000050 52 d1 8e bd df 6d fd 3e f0 e3 85 3f 11 d9 36 3f
       -0.069735184 0.49497887 1.0460186 0.7142497
000060 0b 04 85 bd 28 13 94 be 1e 5b e4 3e a3 6f 5a be
       -0.06494912 -0.28920865 0.44600767 -0.21331649
000070 fe cf fe be 4a 78 f5 bd 4e 4d d2 3e e0 af 95 3c
       -0.4976806 -0.11985834 0.41074604 0.01827234
000080 48 8b 4f 3e 6d 91 6c 3e 47 a2 b1 be d2 af 45 3f
       0.20267975 0.2310235 -0.3469412 0.77221406
000090 83 98 fb 3d a2 6d 0e be c5 7c 29 3f 62 e9 d1 be
       0.12284949 -0.13909009 0.6620601 -0.4099837
0000a0 4c d3 39 be f1 e7 41 be 7c b9 b7 be e7 d1 71 3e
       -0.1814701 -0.18936135 -0.358837 0.23615228
0000b0 6a 8a 97 be e1 8d 86 be c5 d3 25 3e 96 0d 8e 3d
       -0.2959779 -0.2628012 0.16194065 0.06936185
0000c0 81 77 6d be b5 11 69 3e 2d 32 6f be 23 01 b2 be
       -0.23190118 0.22760661 -0.23358984 -0.34766492
0000d0 f2 aa 81 3e e2 e2 80 be 67 a4 73 3f 87 68 0f bf
       0.25325733 -0.25173098 0.95172733 -0.5601887
0000e0 d3 86 b9 3e c7 25 1e 3c c7 fd 05 3e 64 23 1b bf
       0.36235675 0.0096525615 0.1308509 -0.60600877
0000f0 e5 a7 c4 bd 2b 09 30 3e 87 a0 dd 3e 72 b3 e6 bd
       -0.09602336 0.17190997 0.43286535 -0.11264695
000100 41 3d 81 3e 00 13 de 3d 0b 28 04 bd eb 53 d8 be
       0.25242046 0.10843468 -0.03226475 -0.42251524
000110 39 8b c2 be 04 f4 07 bf 17 84 70 3f 88 87 91 be
       -0.37996843 -0.53106713 0.93951553 -0.28423715
000120 0e 04 23 3e 27 37 78 3e 2a a9 73 be 76 8c a8 3e
       0.15919515 0.24239789 -0.23795 0.32919663
000130 e6 16 20 3f d3 d2 11 3c 1b 2a 86 3f 80 95 a4 bd
       0.6253494 0.008900362 1.04816 -0.08036327
000140 29 7d 2d bf c6 25 06 bf bb 14 aa 3e 97 f4 b3 3d
       -0.67769104 -0.5240139 0.3321894 0.08786886
000150 d7 ca 44 bd 64 bd 30 bd 0a c0 49 bf 18 97 b2 3e
       -0.048045006 -0.043149367 -0.78808653 0.348809
000160 b8 1b 58 3e dd c4 f3 3e dc 99 1f bf ca bb 59 be
       0.21104324 0.47611132 -0.62344146 -0.21263042
000170 49 d1 34 3e 0e 2e e0 be 29 87 40 be e7 aa 1b 3e
       0.17657961 -0.43785137 -0.1880156 0.15201913
000180 50 92 d7 bd c7 a9 1b bf 89 01 7b bf 44 5a ae 3c
       -0.10525954 -0.60805935 -0.9804922 0.021283276
000190 3d e0 16 3d f4 89 03 be c8 30 b0 be cf 7f 91 3d
       0.036834944 -0.12845594 -0.34412217 0.07104456
0001a0 9c ca 94 be 25 e5 df be cc 8e 00 bf 9f 42 ac 3e
       -0.2906083 -0.4372951 -0.5021789 0.33644578
0001b0 15 8f 0d 3f 79 28 45 3f a0 2c d1 3e f9 1b 39 be
       0.5529645 0.7701488 0.4085436 -0.18077077
0001c0 12 91 cb be b9 69 2d 3c d2 c9 35 be dc 89 c1 bd
       -0.39759117 0.010584288 -0.1775277 -0.09450123
0001d0 24 4e 3a bf ae 37 17 3d e9 b3 57 be 84 b7 cf 3d
       -0.72775483 0.036918335 -0.21064724 0.10142425
0001e0 de a1 e0 be af b5 b5 3e 93 d0 08 bf 0b 0f 7c 3e
       -0.43873495 0.35490176 -0.5344326 0.24615113
0001f0 e7 1e 0c bc a5 b9 19 3e bc 25 61 3e fa c9 74 3e
       -0.00855229 0.15012224 0.21987051 0.23905173
000200 be e4 60 bf ec d4 99 3e ae 8c 84 3f c7 b2 ca 3e
       -0.8784903 0.3004526 1.0355432 0.3958952
000210 4f 9d 2d 3f bd 00 e2 3e 07 31 3c 3e 39 45 37 3f
       0.6781816 0.44141188 0.18378077 0.7159
000220 e3 17 0a bf f3 1a 48 3f 44 68 d5 3e ee 6d a7 3e
       -0.539427 0.7816612 0.4168111 0.32701057
000230 73 ea 44 3e 69 76 d0 be 68 44 18 be c9 20 5a 3e
       0.1923006 -0.4071534 -0.14869845 0.21301569
000240 4b 19 14 3e 4b 3a 2c 3f 95 df aa 3e 91 ec 12 bf
       0.14462774 0.6727645 0.33373705 -0.5739222
000250 75 ff 11 3c 92 39 8b bd 10 72 80 3f 45 8d 03 bf
       0.008911003 -0.0679809 1.0034809 -0.51387435
000260 34 0c 34 3d 5b f6 97 be 9b 0e 31 3d 6a af 07 bf
       0.04395695 -0.29680142 0.04322682 -0.53002036
000270 e9 e1 90 be 60 e6 6e 3e b3 26 b1 bd ae 10 b1 3f
       -0.28297356 0.23330069 -0.086499594 1.3833215
000280 51 28 5b be 21 41 24 bc 57 aa 9b be ea bc 28 bf
       -0.21402098 -0.010025294 -0.30403396 -0.6591326
000290 27 4d a7 be 8d 59 e0 3e 8d f4 9a be 85 6a 8d 3e
       -0.3267605 0.43818322 -0.30264702 0.2762033
0002a0 e9 1f 73 3f ea b6 7a bd b7 6e 96 3e c0 bb ad 3e
       0.94970566 -0.061209597 0.29381344 0.33932304
0002b0 37 9f db 3e 92 aa 58 3e a6 d3 11 3f 3c 9d a1 3b
       0.4289491 0.21158817 0.56963575 0.004932074
0002c0 18 93 75 be 10 1c f2 bd ee b6 f1 be 7b 09 eb be
       -0.23981893 -0.11821759 -0.47209877 -0.4590567
0002d0 73 99 02 bf a5 9f 26 3d 7f 03 d9 be 54 c1 9a be
       -0.51015395 0.040679593 -0.4238548 -0.30225623
0002e0 d4 e3 e8 3d 50 c5 a1 be de 71 42 3d d1 ca 2d 3f
       0.1137158 -0.3159585 0.047471873 0.678876
0002f0 1b 5c 05 be 8d a0 41 3f e4 34 cd be c9 ae 42 3d
       -0.13023417 0.75635606 -0.40079415 0.04752997
000300 af f6 12 be f3 d8 79 3e f1 ea 0b 3d 5f 1e 80 3e
       -0.14351915 0.24399166 0.034159604 0.2502317
000310 fb d4 98 be b7 a9 80 3d 54 81 de 3e b9 08 c5 3e
       -0.2984999 0.062823705 0.43458045 0.38483217
000320 1a f3 d7 3e d0 b7 9e 3e fe d5 f9 3e db 75 aa 3e
       0.4217766 0.30999613 0.48796076 0.33293042
000330 71 bd 1b bc 43 1a 4d 3c ba 32 93 3e 6c be e1 3d
       -0.009505616 0.012518468 0.2874964 0.11022648
000340 0b 68 c7 3d 8f 79 ce be c8 c3 d2 be d2 84 2d be
       0.097366415 -0.40327117 -0.41164994 -0.16945198
000350 cd 49 8b bd ee 9e 8f 3d 9f 39 03 3e ab ae fd 3e
       -0.06801186 0.07012735 0.1281495 0.49547324
000360 13 20 47 3c d1 60 71 3d 21 98 d7 3d 84 15 38 3e
       0.012153643 0.058930222 0.10527063 0.17976958
000370 08 c5 0b be ab e2 30 3e af 9c 18 3e b6 cb a6 3e
       -0.1364938 0.17273967 0.1490352 0.32577294
000380 2b df 2f be a9 7c fb 3e a0 af 64 3e fe 61 1f bd
       -0.17174976 0.49118546 0.2233262 -0.038911812
000390 4a 7a cb bd 64 fe 7d 3e 1d bf 05 3f 50 42 a0 be
       -0.09935434 0.24804074 0.5224474 -0.31300592
0003a0 59 9c a5 3d 2c a4 bb 3e 7a 31 4d be 7b 3e 44 be
       0.080864616 0.3664869 -0.20038405 -0.1916446
0003b0 2b 29 d7 be 0e a2 4b be c0 b5 85 bc ad 25 f1 3e
       -0.42023596 -0.19886038 -0.016322017 0.47099057
0003c0 43 00 42 3e 52 0f e2 3d 83 32 00 3e bc 26 36 bd
       0.18945412 0.11038078 0.12519269 -0.044470534
0003d0 92 73 38 bf 72 a0 85 bf a2 f3 55 bd 6b a9 c6 3e
       -0.72051346 -1.0439589 -0.0522343 0.3880113
0003e0 ed 91 63 be 4e 7e 0d 3f a1 a4 06 be 98 a6 ff 3e
       -0.22223635 0.5527085 -0.13148738 0.49931788
0003f0 c5 82 09 3f 0f 21 4f 3e 76 5d 92 be ae 8a 83 be
       0.53715163 0.20227455 -0.2858693 -0.25691742

signal_classifier.stem.0.0.bias f4 [32]
000000 cd d0 9b 3e 08 5d 90 3c ca fb b2 be ae 6a 31 3c
       0.3043274 0.017622486 -0.34957725 0.010828657
000010 66 b7 54 3e 77 96 94 3d 2c e0 94 be 61 ef 84 be
       0.20773086 0.072552614 -0.2907728 -0.25963882
000020 e8 2f 2a bb 49 12 86 be 9b 4c 2d 3d 18 9a 62 bd
       -0.0025968496 -0.26185825 0.042309385 -0.055322737
000030 b6 aa 3a 3e 41 87 0f 3e 49 93 6b be 6e 1a 24 3e
       0.18229184 0.14016439 -0.23005404 0.16025707
000040 e3 01 33 be d1 cb 3f be 55 e8 b6 be 22 7b ee bd
       -0.17481188 -0.18730094 -0.3572413 -0.116445795
000050 af 7d f4 3d 5e 6d 5a 3b 0f 84 4a 3e ef 2f 03 3d
       0.11938035 0.0033329348 0.19776939 0.032028135
000060 5d c1 20 bd 7d 24 8b be 85 3c 85 be 53 a8 11 3e
       -0.039246906 -0.27176276 -0.26022735 0.14224367
000070 1f 29 61 3e 85 59 13 3e 15 4e 8c be 55 98 5f bd
       0.21988343 0.14389618 -0.27403322 -0.054588635

signal_classifier.stem.0.1.weight f4 [32]
000000 f8 0a 7f 3f 47 b0 91 3f 9d 25 76 3f 4d f3 61 3f
       0.9962611 1.138192 0.96151143 0.8826187
000010 41 e7 81 3f 3e 71 85 3f 67 bb 65 3f f3 a0 78 3f
       1.0148698 1.0425184 0.8973908 0.9712059
000020 3f f3 80 3f 05 c2 87 3f a9 f4 76 3f 0b 81 79 3f
       1.0074233 1.0606085 0.9646707 0.9746253
000030 62 39 78 3f 59 20 82 3f 7b a6 81 3f e4 bb 82 3f
       0.9696256 1.0166122 1.0128931 1.021359
000040 68 d2 8b 3f 28 59 84 3f 4b 0d 8d 3f 68 00 8c 3f
       1.0923586 1.0339708 1.1019682 1.0937624
000050 7c 92 6b 3f b9 8d 72 3f 3d 41 67 3f 9c 89 84 3f
       0.9202039 0.947475 0.9033392 1.0354495
000060 fc f6 83 3f 77 93 6e 3f 95 bb 80 3f 0f ba 76 3f
       1.0309749 0.93193763 1.0057245 0.9637765
000070 57 e9 85 3f ac ae 78 3f f0 3b 80 3f 0c dd 8d 3f
       1.0461835 0.9714153 1.0018291 1.1083083

signal_classifier.stem.0.1.bias f4 [32]
000000 f9 63 ef 3c 35 33 95 3a 72 01 a7 bd 90 cf 44 3d
       0.029222475 0.0011383059 -0.081545725 0.04804951
000010 76 2d fc 3a 64 6c 21 ba 4d 32 b1 3d b4 16 af 3a
       0.0019239623 -0.0006157814 0.08652172 0.0013358206
000020 30 9a a1 bc a0 c9 62 bb 69 f2 cb bc 92 40 e4 3d
       -0.019726843 -0.003460504 -0.024895864 0.11145128
000030 5e 69 f7 bc c7 a6 cf 3d 76 84 c2 3a fd 8e 58 bc
       -0.03020161 0.10139232 0.0014840502 -0.013217685
000040 00 03 04 bc 84 74 34 bc 2f 4b c4 3a 7a a6 f0 b9
       -0.008057356 -0.011014108 0.001497602 -0.00045900402
000050 04 48 e1 3d bc f4 06 be 60 5a 25 ba cf 3c 29 bb
       0.11000064 -0.13179296 -0.00063077174 -0.0025823598
000060 7f 54 70 39 39 05 13 bd 76 c5 8d bc ad aa f9 bc
       0.00022919661 -0.035893653 -0.01730607 -0.030476892
000070 27 6a 24 bb 80 e4 93 bd a3 11 f0 3c 37 36 1d bb
       -0.0025087686 -0.07221317 0.029305285 -0.0023988613

signal_classifier.stem.0.1.running_mean f4 [32]
000000 9f ab 9b 3e 62 14 96 3c df bf b2 be ed bd 2c 3c
       0.30404374 0.018320266 -0.3491201 0.010543329
000010 98 fe 53 3e cd ed 96 3d 9a f7 94 be c9 72 84 be
       0.20702589 0.07369576 -0.29095155 -0.25868824
000020 a3 fa 49 bb 4e 1a 86 be 47 79 2d 3d 1b c1 5d bd
       -0.0030819557 -0.26191944 0.042351987 -0.054139238
000030 46 51 39 3e 16 50 0f 3e 75 18 69 be 48 db 23 3e
       0.1809741 0.13995394 -0.22763236 0.16001618
000040 37 78 33 be 61 19 41 be ff 86 b6 be 1d a5 ed bd
       -0.17526327 -0.18857338 -0.3564987 -0.116037585
000050 0a ce f2 3d 48 e6 22 3b 91 4b 4a 3e 20 e2 04 3d
       0.11855705 0.0024856497 0.19755389 0.032442212
000060 79 a0 21 bd 20 23 8b be a6 e9 84 be 8c e8 10 3e
       -0.03945968 -0.27175236 -0.2595951 0.1415121
000070 ec 29 60 3e 2a 29 12 3e c1 27 8c be 0c 7d 60 bd
       0.21890992 0.14273515 -0.2737408 -0.054806754

signal_classifier.stem.0.1.running_var f4 [32]
000000 ae 61 8b 3e 22 46 7b 3e 4f 7c bc 3e 7a 2b 93 3e
       0.2722296 0.24538472 0.3681359 0.28744107
000010 14 2a 72 3e 7e 23 3a 3e 66 d6 b1 3e 01 33 c8 3e
       0.23648864 0.18177602 0.34733886 0.39101413
000020 48 9a d0 3e dd 1b 7f 3e 7e 0e 37 3e 95 7c cf 3e
       0.40742707 0.24912973 0.17876622 0.40524736
000030 9c 3a c4 3e b2 2f bb 3e ef 2c fd 3e f5 2b a0 3e
       0.38325965 0.36559826 0.49448344 0.31283537
000040 49 d1 31 3e b9 15 60 3e 2f 58 2d 3e 68 84 d7 3d
       0.17364992 0.21883287 0.1692817 0.10523301
000050 d3 f2 0c 3e 3e 34 0c 3e ab 36 c9 3e ca a7 d7 3e
       0.13764505 0.13691804 0.3929952 0.421202
000060 eb 13 53 3e 72 ec be 3d 49 43 95 3e 7e 14 29 3f
       0.20613067 0.09322442 0.29152897 0.66046894
000070 8c e8 d3 3e f7 b3 36 3e 4c c3 3b 3f 13 b1 a4 3e
       0.41388357 0.17842089 0.73344874 0.32166347

signal_classifier.stem.1.0.weight f4 [32, 32, 3]
000000 fe 70 b4 bd 83 4b 0a 3e f8 99 0c 3e ff b8 30 bb
       -0.08810614 0.13505368 0.1373061 -0.0026965735
000010 73 08 56 bd 66 e6 82 bd a9 46 ac bd 89 a3 4b 3e
       -0.05225415 -0.06391601 -0.08411915 0.19886602
000020 a3 a6 00 3e e4 a9 a0 be 23 b9 1d 3c ae 45 7a 3c
       0.12563567 -0.31379616 0.00962666 0.015275402
000030 de 7a b2 3d c7 2a c3 bd 64 dc f6 3d cf 6c 72 3d
       0.08714841 -0.095296435 0.12053755 0.0591858
000040 bf 40 92 3c da 22 c6 3d 7a 78 10 3e dc 97 ea bd
       0.017853139 0.09674616 0.14108458 -0.11454746
000050 79 84 22 be 97 70 e0 bd 46 09 97 3d 2b a2 5a 3e
       -0.15870847 -0.10958975 0.07374816 0.21350925
000060 e3 2f cf 3d 8b ae d0 3d d8 7e e8 bc fa 1e 46 3e
       0.101165555 0.101895414 -0.028380796 0.19347754
000070 ea eb 3a be ba ad 74 bd f6 e2 05 bd 9b 64 c7 bd
       -0.18254057 -0.05973599 -0.03268715 -0.09735986
000080 86 c7 f5 3d b7 8b 88 3e 6a b0 5c bd b5 5c 10 bd
       0.12000947 0.26669094 -0.05387918 -0.035244662
000090 78 b3 9e be 26 c3 14 3e dd 55 34 be 5b a4 b4 3d
       -0.309963 0.14527568 -0.17610879 0.08820411
0000a0 e0 9f 02 3e 88 af 89 3d 08 7c 75 be 25 73 a1 bd
       0.127563 0.06722933 -0.23973095 -0.0788329
0000b0 fd b6 9c bd d9 85 85 3e 97 be b9 3e 0b 66 04 3e
       -0.0765209 0.2607868 0.3627822 0.12929551
0000c0 39 9e a5 bc 61 aa 0c be 25 f2 34 3d 2f 59 66 3e
       -0.020217048 -0.1373687 0.04417624 0.22494958
0000d0 11 f5 df 3c 1b 74 2f be 56 f4 c7 be b9 7c 3d be
       0.027338536 -0.17134134 -0.390536 -0.18504609
0000e0 41 9b e9 3d cd 25 32 3e 1f fb 0d 3e 93 bc 0d bd
       0.114065655 0.17397232 0.13865326 -0.034603667
0000f0 35 3c ec bd d2 3e 6d be f4 16 c2 be a8 47 19 be
       -0.11534921 -0.23168495 -0.37908137 -0.14968741
000100 53 03 61 3e 0e f9 a2 3d ad 76 e5 3d c7 68 a5 3d
       0.21973924 0.0795766 0.11204276 0.08076625
000110 1a 3b 52 3d 8f f8 40 3e 3e 1f 7c 3e c5 18 2d 3e
       0.051325895 0.18844818 0.24621293 0.1690398
000120 39 c0 92 be 9f 16 97 3e ce 2e ea 3c 42 a5 56 3d
       -0.2866228 0.29509446 0.028586771 0.052403696
000130 23 45 10 3e b7 5f 4a be 86 6d 1a bd 7d 3c 9c 3c
       0.14088874 -0.19763075 -0.037702106 0.019071812
000140 80 ac d5 bc 89 57 51 bd 26 21 10 3e ac 38 78 bd
       -0.026083231 -0.05110887 0.14075145 -0.06060092
000150 b2 c5 5e bd b2 45 9d bc 9f 71 89 bd 1b 8f 6e 3e
       -0.054387756 -0.019198272 -0.06711125 0.23296778
000160 57 e6 59 3e 42 8f 34 be 0d d4 a0 bd df 42 25 3e
       0.21279274 -0.17632774 -0.078529455 0.1613879
000170 5d 97 81 bd a1 50 d9 3c bf 87 3e 3e 04 d7 9d bd
       -0.063276984 0.026527705 0.1860647 -0.077070266
000180 13 02 e1 bd 91 0a 13 3e 5e 74 c9 3c 7a d9 56 be
       -0.10986724 0.143595 0.024591621 -0.20981398
000190 5e b9 50 bd 9a 56 1f 3e fe 5f 49 bd 58 9f 45 be
       -0.05095803 0.1556038 -0.04916381 -0.19299066
0001a0 85 de 8a 3d 4a a6 85 be be 30 92 3d 98 96 e1 3d
       0.067807235 -0.2610343 0.07138203 0.110150516
0001b0 b9 94 d4 bd 12 dd e4 bd 36 a2 93 3b ff 95 a5 3d
       -0.10379929 -0.11174978 0.004505421 0.0808525
0001c0 49 2b 99 bd 5b 6f d4 bd a4 81 1b be 10 a0 1d 3d
       -0.07478959 -0.10372802 -0.15186173 0.038482726
0001d0 ae 34 7c bb 5a 5a d7 3e d2 16 7f bd 03 23 77 be
       -0.0038483548 0.4206112 -0.062277623 -0.2413445
0001e0 70 ec e3 bc 48 f8 79 be ce 8a 98 3e c1 46 6f 3d
       -0.027822703 -0.24411118 0.297934 0.058417086
0001f0 47 61 1e bd 92 53 f9 3d ff 2e d7 3d af 39 8a be
       -0.03866699 0.12174143 0.10507011 -0.26997134
000200 ef 59 9a 3d 85 21 92 be 62 6a 6d 3d 28 f6 82 bd
       0.07536685 -0.28541198 0.057962783 -0.06394607
000210 ae 9c b4 3c d8 4f 8c 3d a4 e0 1b 3d e4 f5 c1 3d
       0.022047367 0.068511665 0.03805603 0.09470728
000220 f0 b5 b7 bd 50 3b 63 3e 21 2d fa 3d 81 bf 12 be
       -0.08970249 0.22190595 0.12215639 -0.14330865
000230 4b 3a 8d 3d 3d 89 83 ba 7a e3 ad bc 30 0c 39 be
       0.06895884 -0.0010035407 -0.021226633 -0.18071055
000240 8d d3 88 be ac 4f 0d 3d 1c 11 7b bc 3c be 8d bd
       -0.267239 0.03449981 -0.015323903 -0.0692105
000250 03 a1 c2 bd 3c 6b e2 3e fe 34 43 be c4 f5 cc be
       -0.09503367 0.44222438 -0.19063184 -0.40031254
000260 39 4c 16 3e 46 fe 16 3e 87 55 16 be eb 61 10 be
       0.14677514 0.14745435 -0.14681064 -0.14099853
000270 3d 37 89 bd 6f 30 a9 3d 75 7c 89 bd 89 2b c4 3d
       -0.06699989 0.08261191 -0.067131914 0.09578616
000280 31 53 5a bc 94 93 ae bd 69 91 46 3d 79 35 32 3d
       -0.013325498 -0.08524242 0.048478518 0.043508027
000290 cd d4 9c bd 3f ac 34 3e c4 b3 bd bd f1 77 76 3d
       -0.07657776 0.17643832 -0.09262803 0.06017298
0002a0 71 58 f7 bc f5 9b 21 3d 06 b2 75 3e 48 9c 30 3e
       -0.03019354 0.039455373 0.23993692 0.17247117
0002b0 9b e7 79 be 2e b9 53 be 31 a4 26 3e be 63 10 bc
       -0.24404757 -0.20676109 0.16273572 -0.008812843
0002c0 05 26 5f bd 04 8d 5d 3d 47 2f 29 be 3a fe 49 3e
       -0.054479618 0.05408956 -0.16521941 0.19725886
0002d0 09 28 ed bd 32 1d 93 3d cc c5 3e 3e 65 26 4f be
       -0.11579902 0.07183303 0.18630141 -0.2022949
0002e0 b5 16 a1 3c ef 5c 43 bc 5a 93 60 be 6c 46 f9 bd
       0.019664148 -0.011924013 -0.2193121 -0.12171635
0002f0 9a 54 6f be 8f 94 32 3e c2 5f 15 3e 6b e5 1d 3d
       -0.23372117 0.17439483 0.1458731 0.03854887
000300 99 98 60 be 4b 9b a1 bd 73 7f 49 3d b6 3b 80 3d
       -0.21933211 -0.07890948 0.04919381 0.06261389
000310 38 c6 28 bd 1d ab f8 bc e5 b2 eb 3c a2 48 3f bd
       -0.04120466 -0.03035503 0.028771827 -0.046700127
000320 d4 1f 00 3e 57 56 c1 bd e5 c8 3f be 87 2d 49 be
       0.12512141 -0.09440296 -0.18728979 -0.19646274
000330 ed 50 9c 3d 5f 4a 34 3c 6f 43 03 bd 83 7d 1c be
       0.07632623 0.01100406 -0.03204673 -0.15282254
000340 c1 c5 1e 3e bf 63 45 3e 88 0a a1 be aa 51 98 3d
       0.15505125 0.19276331 -0.31453347 0.07437451
000350 61 4e 01 be 2c e1 b1 3c 1f 11 de 3c 69 c8 37 be
       -0.12627555 0.021713816 0.027107773 -0.17947544
000360 8c f4 22 3e 72 f8 06 3e 80 93 8c be 5e 0a 53 3e
       0.159136 0.13180712 -0.27456284 0.20609424
000370 c5 ff 90 3e 66 0c 8b 3e 7a c6 6c be f8 9a dc be
       0.28320137 0.27157897 -0.23122588 -0.43086982
000380 f1 ec ba bd a6 00 99 3d cb d2 06 be 62 96 16 3e
       -0.09127224 0.07470827 -0.13166349 0.14705804
000390 2e 3e d7 3d 99 fd 30 3d 84 6d 27 be 04 f1 4b bd
       0.10509907 0.0432106 -0.1635037 -0.049790397
0003a0 35 e2 b0 bd fe 25 90 3e ac 70 ef bd 60 a2 d9 bd
       -0.086368956 0.28153986 -0.11691412 -0.10626674
0003b0 14 3d 3c 3e a9 c9 2c be cb 2c 1a be e7 ac 05 3e
       0.18382674 -0.16873802 -0.1505615 0.13054238
0003c0 b9 8f 47 be 91 b2 4d 3b 87 1b 72 bc e1 b5 c8 bc
       -0.1948842 0.0031386951 -0.014777071 -0.02450079
0003d0 0b 30 f5 3c b7 32 9d be 7a 0e 5e 3d b1 b3 b3 bd
       0.029930135 -0.30702755 0.054213025 -0.08774508
0003e0 ac a5 60 3c ec 2e 63 3e 5b e2 61 bd 9f 47 5b 3e
       0.013711374 0.22185868 -0.05514751 0.2141404
0003f0 b4 1c af bd 8d 7e af bd 4b be 24 bd 1d 78 20 bc
       -0.085503966 -0.085690595 -0.04022054 -0.009794262

signal_classifier.stem.1.0.bias f4 [32]
000000 7e ee 84 bb 8c 95 83 3d 24 19 8d bd 28 38 25 be
       -0.004056751 0.06425008 -0.06889561 -0.16134703
000010 94 81 c2 3b c8 5b 1c 3e c1 45 67 3d bb 80 a4 bd
       0.005935857 0.15269387 0.056463007 -0.08032366
000020 79 d5 b9 bd 9f bf 8d bc d5 6a 09 bd fc 42 02 3c
       -0.0907392 -0.017303286 -0.03354915 0.007950541
000030 6d c5 99 3d 26 8c 6c 3c 56 80 f4 3d 9e dd 86 3d
       0.07508359 0.014437711 0.11938541 0.06585239
000040 f8 0f 21 3e 7c f0 22 bd 29 e9 b6 3b 4b 0e 6a 3c
       0.15728748 -0.039780125 0.005581994 0.014285634
000050 a9 25 1b 3e 6b e5 19 be 9a f7 b1 bd 1d dc 2c 3d
       0.15151085 -0.15028922 -0.086898044 0.042202104
000060 d3 a0 0e 3e 96 c6 be bb 18 6c 5f bd ee 1a 04 bd
       0.13928537 -0.005822013 -0.054546446 -0.032252245
000070 87 1a 90 bd 9f f3 7d bd 44 db 3b 3d 97 9c 87 ba
       -0.0703631 -0.061999913 0.045863405 -0.001034635

signal_classifier.stem.1.1.weight f4 [32]
000000 79 68 85 3f 57 f8 73 3f 43 f5 82 3f 83 4c 91 3f
       1.0422508 0.9530081 1.0231098 1.1351475
000010 94 5e 83 3f 53 c5 79 3f e2 ce 75 3f cf 99 63 3f
       1.0263238 0.9756672 0.96018803 0.8890657
000020 63 a1 76 3f 2a 25 7f 3f 0b 5b 7c 3f 5e 44 8e 3f
       0.96340007 0.9966608 0.9857642 1.1114614
000030 41 1b 69 3f b4 9f 82 3f f8 70 82 3f 92 d7 77 3f
       0.9105721 1.0204988 1.0190725 0.9681331
000040 0c 8e 81 3f ed 85 77 3f 9c 5a 6f 3f 88 0d 76 3f
       1.0121474 0.9668873 0.93497634 0.961144
000050 e8 52 78 3f 52 15 92 3f fd d1 8a 3f e8 03 8a 3f
       0.97001505 1.1412756 1.0845333 1.0782442
000060 33 91 8a 3f fb 63 6b 3f f6 68 85 3f 85 8b 7e 3f
       1.0825561 0.91949433 1.0422657 0.9943164
000070 9c be 65 3f 98 d5 83 3f 69 3e 80 3f f7 4a 68 3f
       0.8974397 1.0299559 1.0019046 0.9073939

signal_classifier.stem.1.1.bias f4 [32]
000000 8e 97 f7 3c 8a b6 0b 3d 3d 84 ee 3c bc 58 81 3d
       0.030223634 0.03410963 0.02911579 0.06315753
000010 dd c4 2c bc 20 e0 10 bd 10 bc af 3c ca 55 55 bd
       -0.010544983 -0.035369992 0.02145198 -0.052083768
000020 ec de ea bc 01 b8 57 bd cb da 0f 3e 18 5f e1 3c
       -0.02867075 -0.052665714 0.14048307 0.027511165
000030 42 10 a7 3c 9c 9e 5a 3d 74 4d 07 bd fd 1e a9 bb
       0.020393495 0.053373918 -0.03303285 -0.005161165
000040 1c 15 08 3d a2 09 d9 3d fe 89 fe 3c 90 c3 28 bb
       0.033223256 0.105975404 0.03107166 -0.002575133
000050 6f 4c 33 3d c5 ce 84 3d c0 28 78 3d 7d 22 4c 3d
       0.043774065 0.06484751 0.060585737 0.049837578
000060 b3 4f 18 3d 31 ff b0 bc 20 de 08 3c c3 a3 9a 3d
       0.037185382 -0.02160606 0.00835374 0.07550766
000070 25 cf d8 3c 2e 15 8e 3c 9f 6f 65 3d f5 aa b7 bc
       0.026465962 0.017344084 0.056014653 -0.022420386

signal_classifier.stem.1.1.running_mean f4 [32]
000000 b1 4d 9e 3d 9f fc 7a bd 24 1f 8d be f1 92 0d bf
       0.07729662 -0.061276074 -0.2756282 -0.5530234
000010 5e 3a f4 be e5 36 66 3e 70 c9 57 3e 69 73 93 be
       -0.4770078 0.22481878 0.21072936 -0.28798988
000020 3a 00 3d be e8 85 19 bd 98 1b 6c 3e 2c df 5b be
       -0.18457118 -0.03748122 0.23057401 -0.21471852
000030 0c 04 46 3e f8 a8 18 3e c7 cf 43 3e 55 61 fe 3d
       0.19337481 0.14908206 0.1912223 0.12420908
000040 e1 6c a2 bd 28 03 99 3d 3f b9 2b 3b d6 91 82 3e
       -0.07930923 0.07471305 0.0026202945 0.2550189
000050 06 b7 e6 bd 6f e4 8e be 63 32 54 be a4 5d ab 3e
       -0.11265378 -0.27908656 -0.20722346 0.3346988
000060 da 18 0d be 6b 70 18 be f4 16 9c 3d 86 bb 90 bd
       -0.13779011 -0.14886634 0.076215655 -0.07067017
000070 f2 5f 7c be 06 5b 89 bd 53 78 85 bd ce 40 19 be
       -0.24645975 -0.067068145 -0.06517091 -0.14966127

signal_classifier.stem.1.1.running_var f4 [32]
000000 69 ca a4 3f 7f da 8a 3f e9 91 8a 3f 0b 89 63 40
       1.2874271 1.084793 1.0825778 3.5552394
000010 69 fc 61 40 3d aa b3 3f 98 2e 88 3f b2 3b db 3f
       3.531031 1.4036328 1.0639219 1.7127593
000020 7f ad a5 3f 96 f8 ac 3f 1d 98 f2 3f b6 72 6a 3f
       1.2943572 1.3513362 1.8952671 0.91581285
000030 6a 0a a9 3f a3 e2 cd 3f 5c 79 c7 3f df 20 a6 3f
       1.3206303 1.6084789 1.5583911 1.2978781
000040 41 04 9a 3f 40 3d 86 3f 1f 8f 46 3f 5d 01 16 40
       1.2032548 1.0487442 0.77562135 2.3438332
000050 8e d7 e7 3f 75 00 8e 3f cb 79 8d 3f 78 c8 e5 3f
       1.8112657 1.109389 1.1052793 1.7951803
000060 76 fe 1e 40 85 04 78 3f b1 c0 ac 3f a8 4b 7c 3f
       2.484281 0.96881896 1.3496305 0.9855294
000070 4e 76 97 3f bd 00 bc 3f 27 a1 66 3f d0 92 b9 3f
       1.1832979 1.4687725 0.9008965 1.4497929

signal_classifier.stem.2.0.weight f4 [32, 32, 3]
000000 7a 17 46 be e1 1f b9 bd 6d 9f 52 3e f6 e2 ac 3d
       -0.19344893 -0.090392835 0.20568629 0.08441727
000010 73 b9 50 3c 85 42 a3 3d 6b 3c cd 3d 8c 9e 66 be
       0.012739527 0.07971672 0.100212894 -0.22521418
000020 6c fa c2 ba 69 07 65 bb 61 12 ba bd 4a b4 a1 bc
       -0.0014875657 -0.0034947044 -0.09085537 -0.019739289
000030 90 23 a5 bd ab ef 76 3e 78 be 17 3e aa f9 e7 3d
       -0.08063424 0.24114864 0.14818752 0.113269165
000040 df 0c e8 bd 5b 1e 26 be 3c 8f 88 bd 07 75 99 3d
       -0.1133058 -0.16222517 -0.06667945 0.07493024
000050 d3 b6 87 3d 58 3b 53 3d 8f f8 97 bc 9f 1f 10 be
       0.06626668 0.051570266 -0.01855114 -0.14074562
000060 0d b0 61 be 77 7e 35 be 46 09 34 3e bf fd bf 3d
       -0.22039814 -0.17724024 0.17581663 0.0937457
000070 e4 e9 93 3e 22 fb a6 3e 1a 8f f2 3d a6 0a 8a be
       0.28889382 0.32613474 0.11843701 -0.2696125
000080 3b 37 0e 3d e1 36 02 bc a0 e6 40 3e ea d4 ab 3d
       0.03472064 -0.007947654 0.18837976 0.083902195
000090 b5 7a 9a 3e 17 38 3b 3e 6c 84 74 3d 52 68 10 3e
       0.30171743 0.18283115 0.0596966 0.14102295
0000a0 c9 49 c0 bd 60 cf 41 bd ea 6a 2c be 50 10 82 3d
       -0.093890734 -0.04731691 -0.1683766 0.063507676
0000b0 4d 7c c8 3d ef 36 df 3d c6 bd 1b be 7f d5 d0 3d
       0.097893335 0.108991496 -0.15209112 0.10196971
0000c0 2d ef ab 3d 76 b9 6f 3e 40 ca 67 3e d6 7c df b9
       0.083952285 0.23410591 0.22635746 -0.00042626885
0000d0 44 0b 46 3e 00 7c ca bd d4 40 93 be 4d f0 48 be
       0.19340235 -0.098869324 -0.28760397 -0.19622917
0000e0 76 5f 00 3d 33 41 0b 3d 5d 8c f4 bd a9 49 20 bd
       0.03134104 0.033997726 -0.11940835 -0.039132748
0000f0 da 68 00 3e c5 1e 7f 3d 87 76 96 be 37 4a fd 3d
       0.12539998 0.062285203 -0.29387304 0.12367671
000100 d1 70 4d be 65 f1 33 3a 65 93 2a be f9 ee 16 be
       -0.20062567 0.00068642787 -0.16657789 -0.14739598
000110 87 5d 0b be 06 4f e4 bd 74 c3 92 3d 0e ae ae 3e
       -0.13609897 -0.11147885 0.07166186 0.34117168
000120 19 2d 02 bc 8c a6 78 bd 24 12 ac bd b1 30 09 3c
       -0.007945322 -0.060705706 -0.084018975 0.008373425
000130 71 fb 2e bc bc e6 27 3d 2b 45 49 be 42 0f 21 3e
       -0.0106800655 0.04099153 -0.19655292 0.15728477
000140 6b 4c b7 3d 84 1b b7 bd db df eb bc 6b 7d 2b 3e
       0.089501224 -0.08940795 -0.028793266 0.16747062
000150 2e b1 41 be 7a 7f 64 3e 31 f0 e4 38 22 4b 61 be
       -0.18915245 0.22314253 0.00010916626 -0.22001317
000160 cd 48 d0 bc c6 c1 9b 3d 44 84 ae 3d b6 fb f1 3c
       -0.02542534 0.07605319 0.085213214 0.02953897
000170 ef d8 5f be 24 9a 20 be 2d f2 31 be bc 04 fe 3d
       -0.21860097 -0.156838 -0.17377539 0.12403247
000180 a9 8e b9 3c 25 a3 2d 3e ef b1 ae 3e 36 47 2e bd
       0.022651033 0.16956766 0.34120128 -0.04254838
000190 c7 2f d1 bc 6d ca 86 bd 37 73 2a 3d 8f b9 80 bd
       -0.025535477 -0.065815784 0.041613784 -0.062853925
0001a0 bc d0 2d be 9b af b8 bd 94 c5 a4 3e 9b 83 67 3e
       -0.16974157 -0.09017869 0.3218199 0.22608797
0001b0 06 22 ff bd d7 91 73 bc b3 d2 be 3d 0f ff b2 bd
       -0.12457661 -0.014866314 0.093175314 -0.08740055
0001c0 94 34 75 bd b7 a6 86 bb 4e 71 ce 3d aa e9 b4 3a
       -0.059864596 -0.0041092294 0.10080205 0.0013802547
0001d0 87 6a b7 bd ce c8 e4 3d 44 4c cd ba 14 e2 04 be
       -0.08955865 0.11171113 -0.0015662988 -0.12976867
0001e0 c1 81 c3 3d 1d a0 c8 3d ff e2 7f 3e 20 f1 15 3e
       0.09546233 0.09796164 0.24988936 0.14642763
0001f0 aa 26 cb 3d 16 d8 30 3d 5a 68 57 3e 36 38 69 bc
       0.09919484 0.043174826 0.210359 -0.014234593
000200 2a e8 59 bd 17 80 66 3e da f1 d8 bd 5a fa 5d 3c
       -0.053199925 0.225098 -0.105930045 0.013548458
000210 b8 a3 90 3c dc 29 d8 bd 39 9e 39 bd e5 cf 6c 3e
       0.017656192 -0.10554859 -0.04531691 0.2312618
000220 16 ae 36 be cb 2c 80 bd a1 cc c1 3d 83 30 fd bc
       -0.17839846 -0.062585436 0.09462858 -0.030906921
000230 b1 64 b3 bd 83 47 90 3e 9c b4 b5 be c5 df 2f bc
       -0.0875944 0.2817956 -0.35489357 -0.010734503
000240 e2 81 6f be d8 63 0e 3e 1d 40 86 3d 38 53 0b 3e
       -0.2338939 0.13905275 0.065551974 0.13605964
000250 27 39 37 3c bb 26 f3 3c ca 52 2c 3e f9 3c db 3d
       0.01118306 0.029681554 0.16828457 0.10704989
000260 0a 7d 8f 3d 77 f2 f2 3d 24 ec b5 3c c9 8b 86 bd
       0.07006271 0.11862653 0.022207327 -0.06569631
000270 fd be 3d bd aa 38 4a 3e 93 60 3e 3d 4c ef 22 3e
       -0.04632472 0.19748178 0.04647882 0.15911597
000280 30 f8 ca 3c b7 3e b3 bd 99 f0 0d be aa 50 8c 3d
       0.024776548 -0.08752196 -0.13861312 0.06851323
000290 d0 a5 ec bb 5e 90 93 3e e1 ce 1b be 54 a0 a8 bc
       -0.007221915 0.2882108 -0.15215637 -0.020584263
0002a0 97 70 ad 3e a1 9c c5 3e 45 cd 83 be ee 63 6f 3d
       0.33874962 0.3859606 -0.25742546 0.05844491
0002b0 bc 2d a3 bd 6e dd d6 3d 9c b1 40 3a 62 e3 90 be
       -0.079677075 0.10491453 0.00073506846 -0.2829848
0002c0 7f 98 c8 bd 1d cb c1 3d 67 bc 79 be dc c3 6e bd
       -0.09794711 0.09462569 -0.24388276 -0.058292255
0002d0 f0 c0 fb 3d 9a 0b 5f 3e 28 a4 30 3e 00 1e 84 3e
       0.12292659 0.2178177 0.1725012 0.25804138
0002e0 96 b2 86 3d a9 ce 02 be fb 4e 87 3e fe cf ba 3d
       0.06577031 -0.12774147 0.26427445 0.091217026
0002f0 ff 81 4a bd db 73 81 3c c0 e1 4f bd 27 ee 50 bd
       -0.04944038 0.015802315 -0.0507524 -0.05100837
000300 45 43 44 3e 14 98 64 3e 2f cf 80 3b 37 96 37 be
       0.19166286 0.22323638 0.003930948 -0.17928396
000310 15 39 7b bd 29 1f 71 3b e5 5e 4e bc 88 40 00 be
       -0.061333735 0.0036792255 -0.012595867 -0.12524617
000320 33 3c f7 bd 8e 57 ba be 02 d3 fe bd 10 e2 9d 3c
       -0.12072029 -0.36394924 -0.1244259 0.019272834
000330 cb 4e 26 3d 69 e1 1a 3e 0c 78 84 bd 29 27 a4 bd
       0.040602487 0.1512505 -0.064682096 -0.08015282
000340 08 9a d6 bd 78 7c 41 bd 39 8f 65 be 8e f2 94 ba
       -0.10478598 -0.047237843 -0.22417916 -0.0011363791
000350 9f b5 ea bd ed 64 ce bd d2 ad c1 3d fe 92 04 3e
       -0.11460423 -0.10077844 0.09456982 0.12946698
000360 f3 cd 3b 3d 00 62 d7 3c eb 2c 8b 3e 55 fd 23 3e
       0.045850705 0.026291847 0.27182707 0.16014607
000370 34 68 e9 bd 54 fe 45 3d 3d fc 76 3d 54 d2 5c bd
       -0.11396828 0.04833825 0.060299147 -0.053911522
000380 9e da d4 bb 6e cc a0 be d5 ec 17 3e fd 45 ca bd
       -0.0064957878 -0.31405967 0.14836438 -0.098766305
000390 6d bf a3 be bb e9 90 3d a5 13 17 3e 8e b8 ef 3e
       -0.31981984 0.070758305 0.14753588 0.46820492
0003a0 4d 3a 5a be ba 5c 59 bd c9 d2 3b be 4d 33 91 3b
       -0.21311302 -0.053066947 -0.18342127 0.0044311644
0003b0 a7 35 61 be c1 0e 82 3c ce 79 a5 3d a9 ba 5c 3d
       -0.21993123 0.015876176 0.08079873 0.05388895
0003c0 63 4c fa 3d 43 e2 19 3d 8f e6 59 3e 91 f2 57 be
       0.12221601 0.037569296 0.21279357 -0.21088625
0003d0 67 56 26 be 29 85 d3 bd 90 55 98 3c 60 0f df be
       -0.16243897 -0.10328133 0.018595487 -0.43566418
0003e0 c6 32 94 3e 5e 80 51 bc 6f 39 8e be 46 15 09 bd
       0.28944987 -0.012786953 -0.27778193 -0.033467554
0003f0 7d 99 08 3e ba dc db 3c c3 b8 0c 3c 9e ac ef 3d
       0.13339801 0.026838649 0.0085889725 0.11702846

signal_classifier.stem.2.0.bias f4 [32]
000000 42 20 74 3d 0f 27 18 bd 52 a1 07 be 3e 54 92 ba
       0.059601076 -0.037146624 -0.13245133 -0.0011164022
000010 97 87 af bd 21 d1 3c bb 2b 5b 47 bd 78 6f 13 3c
       -0.085707836 -0.0028811174 -0.04867093 0.008998744
000020 d4 7f 32 bd e0 38 a2 3d 37 b1 4e 3d 3f 7c cb bd
       -0.043578938 0.07921004 0.050461974 -0.099358074
000030 09 9d a2 bd 29 35 93 bb 88 f9 ad 3d 8a df 90 3d
       -0.07940108 -0.004492421 0.0849486 0.07073887
000040 12 bd 80 bd 1b ae 9a 3d 59 19 b8 3d 95 a3 1b bd
       -0.06286062 0.07552739 0.0898921 -0.0379978
000050 34 ee 75 3d ad 71 98 bc a7 60 1a 3d 1a b3 fa 3b
       0.06004162 -0.018608892 0.03768983 0.007650745
000060 cf 40 31 bd 81 74 09 be 0a 8c 89 3c c8 11 12 be
       -0.043274697 -0.13423349 0.016790409 -0.14264596
000070 fa 7f b3 3b 38 20 61 3d 2b f8 b9 bd e2 b8 07 be
       0.0054779025 0.054962367 -0.090805374 -0.13254121

signal_classifier.stem.2.1.weight f4 [32]
000000 fb 50 76 3f 8c f8 87 3f 31 a6 6e 3f 7a af 74 3f
       0.96217316 1.0622725 0.9322234 0.95580256
000010 3b bb 78 3f c9 d3 7e 3f d8 17 8e 3f 20 0b 85 3f
       0.9716069 0.9954191 1.1101027 1.039402
000020 a1 51 78 3f 76 38 60 3f c2 e2 8a 3f 78 41 8b 3f
       0.96999556 0.8758615 1.0850451 1.0879354
000030 27 a4 83 3f 60 09 7e 3f c4 f8 83 3f be 0e 7e 3f
       1.028447 0.99233055 1.0310292 0.99241245
000040 a2 08 7f 3f b1 56 75 3f 27 b4 84 3f 34 32 83 3f
       0.9962255 0.95835406 1.0367478 1.0249696
000050 0a 26 7b 3f 99 dc 84 3f 4b 42 77 3f 62 92 6f 3f
       0.9810492 1.0379821 0.9658553 0.9358274
000060 84 58 76 3f a1 11 81 3f 48 df 82 3f 91 42 6e 3f
       0.96228814 1.0083505 1.022439 0.9307032
000070 13 98 8a 3f c9 c7 75 3f 42 5e 8d 3f 68 78 8e 3f
       1.0827659 0.9600797 1.104439 1.1130495

signal_classifier.stem.2.1.bias f4 [32]
000000 ff 76 68 bc 9f a5 54 bc 08 94 4f bc 46 c0 4d b9
       -0.014188527 -0.01297894 -0.012669571 -0.00019621951
000010 83 15 a0 3c 01 2c 14 bd 78 5b 78 3d 1e 1b 86 3c
       0.019541508 -0.036174778 0.060634106 0.016370352
000020 6c ba 10 3d f2 16 44 3a 90 4b 24 3e 88 15 b2 3d
       0.035334036 0.0007480226 0.1604445 0.08695513
000030 cb e4 36 3d 1b 2a a6 3d f5 5c c2 3d 61 73 db bc
       0.044651788 0.081135 0.094903864 -0.026788415
000040 a6 39 ca 3d 1a 3d 3b bd 9d e1 f7 3d 64 fe 0e 3e
       0.09874277 -0.045712568 0.12103579 0.1396423
000050 f5 d6 72 bd 76 14 a0 ba 27 de 40 3c 9d 6e 57 bc
       -0.05928703 -0.0012213129 0.011771715 -0.013148931
000060 28 87 33 bd ed ed 81 3c 31 e5 3f 3d 95 30 0e 3d
       -0.043830067 0.015860522 0.046849433 0.0347143
000070 7d 2e 8c 3d 41 4f ed bd 24 16 8c 3d 1e de a7 3c
       0.068448044 -0.11587382 0.068401605 0.020491656

signal_classifier.stem.2.1.running_mean f4 [32]
000000 e8 ca b7 3d 5c 04 ca 3e 1a 7b 46 be 1b c1 f9 be
       0.08974248 0.3945645 -0.19382897 -0.4878014
000010 72 53 ac be 15 41 11 bf 32 a2 f6 be d0 26 99 3c
       -0.33657414 -0.5673993 -0.4817062 0.018695265
000020 46 f2 d5 bd 87 71 89 3e 72 4f 3e 3e 25 79 1d bf
       -0.104466006 0.26844427 0.18584993 -0.61512977
000030 e3 2c 4e bf f7 ac 38 bd 5e b2 ae 3e 10 7e 61 3e
       -0.8053724 -0.045086827 0.34120458 0.22020745
000040 f0 64 e5 3d f1 f2 0c 3e d1 aa 47 3e ec 1e 69 3d
       0.11200893 0.1376455 0.19498755 0.056914255
000050 bf 99 fd 3e 89 5a f6 3d 33 8c 31 3e 6e 03 91 be
       0.4953136 0.12028987 0.17338638 -0.2832293
000060 ed 3e af be 98 9d d6 bd 3a 24 5b 3e 59 ec 9c be
       -0.34227696 -0.10479277 0.21400538 -0.3064907
000070 d8 a1 1b 3d 1d 48 a3 3e 9c da b1 bb ff 8b 63 bd
       0.037996143 0.31890956 -0.0054276716 -0.055553433

signal_classifier.stem.2.1.running_var f4 [32]
000000 ba 47 94 3f 23 ff 99 3f d3 f4 14 3f da 60 82 3f
       1.1584389 1.2030987 0.5818607 1.0185807
000010 80 23 5c 3f 50 d5 2b 40 75 5e 8e 3f 4d e9 16 40
       0.8599167 2.6848946 1.1122576 2.3579895
000020 b2 a2 4e 3f 62 4d 8d 3f 7c 5b 5f 3f 03 29 8a 40
       0.80717003 1.103924 0.8724897 4.3175063
000030 1e 36 28 40 01 6f 69 3f 8f ef 54 3f 70 ec b7 3f
       2.628303 0.91185004 0.8317804 1.436903
000040 4b fd c6 3f b2 85 1e 3f 68 e4 64 3f 36 8d b4 3f
       1.5546049 0.6192275 0.8941102 1.4105594
000050 50 f8 c5 3f 9d 53 92 3f 18 bb 25 40 88 3a f1 3f
       1.5466404 1.1431767 2.5895443 1.8845987
000060 75 4e ad 3f 90 60 a5 3f 4a 9e 57 40 56 de 18 3f
       1.3539568 1.2920094 3.3690362 0.5971426
000070 38 c3 d0 3f e6 68 c4 3f df 9e 6b 40 dc 1e af 3f
       1.6309576 1.5344512 3.6815717 1.3681293

signal_classifier.body.0.layers1.0.weight f4 [16, 32, 1]
000000 67 81 ff 3d 51 03 1e 3f 44 19 fa 3d fb 15 ab 3e
       0.124758534 0.6172381 0.1221185 0.33415207
000010 5f b1 d3 3e 33 ed fc 3d 30 cf 75 3e b7 90 14 be
       0.4134626 0.1234993 0.24004817 -0.1450833
000020 b4 de 06 3e 55 c6 33 3e b2 12 85 be 15 fa 6a 3e
       0.13170892 0.17556126 -0.25990826 0.22946961
000030 39 7c a1 be 38 c6 b9 3e 27 e3 89 be 4f 6e 4e be
       -0.31540087 0.3628404 -0.26931116 -0.20159267
000040 e2 fa d8 3d fd d2 07 3d 77 f0 80 3e 22 88 57 be
       0.10594727 0.0331602 0.2518346 -0.21048024
000050 b7 64 ec 3d 90 e5 74 bf cb 42 01 3e fd 91 2d be
       0.11542647 -0.95662785 0.12623136 -0.16950221
000060 a8 fb 30 bc b7 e8 6b bd a2 27 00 be 5a fb fa 3d
       -0.010802187 -0.05759498 -0.12515119 0.12254973
000070 1c 0f 83 3d 7a 04 65 be 16 2d e1 3e 36 aa 1b be
       0.06399366 -0.22364989 0.4397971 -0.15201649
000080 7f db 5e 3d 3b b8 d1 3e 7c 03 8d be 82 7b ac 3d
       0.054408547 0.4096087 -0.2754172 0.08421995
000090 25 bd 08 3e 01 50 a5 3d 46 9f 9e bc d5 d9 14 3e
       0.13353403 0.080719 -0.019363057 0.14536221
0000a0 0e 77 de bd b2 52 b1 bd bb e7 dd 3c ab a6 e3 be
       -0.10862552 -0.08658351 0.027088037 -0.44463095
0000b0 d8 63 8e bd c0 7e e4 bd 9b 01 37 be e2 f4 fd 3c
       -0.069526374 -0.11156988 -0.17871706 0.031000558
0000c0 1d 01 6a 3e 86 1f 84 3d 53 eb 63 be b4 12 d4 bb
       0.22851987 0.06451325 -0.22257738 -0.006471956
0000d0 06 04 72 be 72 1f 8c 3e fd cf 9b 3e 48 23 12 bc
       -0.23634347 0.2736774 0.3043212 -0.0089195445
0000e0 dc 48 90 3e 6a 0c 75 bd 18 16 82 3e a3 18 19 3d
       0.28180587 -0.059826292 0.2540748 0.03737701
0000f0 b8 05 45 3e e7 0c dd bd ff 95 dc 3e 8b a7 b2 be
       0.19240463 -0.107934766 0.43083188 -0.3489345
000100 82 73 70 bd c7 03 86 be dd 74 2b 3e 10 bb 98 bb
       -0.058703907 -0.26174757 0.16743799 -0.0046609715
000110 60 16 d0 bd 74 e3 be 3d ef 32 f2 bb ee 6a f9 3d
       -0.10160518 0.09320727 -0.0073913257 0.12178598
000120 54 ae 4a 3d 1e 11 28 3e 9f 97 b9 bd 19 5a 2b be
       0.04948266 0.1641278 -0.090621226 -0.16733588
000130 da 29 a5 be 79 c3 5c 3e 7a 40 64 be 3e 5c 94 be
       -0.32258493 0.21558942 -0.22290221 -0.28976625
000140 79 ef 7f 3e 49 ae d2 3e e1 ff 20 3d 0f 7c 13 3f
       0.24993695 0.41148594 0.039306525 0.57611173
000150 80 6f 6f 3e 6c 91 57 3e 6a c1 0b bd b3 e9 be 3e
       0.23382378 0.21051568 -0.03412 0.37287673
000160 19 05 e1 bd ad 6c 14 be be 24 00 bd 55 3c 2a bd
       -0.109873004 -0.14494582 -0.03128504 -0.041561443
000170 98 a2 65 be 0f b6 d1 3e 73 88 cd 3d 6b 99 97 be
       -0.22425306 0.40959212 0.10035791 -0.29609236
000180 4f c3 04 3e 5c 00 b8 3e 66 2e d8 3d e5 af 24 bd
       0.1296513 0.35937774 0.10555725 -0.04020681
000190 a8 c0 b9 3e d6 58 00 3e 2f 0e 5b be db b1 0a 3f
       0.36279798 0.12533888 -0.2139213 0.54177636
0001a0 4a d2 0e bd 58 be 7e be 9e 20 10 3f 96 55 a4 3d
       -0.034868516 -0.24877298 0.5629977 0.08024137
0001b0 48 89 b1 bc dc 0a 0b 3e 03 aa 22 3e 68 bc 78 3e
       -0.021671906 0.13578361 0.15885167 0.24290621
0001c0 e1 fb 77 3e ec 6f 0b bd d9 63 7e 3d b8 78 d9 3e
       0.24217178 -0.034042284 0.06210694 0.42474914
0001d0 ff d5 e0 bc ca 13 08 3d 4a a9 6b be ca 13 a1 3b
       -0.027445791 0.033221997 -0.23013797 0.004915689
0001e0 7f e6 20 3e e5 ca 3f be 5c d1 79 be c2 c0 1c bf
       0.15712927 -0.18729742 -0.2439627 -0.61231625
0001f0 f5 25 90 3d 42 a3 95 3e 6c 9e a7 3e d5 b5 0a 3f
       0.0703849 0.29226118 0.32738054 0.54183704
000200 e6 8a 88 3e 9c 26 be 3e ae d2 de 3d 42 2d 0e bd
       0.2666847 0.37138832 0.10880028 -0.03471113
000210 de c7 f5 3e 6a ca d0 be 81 10 c6 be d7 f9 a7 bd
       0.4800405 -0.4077943 -0.38684466 -0.0820195
000220 9f 60 ae 3d 01 7c 1f 3e 86 07 01 bf d4 80 87 be
       0.08514523 0.15574647 -0.50402105 -0.26465476
000230 b6 07 34 be 80 5e ef 3d fa be c1 3d 71 6f b5 be
       -0.17581066 0.11687946 0.09460254 -0.35436586
000240 d3 92 db 3a 9c 4e 2c 3e 74 2c 82 3c bd a4 df bd
       0.0016752131 0.16826862 0.015890338 -0.10920093
000250 24 2e d7 be c2 4f 03 3f f4 80 9a bd 97 9b 81 3e
       -0.4202739 0.51293576 -0.07544127 0.25314018
000260 72 63 6e be 03 69 4a be 8e 97 90 be 12 7c 3f 3e
       -0.23280123 -0.19766621 -0.28240627 0.18699673
000270 26 65 5d be c2 26 fc 3e 7c bb 29 be c1 e7 93 bd
       -0.21620616 0.4924832 -0.16575426 -0.07221938
000280 78 67 ff 3c 68 e8 44 bd eb 73 2d 3e a8 09 67 3e
       0.031177267 -0.048073202 0.1693875 0.22562277
000290 31 a1 3a 3d ec bd f0 3e a2 7e 3e 3e 7e 72 01 be
       0.04556388 0.470199 0.18602994 -0.12641332
0002a0 45 58 4a be 1a bf cf 3d f9 e1 f6 3e df 2f 99 be
       -0.19760235 0.101438716 0.48219278 -0.29919335
0002b0 15 9e 10 3f d2 df b1 3d 46 e8 ef 3e 12 f1 e3 3d
       0.56491214 0.086852685 0.46856898 0.11129965
0002c0 67 eb 85 3c 5a 7c a7 be 1d a4 8b 3b 98 10 40 be
       0.0163476 -0.3271206 0.004261507 -0.1875633
0002d0 bd f0 ca 3c cf c6 26 3e ec 1a d1 bd 12 e3 05 be
       0.024772996 0.16286777 -0.10210213 -0.13074902
0002e0 90 86 4f be 1d b8 e0 bc 01 19 fd 3d ea 59 7e 3e
       -0.20266175 -0.027431542 0.12358285 0.24838987
0002f0 cf 82 f3 be c2 a9 ca bb ca 27 94 be 23 3b 8e be
       -0.47560737 -0.0061847875 -0.28936607 -0.27779493
000300 49 81 51 be 81 b7 40 be 67 45 06 3e 38 a3 8e 3e
       -0.20459475 -0.18820001 0.13112412 0.278589
000310 81 88 17 3d af b7 28 be a6 05 b7 be 3e f0 6b 3e
       0.036995415 -0.1647632 -0.35746497 0.23040864
000320 d8 a2 65 bc 2b 5b c9 bd 1f e2 0c 3e 7b df 24 be
       -0.014015876 -0.09831842 0.13758133 -0.16100876
000330 08 5b 9d bd 48 9a ca 3e cf b7 38 3e d5 7f e2 be
       -0.076833785 0.39570832 0.18038867 -0.44238153
000340 c9 42 97 bd f8 82 01 be 56 6d 1a 3f d4 23 75 bd
       -0.07385785 -0.12647617 0.60323083 -0.05984862
000350 4d b7 c6 bd e5 b9 e5 bd 8a ef 2e be 11 e5 35 3e
       -0.097029306 -0.11217097 -0.17083564 0.17763163
000360 3e b9 61 be d7 b3 79 be 67 98 8e bd b9 73 9e 3c
       -0.2204332 -0.2438501 -0.06962662 0.01934229
000370 ff 7a 79 be 67 e2 2f 3e bb a5 11 be 3c f1 99 3e
       -0.24363326 0.1717621 -0.14223377 0.3006686
000380 1f f9 08 3e f7 ae e2 be 98 03 90 be 9e fc 56 bd
       0.13376282 -0.44274113 -0.28127742 -0.05248701
000390 55 64 87 be c9 a6 26 3e e1 c7 bb 3e ea 53 87 3e
       -0.26443735 0.16274561 0.36675933 0.2643121
0003a0 c7 1d 94 3d e9 6f f3 bd ac 50 a2 3c 87 79 51 3e
       0.07232242 -0.118865795 0.019813858 0.20456515
0003b0 76 47 ca 3c 29 e1 06 be fb d9 8e be aa 25 23 be
       0.024692278 -0.1317183 -0.2790068 -0.15932336
0003c0 6d d6 e0 be 4e 2b fc 3d 71 d5 85 3c 4b a6 d4 bd
       -0.43913594 0.12312947 0.016337128 -0.1038328
0003d0 c1 ff 25 3e 5b 66 63 be ed e7 ca bc 22 54 a1 bd
       0.16210844 -0.22207014 -0.024768794 -0.07877375
0003e0 c1 06 19 3e 84 f4 81 be 5e 47 d9 3d 84 01 9d be
       0.14943983 -0.25381863 0.10609315 -0.3066522
0003f0 40 8c dd 3d 94 55 ed be 72 2d 87 3e 54 e3 33 be
       0.10817766 -0.46354353 0.2640186 -0.17567188

signal_classifier.body.0.layers1.0.bias f4 [16]
000000 73 f9 14 3e b8 f9 f7 bd bc 3c 44 bd 50 3d 31 3e
       0.14548282 -0.12108177 -0.047909483 0.17308545
000010 d5 43 db bd 83 53 f8 39 b7 90 58 bc fe 93 ef bc
       -0.10706297 0.00047364467 -0.013218096 -0.029245373
000020 9d d1 97 3b 0c 8d cb bd fe d3 30 3e 01 ed 23 3e
       0.004633142 -0.09939012 0.17268369 0.16008379
000030 5d 86 1f be 10 40 a6 bd 35 1c 27 be 82 5e 8f bd
       -0.155786 -0.08117688 -0.16319354 -0.07000448

signal_classifier.body.0.layers1.1.weight f4 [16]
000000 a0 10 88 3f b9 aa 84 3f a1 a0 6a 3f 49 7a 81 3f
       1.0630074 1.03646 0.9165135 1.0115443
000010 d6 a3 75 3f 6d ad 80 3f 64 8a 82 3f ee d7 89 3f
       0.9595312 1.0052925 1.0198483 1.0769022
000020 21 a1 87 3f d7 7e 7c 3f f4 d0 75 3f af 20 66 3f
       1.0596048 0.9863104 0.9602196 0.8989362
000030 9a 97 6b 3f dd f8 84 3f 38 f9 67 3f 7b 1b 7e 3f
       0.920282 1.0388447 0.9061465 0.9926068

signal_classifier.body.0.layers1.1.bias f4 [16]
000000 d8 62 ae 3d ea ae 35 3d 2b 52 1d 3d 35 2b ca 3c
       0.08514947 0.044356264 0.03840844 0.024678806
000010 ad bf 38 3d 3b e1 b9 3d 0b 03 cc bc ec d4 0c 3e
       0.04510467 0.090761624 -0.024903795 0.13753098
000020 bc ac 9f 3c 78 68 b7 3c 96 50 8d bd 1a 90 9e bd
       0.019491546 0.022388682 -0.06900136 -0.07742329
000030 7b 01 7e 3d 7b 26 08 3e f4 7a e1 3c 23 59 dc 3d
       0.06201313 0.13295929 0.027524449 0.10759189

signal_classifier.body.0.layers1.1.running_mean f4 [16]
000000 da 1a 77 3e 0f bc 5f bd 03 a5 3f 3d 91 e2 47 3f
       0.24131337 -0.054622706 0.046788227 0.7808009
000010 ab 05 c2 be 68 a9 f9 3d 01 60 09 bd 0d c6 4c be
       -0.3789495 0.12190515 -0.033538822 -0.19997425
000020 c5 c5 70 3d e6 8b d7 be 37 0d 19 be fc 09 5a 3e
       0.058782358 -0.42098922 -0.14946447 0.21292871
000030 41 ab 0e bf 38 3b 8e 3c 76 40 93 3e a8 a9 9d be
       -0.5573006 0.017362222 0.28760117 -0.307935

signal_classifier.body.0.layers1.1.running_var f4 [16]
000000 95 12 88 3f 20 16 3c 3f 93 c3 f5 3e cd 2f 3f 3f
       1.0630671 0.7347126 0.48000774 0.74682313
000010 e9 13 5f 3f ba 95 0c 3f 04 20 0a 3f ab c7 42 40
       0.87139755 0.54915965 0.539551 3.0434368
000020 6b 26 b5 3e 55 e8 69 3f 0f 04 d3 3e 04 fc 57 3f
       0.35380873 0.91370136 0.41214034 0.8436892
000030 2c fa 02 3f 05 05 40 3f 7c a8 34 3f 97 b1 05 3f
       0.5116298 0.7500766 0.70569587 0.52224106

signal_classifier.body.0.layers2.0.0.weight f4 [16, 32, 1]
000000 6b af 5e be 5a f0 93 3e d4 06 6b be 8e 95 13 bf
       -0.21746604 0.2889431 -0.22951823 -0.5765008
000010 ff 08 42 bd 79 f4 04 be 20 f0 32 3f 91 80 9f 3d
       -0.04737186 -0.12983884 0.6989765 0.07788194
000020 07 fa ec 3e 4e 4b 30 be 29 b0 8b 3e 38 b7 23 3e
       0.46284506 -0.17216226 0.27282837 0.15987861
000030 9c 17 2a be 8f 92 a1 bc 1c f6 49 3d 02 48 0c 3f
       -0.16610569 -0.019723205 0.049306974 0.54797375
000040 a4 98 6b bd 81 e1 55 3e 20 b2 31 3e af 0a 1b be
       -0.057518616 0.20886804 0.17353106 -0.15140794
000050 b5 97 65 3c 61 2d ff 3e 67 6d 27 3d 8c a3 9c be
       0.014013221 0.4983931 0.04087582 -0.30593526
000060 fc 28 33 bf 3e bb 26 be 00 0f d6 be 9c bf 10 bd
       -0.6998441 -0.16282365 -0.4180832 -0.035338983
000070 08 da 52 be c9 b1 fc 3d 4e 31 68 3e e8 dd 6f 3e
       -0.20590985 0.12338597 0.22675058 0.23424494
000080 c4 0f 61 be 2d 72 cf 3d 90 8b c7 3e 26 1d 82 3d
       -0.2197867 0.10129199 0.38973665 0.06353216
000090 90 8a e4 3e ba de a7 bb 40 f5 e8 bd 57 b1 c8 3d
       0.44636965 -0.0051229866 -0.11374903 0.0979945
0000a0 2c da b7 be cd cf 91 be 77 70 47 3e 0c 66 ba 3d
       -0.3590864 -0.28478852 0.19476496 0.09101495
0000b0 ce e6 dd be 5a 0e 98 be a1 da f5 be 9a c9 10 3e
       -0.43340153 -0.2969845 -0.48018363 0.14139405
0000c0 0f f7 7b 3e da f2 aa bd de a5 de 3c 27 5b 89 bd
       0.24605964 -0.083471015 0.027178701 -0.06706839
0000d0 b9 72 71 3d c7 fe c9 3c ae 53 f1 bc e1 4d d0 be
       0.0589473 0.02465762 -0.029458847 -0.40684417
0000e0 56 a9 02 3e f6 40 03 bf 8c 02 bf 3e ea 98 42 3d
       0.12759909 -0.51271 0.3730663 0.04750911
0000f0 28 2c f4 3c a3 be bc be c5 13 2a be 71 71 eb 3b
       0.029806212 -0.36864194 -0.16609104 0.007185154
000100 24 29 c6 bd ee 58 09 be 29 58 35 be 28 2d 85 3e
       -0.09675816 -0.1341283 -0.17709412 0.26011014
000110 9a 9a a2 3d 3c bf 1e 3d 69 c8 c9 3d 0f e8 62 3e
       0.07939644 0.038756594 0.09852678 0.22158836
000120 31 09 aa 3e 0b 4f 09 bf c9 d6 a0 bd da 93 51 3e
       0.33210137 -0.53636235 -0.07853467 0.20466557
000130 a7 18 ca bc 76 0a 17 3e 68 2a 15 be 1c 55 aa bd
       -0.024669958 0.14750084 -0.14566958 -0.083170146
000140 4b 87 fc bd af f2 16 3d 65 14 1c be 6a 4b a6 be
       -0.123304926 0.036852535 -0.15242155 -0.3247941
000150 d5 21 d1 3d 47 6f 2e 3e c9 c9 a2 be 3d 34 c4 3e
       0.10211531 0.17034636 -0.31794575 0.38321105
000160 d4 ef 69 be b3 8e f3 3d 55 ad 5a bd 35 bd 45 3d
       -0.22845393 0.11892452 -0.05338796 0.048276145
000170 27 43 6d be fe 1c 8a be ad 70 e9 bd 30 56 38 3f
       -0.23170148 -0.26975244 -0.11398444 0.7200651
000180 1d 54 01 bf 8b aa 0b bf 33 77 47 3e c9 b8 9d be
       -0.5051897 -0.545571 0.19479065 -0.30805042
000190 b2 e0 67 be 39 83 28 be 45 1f 05 3c 81 94 cf 3e
       -0.22644308 -0.16456307 0.008125131 0.40542987
0001a0 8d f3 88 3e b8 74 69 3e 36 4f 38 be 25 92 12 be
       0.26748314 0.22798431 -0.17998967 -0.14313562
0001b0 36 3b 1a 3e 34 92 b1 3b f4 f8 38 3d e1 df 7d 3e
       0.1506165 0.00541904 0.045159295 0.24792434
0001c0 f3 35 60 3d 93 b9 2a be 09 a5 a5 bc 19 13 c2 be
       0.05473895 -0.16672353 -0.020220296 -0.37905195
0001d0 0e a8 a3 3e 90 80 85 bc d9 8c 2c 3e 38 c9 ff 3d
       0.31964153 -0.016296655 0.16850604 0.12489551
0001e0 ae 12 78 3e 7b 28 2e 3f f0 7e 61 3e 5d d7 94 be
       0.24225876 0.6803052 0.22021079 -0.2907056
0001f0 61 a1 25 be 7b 5d 8a bd 17 4a 27 be 32 41 a7 3c
       -0.16174842 -0.06756111 -0.16336857 0.02041683
000200 c8 f0 26 3e c0 ad 1e be 87 cc 6b 3d 4d a5 42 be
       0.16302788 -0.15495968 0.0575681 -0.1900837
000210 4a f8 7c 3e ff 0d d5 be e2 d7 27 bd db f7 81 be
       0.2470409 -0.4161224 -0.040977366 -0.2538441
000220 ec 2c 35 3e 89 7f df 3d 6b cf 68 bc c2 b1 89 3d
       0.17692918 0.10912997 -0.014209609 0.06723358
000230 7b b1 43 bf 53 3b 4d be 26 ee 92 be 46 c7 93 bd
       -0.7644269 -0.20042162 -0.28697318 -0.07215743
000240 f6 7b 36 3e aa a3 ba 3d 0b 79 82 3e 1a 07 d3 3d
       0.17820725 0.09113248 0.25482973 0.10304089
000250 9d 16 dd 3b 93 d3 8f be 5e 4c cd 3e b6 95 31 3e
       0.0067470805 -0.28091106 0.40097326 0.17342266
000260 31 70 6c 3e db 8e 03 3e 49 43 10 be 1e 14 5c 3a
       0.23089673 0.12847464 -0.14088167 0.00083953317
000270 83 91 30 bf ad 90 3a bc d1 97 f0 3d 38 21 a7 3e
       -0.68972033 -0.011387032 0.11747707 0.3264253
000280 3d 13 fb 3d b8 5f 92 bd bd 99 3d 3d 02 72 50 3d
       0.12259529 -0.07147163 0.046289194 0.050889976
000290 4b c9 a3 3e 24 ff 02 be c2 06 1a be f4 93 b0 3d
       0.31989512 -0.12792641 -0.1504164 0.0862197
0002a0 03 ec 5b bc 98 0e 4b 3e aa 91 00 bf ec 13 05 bf
       -0.013422969 0.19829786 -0.50222266 -0.51983523
0002b0 6d 92 5a 3e be 40 e4 3e 86 80 c6 3e ca 4b 1c bf
       0.2134492 0.44580644 0.3876993 -0.61053145
0002c0 6a aa 03 bd 48 89 87 bb c0 d0 d5 3b 13 59 e9 3e
       -0.03214494 -0.0041362382 0.006525129 0.4557577
0002d0 85 12 b1 bd 82 e2 58 3f 21 28 89 be 36 70 a9 3e
       -0.086461104 0.84720623 -0.26788428 0.33093423
0002e0 63 16 81 3e 88 8e 7c be 3e 1b 7a 3d 76 fd 90 be
       0.25212392 -0.24663746 0.061061136 -0.28318375
0002f0 41 7a ac be be cd ae 3d c0 8a aa be 62 e1 85 3e
       -0.33687022 0.08535336 -0.33308983 0.26148516
000300 c2 1f c4 3c b6 38 01 bd c2 dc 8f bd 6e 26 d2 be
       0.023940925 -0.031548224 -0.07024528 -0.41044945
000310 6d e9 a7 be e6 89 12 3f 01 eb 7a be a2 14 9b 3e
       -0.32795277 0.57241666 -0.2450371 0.3028918
000320 6e 7b 9a bc 0f 12 c9 bc 6d 0d ed bd dc ad a6 be
       -0.018857684 -0.024544744 -0.115748264 -0.3255452
000330 53 12 34 3e ad 44 81 3e bc 34 14 3f 04 ce db 3e
       0.17585115 0.25247708 0.57892966 0.42930615
000340 61 92 20 be 6d ff 05 3e cd 0f 12 3e cd ee 27 be
       -0.15680839 0.13085718 0.1426384 -0.16399689
000350 c6 65 ca 3d ec 4c 9b 3e d5 41 2c bc 95 6c 0d 3d
       0.09882693 0.30332124 -0.010513742 0.03452738
000360 2b 2d a2 bc 56 1c e2 3c 5d 0e ed 3c dd 8c bb 3d
       -0.019796928 0.027601402 0.028937513 0.09157727
000370 3c 26 5f be 7b 88 01 3f 14 17 94 be bd aa fd bb
       -0.21791929 0.5059888 -0.28923857 -0.007741301
000380 bf fb 2d be 4d 8c 12 bd 19 56 40 bd 81 60 f5 be
       -0.16990565 -0.035778333 -0.04695711 -0.4792519
000390 c5 93 84 3d 15 fa 18 be 27 35 25 bf 80 f6 65 bd
       0.06473497 -0.14939149 -0.6453423 -0.056143284
0003a0 36 df b3 be c2 d8 25 3e 92 5d bc 3d dd 50 c7 be
       -0.35131234 0.16195968 0.091975346 -0.3892888
0003b0 d1 fa 5c be cd 6b 20 bf 25 22 59 bc f3 56 fa 3d
       -0.21580054 -0.6266449 -0.01325277 0.122236155
0003c0 a9 89 1c 3d 79 cc 73 3e 95 1e 5d be 93 23 00 3f
       0.03821722 0.23808469 -0.21593697 0.5005428
0003d0 2b 9d d5 bc 66 38 b8 be aa b0 a8 bd 69 a5 9b be
       -0.02607592 -0.3598053 -0.08236821 -0.30399635
0003e0 5b 28 8b bc c0 75 cf 3d da 11 34 be 30 ea 04 3e
       -0.016987016 0.10129881 -0.17584935 0.1297996
0003f0 7a b3 8f 3e 7b 7c ee 3c 92 4b e4 bd 95 b7 0c 3e
       0.28066617 0.029112091 -0.111472264 0.13741906

signal_classifier.body.0.layers2.0.0.bias f4 [16]
000000 17 de 15 bc 0c 61 88 3d 0d 3f 77 3e 3f 88 4f bd
       -0.009147189 0.06659135 0.24145146 -0.050667044
000010 35 73 0f 3e 5d 07 11 3e ad 7b 99 3c 23 40 11 3e
       0.14008792 0.14162965 0.018735731 0.14184622
000020 6a 0d 26 bc 44 55 18 3d b6 b4 c5 3c 83 2d 72 be
       -0.010135034 0.03719069 0.024134021 -0.23650174
000030 9b fa 14 be 7f 53 01 be 56 f6 41 be 50 f6 5a bc
       -0.14548723 -0.12629507 -0.18941626 -0.01336439
