experiments/weights/m202_MultiOutput_20230518_114418/best_uar-2.pth (torch, 383971 bytes, 138 tensors)

signal_classifier.stem.0.0.weight f4 [32, 1, 11]
0.5925679 -0.0032834595 -0.092005886 0.17382666 0.59046024 -0.39288095 -0.31984046 -0.35462913
-0.59126985 -0.15729268 0.48656335 0.71088636 0.0673165 0.15586466 -0.03488897 -0.23870495
0.21477723 -0.40321523 -0.5639308 -0.3316736 -0.048805073 0.5302578 0.9988199 0.71666235
0.0107933795 -0.28033796 0.5537345 -0.19771667 -0.47079477 -0.12018624 0.38599974 0.0698471
0.20499106 0.25966445 -0.34064123 0.7792593 0.15942277 -0.1992772 0.64722097 -0.40588915
-0.18332204 -0.23977473 -0.22209944 0.25244766 -0.3009748 -0.26855987 0.20728885 0.067205556
-0.24558617 0.18312052 -0.243928 -0.36355627 0.23326217 -0.2941835 0.9089385 -0.5123802
0.33152542 -0.040281147 0.11567774 -0.6942334 -0.07986137 0.10675382 0.37060565 -0.23741913
0.22345605 0.081429586 0.058513384 -0.43929568 -0.32171237 -0.545755 0.8979891 -0.2784723
0.23602617 0.21218781 -0.2770715 0.30508804 0.6562433 -0.14111008 0.9491735 -0.13220568
-0.79343426 -0.5391121 0.2988281 0.009524161 -0.10608627 -0.06631139 -0.8296384 0.25714022
0.2562811 0.5596677 -0.6051175 -0.27343914 0.26858598 -0.3275587 -0.18700854 0.2055978
-0.03306126 -0.6049282 -0.90101635 0.084599435 0.14005913 -0.045133803 -0.28685406 0.22135481
-0.18502472 -0.28246668 -0.5141703 0.3655619 0.62186015 0.7816881 0.4206353 -0.16903806
-0.4134027 -0.01147909 -0.17969693 -0.048024334 -0.67494833 0.09341211 -0.080513254 0.103934765
-0.4881701 0.32956976 -0.5018895 0.3303419 -0.015322384 0.163031 0.24948014 0.29557207
-0.85323656 0.31984773 0.983931 0.4390944 0.63641626 0.49594247 0.19099548 0.6661303
-0.71688396 0.7022161 0.40237358 0.28141242 0.13272557 -0.3697152 0.012432584 0.1953493
0.16714458 0.63866985 0.33905968 -0.52875346 0.030882524 -0.01951732 1.0954531 -0.42762056
0.08602254 -0.3106811 -0.046204023 -0.63948244 -0.38207313 0.19290547 -0.1479077 1.1988723
-0.2547979 -0.13368995 -0.35656413 -0.74203855 -0.33990774 0.39533377 -0.4328308 0.22374807
0.968242 -0.154223 0.18636438 0.19598383 0.40214223 0.23917922 0.50355524 -0.16587725
-0.10142472 0.033462606 -0.43909115 -0.38809502 -0.4123836 0.25443226 -0.36312458 -0.22085601
0.29592153 -0.3144368 0.26339972 0.7366087 -0.0752864 0.69824123 -0.39920393 -0.087327816
-0.10760948 0.25123292 0.08432517 0.2322192 -0.24058844 0.15460356 0.45156416 0.19955805
0.43793446 0.30973744 0.45520037 0.25458717 -0.21053356 -0.23073015 0.1695465 0.07896356
-0.2152862 -0.30651075 -0.27146375 -0.07554821 0.027712105 0.20071883 0.16317908 0.56170726
-0.008068691 0.10613994 0.12980264 0.30061162 -0.10977623 0.22530939 0.074179776 0.2967735
-0.18426478 0.50335985 0.27424297 0.031639673 -0.07842743 0.21398358 0.48852316 -0.30506375
0.034136727 0.3741377 -0.29438287 -0.28013983 -0.25586435 -0.18883306 -0.017447604 0.4816922
0.18606941 0.050921753 0.07254288 -0.042288497 -0.7784236 -1.0803012 -0.10890125 0.33834147
-0.3709466 0.39904255 -0.36345142 0.38229835 0.47413427 0.25795266 -0.21487111 -0.16515653
00000000: 88b2 173f 4f2f 57bb 956d bcbd 9eff 313e
00000010: 6728 173f b127 c9be 21c2 a3be f391 b5be
00000020: 765d 17bf 5511 21be d51e f93e a6fc 353f
00000030: 3cdd 893d fc9a 1f3e bde7 0ebd 126f 74be
00000040: 90ee 5b3e 3a72 cebe c55d 10bf 1fd1 a9be
00000050: d4e7 47bd fabe 073f a9b2 7f3f 2f77 373f
00000060: b7d6 303c 7588 8fbe 8bc1 0d3f 3d76 4abe
00000070: 030c f1be 3424 f6bd c2a1 c53e ff0b 8f3d
00000080: 2de9 513e bdf2 843e 8768 aebe 8a7d 473f
00000090: b93f 233e 530f 4cbe 46b0 253f b4d0 cfbe
000000a0: c6b8 3bbe 8287 75be 096e 63be d240 813e
000000b0: 5e19 9abe ae80 89be 8743 543e 11a3 893d
000000c0: f17a 7bbe f283 3b3e 43c8 79be 0c24 babe
000000d0: 47dc 6e3e 389f 96be 32b0 683f 592b 03bf
000000e0: b3bd a93e d8fd 24bd 73e8 ec3d 48b9 31bf
000000f0: 5c8e a3bd bfa1 da3d 06c0 bd3e 001e 73be
00000100: aad1 643e 8ec4 a63d bbab 6f3d 5deb e0be
00000110: 7cb7 a4be 9ab6 0bbf 9de2 653f ec93 8ebe
00000120: d8b0 713e c347 593e 51dc 8dbe 8034 9c3e
00000130: 90ff 273f 297f 10be 09fd 723f ed60 07be
00000140: 821e 4bbf 4003 0abf ffff 983e 3a0b 1c3c
00000150: c243 d9bd 44ce 87bd 2f63 54bf e2a7 833e
00000160: 4737 833e 6246 0f3f fbe8 1abf 3700 8cbe
00000170: 1a84 893e c6b5 a7be 2b7f 3fbe 3b88 523e
00000180: 3e6b 07bd 93dc 1abf 02a9 66bf 7842 ad3d
00000190: a96b 0f3e 39de 38bd 89de 92be d6aa 623e
000001a0: 1f77 3dbe 799f 90be aaa0 03bf ee2a bb3e
000001b0: 3a32 1f3f b61c 483f 835d d73e 5018 2dbe
000001c0: 85a9 d3be cb12 3cbc 7902 38be 2ab5 44bd
000001d0: 6ac9 2cbf d94e bf3d 22e4 a4bd c0db d43d
000001e0: 6ef1 f9be 5ebd a83e d57b 00bf 9322 a93e
000001f0: bd0a 7bbc 99f1 263e b977 7f3e 3955 973e
00000200: b66d 5abf 15c3 a33e e7e2 7b3f fbd0 e03e
00000210: 2dec 223f 2cec fd3e 5294 433e 8487 2a3f
00000220: b585 37bf 6fc4 333f e903 ce3e 4a15 903e
00000230: 36e9 073e 504b bdbe 09b2 4b3c a609 483e
00000240: f327 2b3e de7f 233f 3b99 ad3e 635c 07bf
00000250: 59fd fc3c c9e2 9fbc cf37 8c3f 15f1 dabe
00000260: 962c b03d 9811 9fbe 6e40 3dbd 1fb5 23bf
00000270: 179f c3be 0389 453e 1e75 17be a674 993f
00000280: df74 82be 05e6 08be 938f b6be 3df6 3dbf
00000290: 6308 aebe 3069 ca3e 009c ddbe 371e 653e
000002a0: b5de 773f a2ec 1dbe 4ed6 3e3e fcaf 483e
000002b0: 96e5 cd3e 66eb 743e ffe8 003f badb 29be
000002c0: c3b7 cfbd 1610 093d 8ed0 e0be 64b4 c6be
000002d0: f123 d3be f244 823e 77eb b9be 1428 62be
000002e0: 0783 973e dcfd a0be 54dc 863e 6392 3c3f
000002f0: c22f 9abd f0bf 323f 7564 ccbe edd8 b2bd
00000300: 5c62 dcbd 9aa1 803e adb2 ac3d dfca 6d3e
00000310: d15c 76be 6550 1e3e 6b33 e73e f258 4c3e
00000320: f238 e03e e895 9e3e 0610 e93e 4059 823e
00000330: 1c96 57be 8644 6cbe 999d 2d3e a6b7 a13d
00000340: fc73 5cbe faee 9cbe 4cfd 8abe 05b9 9abd
00000350: 7f04 e33c 3d89 4d3e 6b18 273e 0ccc 0f3f
00000360: 8b32 04bc e65f d93d fcea 043e c4e9 993e
00000370: 5cd2 e0bd 81b7 663e 91eb 973d b2f2 973e
00000380: e8af 3cbe 31dc 003f 9369 8c3e 9a98 013d
00000390: 8f9e a0bd 831e 5b3e b51f fa3e 5131 9cbe
000003a0: f4d2 0b3d fa8e bf3e 5ab9 96be 7d6e 8fbe
000003b0: a700 83be 745d 41be 47ee 8ebc 5ca0 f63e
000003c0: fb88 3e3e 5493 503d 5d91 943d b436 2dbd
000003d0: c546 47bf 4f47 8abf 9e07 dfbd 183b ad3e
000003e0: b6ec bdbe 4e4f cc3e 4e16 babe 9cbc c33e
000003f0: bac1 f23e 5f12 843e 2c07 5cbe cb1e 29be

signal_classifier.stem.0.0.bias f4 [32]
0.26308107 -0.024060918 -0.2864842 0.045810767 0.19948305 0.002043926 -0.30338305 -0.18082705
0.006857373 -0.22615898 0.013529591 -0.1553899 0.19450428 0.14686142 -0.19706342 0.16735816
-0.23063444 -0.19552563 -0.27925134 -0.1769615 0.09185638 0.07198901 0.26643506 0.06434634
-0.057627913 -0.15051642 -0.24524987 0.22292675 0.19854718 0.2025684 -0.29898512 -0.059303146
00000000: 90b2 863e 671b c5bc 0fae 92be 12a4 3b3d
00000010: 4945 4c3e 63f3 053b 0655 9bbe ba2a 39be
00000020: d0b3 e03b 3896 67be 38ab 5d3c 881e 1fbe
00000030: 212c 473e d762 163e feca 49be f05f 2b3e
00000040: 6f2b 6cbe df37 48be 08fa 8ebe 6535 35be
00000050: 331f bc3d f96e 933d 2d6a 883e 04c8 833d
00000060: 3f0b 6cbd fa20 1abe c822 7bbe e946 643e
00000070: f44f 4b3e 176e 4f3e 9414 99be dbe7 72bd

signal_classifier.stem.0.1.weight f4 [32]
1.028262 0.98558825 0.9910174 0.97984594 0.98258424 1.0161928 0.96810794 0.9759722
1.0008581 0.99334246 1.0173169 1.0041925 1.0171051 1.0143776 0.9924363 1.0117095
1.0210203 1.0053898 1.0051973 1.006564 1.0056021 1.0165722 0.966009 1.0267512
0.9833404 1.0081438 0.9845387 0.99743545 0.9785717 1.0096102 0.98587227 1.0269591
00000000: 179e 833f 834f 7c3f 51b3 7d3f 2fd7 7a3f
00000010: a48a 7b3f 9b12 823f ecd5 773f 50d9 793f
00000020: 1e1c 803f b14b 7e3f 7137 823f 6189 803f
00000030: 8030 823f 20d7 813f 4e10 7e3f b27f 813f
00000040: cbb0 823f 9db0 803f 4eaa 803f 17d7 803f
00000050: 92b7 803f 0a1f 823f 5e4c 773f 956c 833f
00000060: 32bc 7b3f db0a 813f ba0a 7c3f ee57 7f3f
00000070: ad83 7a3f e83a 813f 2062 7c3f 6573 833f

signal_classifier.stem.0.1.bias f4 [32]
0.01112109 -0.00450271 -0.00771648 0.026287716 -0.00035794894 -0.0014462349 0.045138698 -0.0108391885
-0.018880716 -0.0016931669 -0.012639008 0.012375413 -0.012131934 0.025516158 0.0010227589 0.0051693395
-0.0048069316 0.0064581274 0.0022067928 0.005957382 0.021756565 -0.040908642 -0.0043929224 0.0022405772
0.0019286943 -0.006064474 -0.030377902 -0.026953783 0.0011958041 -0.034733284 0.023983635 0.008556455
00000000: 3b35 363c 788b 93bb 87da fcbb 5659 d73c
00000010: 18ab bbb9 978f bdba 5be3 383d da96 31bc
00000020: bbab 9abc 41ed ddba d813 4fbc 3fc2 4a3c
00000030: 05c5 46bc 4307 d13c 180e 863a 9063 a93b
00000040: 7783 9dbb b39e d33b d79f 103b 2436 c33b
00000050: d33a b23c d28f 27bd 81f2 8fbb a6d6 123b
00000060: 3ecc fc3a 7fb8 c6bb 14db f8bc 2ece dcbc
00000070: 87bc 9c3a 7d44 0ebd 5479 c43c 6030 0c3c

signal_classifier.stem.0.1.running_mean f4 [32]
0.26302487 -0.02203675 -0.2843554 0.045009132 0.20114239 0.000598014 -0.30609852 -0.17834836
0.0066181337 -0.22783719 0.015437017 -0.15658061 0.1952357 0.14631012 -0.19706097 0.16614178
-0.22807975 -0.1946767 -0.28015077 -0.18049954 0.09446706 0.073859766 0.26573592 0.06534214
-0.055004243 -0.14969085 -0.24688429 0.22243458 0.19990234 0.20466243 -0.3004468 -0.0608326
00000000: 32ab 863e 6a86 b4bc 0897 91be 7f5b 383d
00000010: 45f8 4d3e 0ac4 1c3a f2b8 9cbe f4a0 36be
00000020: eedc d83b 274e 69be 8beb 7c3c ab56 20be
00000030: deeb 473e 52d2 153e 5aca 49be 1221 2a3e
00000040: bd8d 69be 5459 47be ec6f 8fbe dfd4 38be
00000050: f277 c13d ca43 973d 8a0e 883e 1ad2 853d
00000060: 214c 61bd 8f48 19be 3ccf 7cbe e4c5 633e
00000070: 33b3 4c3e 0793 513e 2ad4 99be 9b2b 79bd

signal_classifier.stem.0.1.running_var f4 [32]
0.22759362 0.16870439 0.2977937 0.19722259 0.17601661 0.1427055 0.29125327 0.3128626
0.2909686 0.1917439 0.14411859 0.31326607 0.26228893 0.28232682 0.32642478 0.2220346
0.111382395 0.16632728 0.11015617 0.080643415 0.091258615 0.10483198 0.32401645 0.32658547
0.17834684 0.062839374 0.20565844 0.5746981 0.32330504 0.14653558 0.640439 0.21795847
00000000: 4d0e 693e d8c0 2c3e 6a78 983e b8f4 493e
00000010: b33d 343e 6421 123e 261f 953e 872f a03e
00000020: d6f9 943e 8358 443e d393 133e 6964 a03e
00000030: bc4a 863e 248d 903e 2621 a73e 0a5d 633e
00000040: 741c e43d b351 2a3e 8f99 e13d 6028 a53d
00000050: cce5 ba3d 26b2 d63d 7ce5 a53e 3636 a73e
00000060: 8ea0 363e eeb1 803d 2098 523e 6a1f 133f
00000070: 3d88 a53e 6c0d 163e cff3 233f 8130 5f3e

signal_classifier.stem.1.0.weight f4 [32, 32, 3]
-0.022561971 0.09871232 0.1561809 0.040224187 -0.025972908 -0.013877313 -0.06746491 0.14467719
0.14883421 -0.2916514 0.005581052 0.10532898 0.13697256 -0.05837541 0.17655373 -0.027231645
-0.01524125 0.007341572 0.07165112 -0.106651425 -0.180127 -0.122498594 0.085236385 0.1687733
0.052291363 0.029674143 -0.05207556 0.23641881 -0.14105469 -0.040613525 -0.049866945 -0.11318904
0.13001844 0.15768652 -0.011591192 -0.07277009 -0.28442422 0.13663031 -0.1393429 0.0740228
0.026841307 0.07863224 -0.18527292 -0.008902962 0.0012899489 0.2409707 0.29102194 0.22371872
0.024006274 -0.123480685 0.13799542 0.2304606 0.027284484 -0.11241161 -0.2868232 -0.1384007
0.23152785 0.08609388 0.19346416 -0.05110413 -0.16528596 -0.1550448 -0.42041802 -0.1269628
0.18403126 0.004134699 0.1293498 0.09826901 0.011731012 0.1725188 0.1734627 0.13084637
-0.34722155 0.2986103 -0.03801435 0.06533628 0.1906229 -0.14239466 -0.116480134 -0.02820455
0.0101282075 -0.06572814 0.10607469 -0.13361251 -0.073700905 -0.012563435 -0.06497922 0.21442771
0.20496738 -0.21491657 -0.086879134 0.12865035 -0.115411066 0.0037831145 0.098612554 -0.13860324
-0.13180089 0.24662985 0.037858356 -0.23967639 -0.025504813 0.106093444 -0.011191941 -0.14161852
0.09004366 -0.22302173 0.116401 0.08425792 -0.08881452 -0.10735544 -0.008379807 0.06170762
-0.1288535 -0.06301362 -0.10355308 0.062165383 0.045901407 0.40094495 -0.110905945 -0.20740773
-0.105372295 -0.22723714 0.26502445 0.091306716 -0.020846829 0.11216079 0.104384616 -0.15667471
0.06443119 -0.22879669 0.085067295 -0.10566772 0.03910625 0.06825837 0.05232165 0.07835582
-0.10061819 0.22320698 0.119974315 -0.083939105 0.039760623 0.07532301 0.039363697 -0.118408285
-0.19851463 0.048717707 0.07246039 -0.050462414 -0.08189195 0.43169445 -0.05478609 -0.3140206
0.21479586 0.24443622 -0.14419238 -0.12805212 0.01654967 0.11987897 0.012918197 0.08633088
-0.04388023 -0.11640886 0.019286795 0.043130707 -0.030775413 0.17844673 -0.016269125 0.120046236
-0.067130886 -0.015901517 0.2222361 0.1955649 -0.22673874 -0.23702855 0.17733315 0.006235758
-0.0015916973 0.111016765 -0.16347797 0.19995049 -0.15561208 0.096916795 0.16864528 -0.20317878
0.01963898 -0.05922965 -0.21871068 -0.091018245 -0.18093918 0.14258425 0.11753095 0.008113624
-0.2319102 -0.065293476 0.017091157 0.021695292 -0.12542832 -0.0873331 -0.038528606 -0.060521316
0.13055925 -0.0049803513 -0.24423124 -0.20342161 0.11765494 0.023534548 -0.07243682 -0.12394499
0.15126823 0.16351669 -0.32438055 0.16700211 -0.08504858 0.072856225 0.06294102 -0.17319357
0.15073638 0.19340323 -0.1838035 0.07769686 0.23155601 0.2451832 -0.19015989 -0.38311175
-0.0012678404 0.08022842 -0.14295709 0.19798797 0.09138454 0.08107682 -0.063744515 -0.028854355
-0.14061083 0.27763468 -0.14483668 -0.09324968 0.17988084 -0.14243577 -0.104185 0.15543614
-0.14645244 0.10508971 0.075796664 -0.025622817 0.053259455 -0.27269804 0.07037352 -0.01955119
0.06298075 0.17985253 -0.055641636 0.17194112 -0.019852815 -0.055285163 -0.031187821 -0.067087226
00000000: e2d3 b8bc af29 ca3d e3ed 1f3e 1ec2 243d
00000010: 23c5 d4bc ab5d 63bc 0b2b 8abd 4226 143e
00000020: ff67 183e 5553 95be 42e1 b63b b8b6 d73d
00000030: 8942 0c3e 0e1b 6fbd 80ca 343e e614 dfbc
00000040: 70b6 79bc 9291 f03b d3bd 923d 106c dabd
00000050: 3673 38be 8be0 fabd 6a90 ae3d e8d2 2c3e
00000060: 782f 563d 3017 f33c 2f4d 55bd c617 723e
00000070: a470 10be 5e5a 26bd 4841 4cbd a8cf e7bd
00000080: 8e23 053e 9378 213e fce8 3dbc 7c08 95bd
00000090: 0da0 91be d1e8 0b3e e8af 0ebe 4499 973d
000000a0: 4de2 db3c f109 a13d 2fb8 3dbe bbdd 11bc
000000b0: 8113 a93a 06c1 763e d400 953e 8516 653e
000000c0: cea8 c43c 71e3 fcbd ac4e 0d3e ddfd 6b3e
000000d0: b683 df3c 0f38 e6bd 7eda 92be eab8 0dbe
000000e0: a315 6d3e fd51 b03d 781b 463e 9052 51bd
000000f0: b940 29be 10c4 1ebe 0841 d7be 8902 02be
00000100: b172 3c3e 5e7c 873b 4674 043e 4341 c93d
00000110: 6e33 403c c5a8 303e 35a0 313e 97fc 053e
00000120: 06c7 b1be 73e3 983e efb4 1bbd 07cf 853d
00000130: a632 433e e8cf 11be 238d eebd 3a0d e7bc
00000140: c8f0 253c 7a9c 86bd b03d d93d b8d1 08be
00000150: 80f0 96bd ded6 4dbc d313 85bd f092 5b3e
00000160: f8e2 513e 1713 5cbe b0ed b1bd ebbc 033e
00000170: a35c ecbd 21ee 773b 61f5 c93d 02ee 0dbe
00000180: d0f6 06be 898c 7c3e 5d11 1b3d ba6d 75be
00000190: 78ef d0bc 8547 d93d 675e 37bc 7204 11be
000001a0: cf68 b83d cf5f 64be a663 ee3d 6b8f ac3d
000001b0: 63e4 b5bd 2bdd dbbd 754b 09bc 21c1 7c3d
000001c0: 2cf2 03be 490d 81bd a313 d4bd 21a1 7e3d
000001d0: 1d03 3c3d a848 cd3e a822 e3bd b162 54be
000001e0: 6ecd d7bd dab0 68be 49b1 873e 04ff ba3d
000001f0: f8c6 aabc 8eb4 e53d 9ac7 d53d 566f 20be
00000200: 80f4 833d ae49 6abe c337 ae3d 5168 d8bd
00000210: e02d 203d 0bcb 8b3d 3a4f 563d 0479 a03d
00000220: e910 cebd 5f90 643e 18b5 f53d 44e8 abbd
00000230: 09dc 223d f342 9a3d d43b 213d 0b80 f2bd
00000240: 6b47 4bbe 388c 473d 1d66 943d adb1 4ebd
00000250: f7b6 a7bd 0e07 dd3e 6167 60bd 4fc7 a0be
00000260: 72f3 5b3e 7d4d 7a3e 2ba7 13be 1820 03be
00000270: 2c93 873c 1b83 f53d d8a6 533c 3fce b03d
00000280: c2bb 33bd c567 eebd 57ff 9d3c d3a9 303d
00000290: b81c fcbc bdba 363e d446 85bc cdda f53d
000002a0: eb7b 89bd e643 82bc dc91 633e 2a42 483e
000002b0: 332e 68be 9db7 72be d296 353e 5455 cc3b
000002c0: 80a0 d0ba c25c e33d c566 27be d2bf 4c3e
000002d0: c658 1fbe 507c c63d 59b1 2c3e 190e 50be
000002e0: ede1 a03c ca9a 72bd b1f5 5fbe c667 babd
000002f0: 1f48 39be 9b01 123e 11b4 f03d 01ef 043c
00000300: de79 6dbe 96b8 85bd c102 8c3c 53ba b13c
00000310: 4870 00be b2db b2bd 2cd0 1dbd 33e5 77bd
00000320: 53b1 053e 3732 a3bb c117 7abe c14d 50be
00000330: 13f5 f03d 86cb c03c c159 94bd dfd6 fdbd
00000340: 0fe6 1a3e eb70 273e 3515 a6be 9a02 2b3e
00000350: f32d aebd a535 953d 39e7 803d a859 31be
00000360: a35a 1a3e 7f0b 463e fc36 3cbe 881f 9f3d
00000370: 051d 6d3e 4e11 7b3e 46b9 42be 3927 c4be
00000380: aa2d a6ba cc4e a43d 5863 12be 5cbd 4a3e
00000390: d127 bb3d 9b0b a63d 7c8c 82bd f85f ecbc
000003a0: 49fc 0fbe 2226 8e3e 1150 14be b0f9 bebd
000003b0: af32 383e afda 11be f25e d5bd a72a 1f3e
000003c0: a1f7 15be 4639 d73d 483b 9b3d f1e6 d1bc
000003d0: 9626 5a3d 149f 8bbe fe1f 903d d129 a0bc
000003e0: 0dfc 803d 432b 383e 7ce8 63bd 5511 303e
000003f0: 5fa2 a2bc b272 62bd 9a7d ffbc 0765 89bd

signal_classifier.stem.1.0.bias f4 [32]
0.065004855 0.046710316 -0.09018527 -0.06805066 0.016431471 0.10065932 0.07728191 -0.10094891
-0.050410096 -0.019687522 -0.08841394 -0.07182662 0.060801234 -0.022139037 0.09026002 0.077450335
0.10956816 -0.09579337 0.029616306 0.040274825 0.06922561 -0.10069594 -0.088701025 0.087286286
0.106060065 -0.010748759 -0.074422866 -0.088984296 -0.050031263 -0.079867326 0.036427196 -0.02374886
00000000: 4421 853d 5153 3f3d 0eb3 b8bd 255e 8bbd
00000010: 4b9b 863c 7926 ce3d fa45 9e3d 4dbe cebd
00000020: d17a 4ebd ba47 a1bc 5e12 b5bd d619 93bd
00000030: b70a 793d ed5c b5bc 3fda b83d 489e 9e3d
00000040: 4565 e03d 502f c4bd e59d f23c 37f7 243d
00000050: 28c6 8d3d ac39 cebd e2a8 b5bd 27c3 b23d
00000060: 0536 d93d 901b 30bc 046b 98bd 663d b6bd
00000070: 95ed 4cbd 7b91 a3bd af34 153d f88c c2bc

signal_classifier.stem.1.1.weight f4 [32]
1.0039304 0.9828779 0.9815468 1.0302845 0.97882867 0.9845881 1.0163876 0.9759548
1.0046717 1.0164518 1.0286229 1.0093851 0.9882014 1.0309453 0.99129647 1.0144162
1.0216616 0.9708614 0.9993277 0.9902363 0.9931795 0.9912223 0.97276795 1.0430787
1.0069118 1.0057772 0.99904376 0.9654409 0.9755456 1.0159631 1.0061041 0.9886904
00000000: cb80 803f e39d 7b3f a746 7b3f 5de0 833f
00000010: 8494 7a3f f70d 7c3f fd18 823f 2cd8 793f
00000020: 1599 803f 181b 823f eaa9 833f 8833 813f
00000030: c4fa 7c3f 04f6 833f 9bc5 7d3f 64d8 813f
00000040: cfc5 823f 5f8a 783f f1d3 7f3f 2080 7d3f
00000050: 0341 7e3f bfc0 7d3f 5207 793f 9a83 853f
00000060: 7ce2 803f 4fbd 803f 55c1 7f3f 2327 773f
00000070: 5bbd 793f 140b 823f 05c8 803f d01a 7d3f

signal_classifier.stem.1.1.bias f4 [32]
-0.02190668 0.016863625 0.014601284 0.03779558 -0.030464532 -0.020222764 0.038634773 -0.016182814
0.017906165 0.026921704 0.044805057 -0.01581592 0.0069201123 -0.003692497 -0.053330332 0.0284075
-0.008589767 0.03617354 -0.019510904 -0.0065438175 0.011579804 -0.028256642 0.006293848 0.042896405
0.013105342 -0.0017902085 0.02416344 -0.0111675495 0.0034953023 0.0078007416 0.002051442 -0.019957414
00000000: a375 b3bc 9625 8a3c 393a 6f3c 8acf 1a3d
00000010: c190 f9bc 36aa a5bc 7f3f 1e3d d291 84bc
00000020: f3af 923c e88a dc3c 8285 373d 6390 81bc
00000030: 1cc2 e23b d2fd 71bb e870 5abd d8b6 e83c
00000040: 18bc 0cbc b52a 143d 55d5 9fbc 856d d6bb
00000050: 38b9 3d3c 797a e7bc a03c ce3b 24b4 2f3d
00000060: cab7 563c 6ea5 eaba 68f2 c53c 19f8 36bc
00000070: 7111 653b 5d9d ff3b 7c71 063b bb7d a3bc

signal_classifier.stem.1.1.running_mean f4 [32]
0.15036806 0.08625966 -0.24138343 -0.21906573 -0.2095877 0.01103296 0.19889042 -0.1534967
-0.17414184 0.11205484 0.08840096 -0.13897826 0.12860161 -0.02726367 0.123462 0.24396318
0.061936744 0.17154817 0.020056568 0.27627724 -0.037791274 -0.1899374 -0.17961884 0.11437279
-0.08616121 0.092416205 0.10303806 -0.1328435 0.06034394 0.09128984 -0.04677902 0.025789887
00000000: 16fa 193e e8a8 b03d 382d 77be c452 60be
00000010: 289e 56be 97c3 343c eea9 4b3e 3d2e 1dbe
00000020: 3d52 32be 027d e53d 900b b53d 5150 0ebe
00000030: 24b0 033e 0f58 dfbc a5d9 fc3d 7cd1 793e
00000040: 62b1 7d3d 53aa 2f3e ac4d a43c 3674 8d3e
00000050: 06cb 1abd f37e 42be 00ee 37be 483c ea3d
00000060: 4a75 b0bd b544 bd3d 9e05 d33d 2008 08be
00000070: 352b 773d 2bf6 ba3d 5c9b 3fbd 5045 d33c

signal_classifier.stem.1.1.running_var f4 [32]
0.7620764 0.7236807 0.76575506 0.8178319 1.3288413 0.81005245 0.7352593 0.7530536
0.9130913 0.98597205 0.96605664 0.52119327 0.67692673 1.0699582 0.7085109 1.3259321
0.7350669 1.587655 0.47804698 1.5925848 0.856612 0.89614564 0.74531704 0.707686
1.5677893 0.7903787 1.2826177 0.9626284 0.841235 1.2677877 0.626212 0.6086709
00000000: 7017 433f 2343 393f 8608 443f 6e5d 513f
00000010: 7917 aa3f 995f 4f3f f439 3c3f 1fc8 403f
00000020: 5ac0 693f aa68 7c3f 7d4f 773f ec6c 053f
00000030: 124b 2d3f 64f4 883f f860 353f 25b8 a93f
00000040: 582d 3c3f 4738 cb3f 93c2 f43e d2d9 cb3f
00000050: ed4a 5b3f cd69 653f 19cd 3e3f e92a 353f
00000060: 52ad c83f 4256 4a3f d12c a43f d16e 763f
00000070: 2d5b 573f de46 a23f 6e4f 203f dbd1 1b3f

signal_classifier.stem.2.0.weight f4 [32, 32, 3]
-0.087596364 -0.12277866 0.23433776 0.11880426 -0.02744083 0.022773415 0.11658328 -0.22172357
-0.028011965 -0.02074922 -0.044358164 -0.025622264 -0.061527424 0.23264079 0.14959791 0.08579112
-0.12524725 -0.14537129 -0.03941622 0.06875534 -0.038437277 0.05531606 -0.010019916 -0.104295805
-0.20927751 -0.14471377 0.21459362 0.098666556 0.19151694 0.23029502 0.12855367 -0.2629517
0.015346669 0.09457301 0.22563209 0.03863968 0.35042185 0.15375331 0.0046318416 0.1536261
-0.078886054 -0.057401113 -0.20274161 0.080203004 0.07717957 0.1429487 -0.09688163 0.006854532
0.054563567 0.14229764 0.24298498 0.05689069 0.18629652 -0.17749986 -0.23176457 -0.24426576
-0.050305218 0.046576474 -0.17823058 -0.08218026 0.12349241 0.018089777 -0.35737318 0.118145995
-0.1719604 -0.026926378 -0.12808481 -0.080923386 -0.10965537 -0.10130751 0.08362248 0.26973194
0.0055502756 -0.039733045 -0.0069215987 0.059988957 0.028755268 0.022288814 -0.16574368 0.1227606
0.136904 -0.054217912 -0.010675522 0.16605744 -0.14066707 0.19648047 -0.07540635 -0.19436389
-0.08668178 0.07654098 0.031749845 0.012824184 -0.24359646 -0.12876771 -0.16823953 0.10981564
0.0031267959 0.21106446 0.28172177 -0.028363593 -0.07360701 -0.071295924 0.013591188 -0.061060064
-0.13489 -0.07690412 0.22527672 0.19657254 -0.12726551 -0.04492838 0.15536532 -0.09814894
-0.097576454 -0.0047527105 0.011191972 0.014706404 -0.07801484 0.061530992 -0.029919876 -0.14258265
0.010077417 0.11570624 0.28863317 0.10160595 0.121008135 0.033611227 0.103928514 -0.021148778
-0.055825558 0.15471599 -0.13343622 0.051048893 0.05570453 -0.07914486 -0.045074686 0.21206175
-0.18386616 -0.06924775 0.08793118 -0.116136 -0.09179844 0.19618051 -0.3675976 -0.041276347
-0.24175964 0.17075579 0.045828782 0.115688585 0.02773389 -0.021699442 0.15415902 0.072655626
0.088212214 0.109627925 0.036835764 -0.06862583 -0.07934052 0.15743183 0.07961571 0.06863495
0.023074798 -0.1448725 -0.15542543 0.043027323 -0.07633291 0.26652634 -0.15495168 -0.037767287
0.35121152 0.31766468 -0.1639888 0.021874823 -0.0419457 0.072228745 -0.038533814 -0.290882
-0.072202675 0.12491037 -0.25968385 -0.013174909 0.15061484 0.270347 0.19729811 0.184788
0.022140868 -0.15006371 0.26295164 0.16024631 0.023902284 -0.070665196 -0.06770029 -0.025455393
0.114532515 0.23149784 0.08518619 -0.1516769 -0.023750344 -0.03391915 -0.06682519 0.0064852485
-0.1247447 -0.31388527 -0.07801719 -0.018235877 0.0044208234 0.13487568 -0.011550761 -0.096024565
-0.093965374 -0.0032628437 -0.2045064 0.08023029 -0.10578477 -0.13437466 0.12992299 0.12272933
0.060417444 -0.036927886 0.25917688 0.17641844 -0.07916291 0.070986755 0.05221378 -0.05582642
-0.039757792 -0.3320057 0.09127322 -0.113683626 -0.33510473 0.055738192 0.13892141 0.4001969
-0.18681654 -0.054117378 -0.17483899 -0.027110025 -0.21399668 0.008733705 0.09985897 0.049174707
0.19208322 0.07621062 0.21046875 -0.16265093 -0.122203015 -0.060202565 0.011187105 -0.45470285
0.293834 0.056559864 -0.22491583 -0.0047725276 0.07017769 -0.00865626 -0.010156077 0.10733639
00000000: b965 b3bd 6173 fbbd 3df6 6f3e a64f f33d
00000010: 97cb e0bc 508f ba3c 37c3 ee3d 810b 63be
00000020: 5979 e5bc 45fa a9bc e8b0 35bd c8e5 d1bc
00000030: 2e04 7cbd 6339 6e3e 3230 193e 41b3 af3d
00000040: d140 00be 36dc 14be e772 21bd 9acf 8c3d
00000050: 6870 1dbd 1893 623d 932a 24bc 0a99 d5bd
00000060: d84c 56be d92f 14be 6ebe 5b3e b111 ca3d
00000070: 041d 443e 75d2 6b3e 93a3 033e 9ba1 86be
00000080: 9870 7b3c 7faf c13d 190c 673e a444 1e3d
00000090: 7e6a b33e 8271 1d3e b4c6 973b 2950 1d3e
000000a0: 038f a1bd 6e1d 6bbd 7f9b 4fbe 7941 a43d
000000b0: 5310 9e3d 2561 123e e069 c6bd fb9b e03b
000000c0: 0c7e 5f3d 79b6 113e 0ed1 783e 3606 693d
000000d0: 84c4 3e3e 86c2 35be b153 6dbe ce20 7abe
000000e0: d80c 4ebd f9c6 3e3d 1482 36be 204e a8bd
000000f0: 97e9 fc3d 0331 943c 9ef9 b6be 87f6 f13d
00000100: 6316 30be b594 dcbc aa28 03be 29bb a5bd
00000110: ff92 e0bd 507a cfbd 4342 ab3d 4e1a 8a3e
00000120: 16df b53b 1ebf 22bd 94ce e2bb fbb6 753d
00000130: 2b90 eb3c 0897 b63c b6b8 29be e969 fb3d
00000140: 9030 0c3e 9a13 5ebd 62e8 2ebc f60a 2a3e
00000150: 070b 10be 2d32 493e a56e 9abd 5407 47be
00000160: 3886 b1bd 84c1 9c3d 200c 023d 871c 523c
00000170: 5a71 79be afdb 03be fc46 2cbe 06e7 e03d
00000180: eeea 4c3b 4821 583e d63d 903e c45a e8bc
00000190: 46bf 96bd 9903 92bd 93ad 5e3c 1e1a 7abd
000001a0: 9b20 0abe e87f 9dbd f1ae 663e 504a 493e
000001b0: e451 02be d206 38bd 1618 1f3e 5002 c9bd
000001c0: 2ad6 c7bd a0bc 9bbb 885e 373c 21f3 703c
000001d0: 3fc6 9fbd ec07 7c3d 871a f5bc 3001 12be
000001e0: c01b 253c 65f7 ec3d bac7 933e c816 d03d
000001f0: 1dd3 f73d edab 093d 79d8 d43d 3440 adbc
00000200: 57a9 64bd de6d 1e3e 81a3 08be a518 513d
00000210: 6f2a 643d b316 a2bd 3ca0 38bd b726 593e
00000220: 6947 3cbe c4d1 8dbd 4315 b43d b6d8 edbd
00000230: d200 bcbd 8be3 483e c135 bcbe 6311 29bd
00000240: d78f 77be 9bda 2e3e f6b6 3b3d 23ee ec3d
00000250: 2f32 e33c 07c3 b1bc dddb 1d3e 79cc 943d
00000260: 9ba8 b43d 9b84 e03d 19e1 163d b38b 8cbd
00000270: 487d a2bd cf35 213e 900d a33d 7b90 8c3d
00000280: 5c07 bd3c 7559 14be d827 1fbe 6b3d 303d
00000290: 6e54 9cbd 2476 883e a7ab 1ebe dfb1 1abd
000002a0: ffd1 b33e f2a4 a23e aeec 27be d432 b33c
000002b0: 41cf 2bbd aaec 933d a2d5 1dbd 7cee 94be
000002c0: ffde 93bd 02d1 ff3d 48f5 84be 93db 57bc
000002d0: c73a 1a3e ec6a 8a3e 8408 4a3e 1139 3d3e
000002e0: c460 b53c 4daa 19be 99a1 863e 9c17 243e
000002f0: b9ce c33c eab8 90bd 73a6 8abd d487 d0bc
00000300: 0690 ea3d c50d 6d3e 1976 ae3d 3051 1bbe
00000310: 1590 c2bc ceee 0abd a5db 88bd 3582 d43b
00000320: 267a ffbd 92b5 a0be 7ac7 9fbd 6863 95bc
00000330: 8edc 903b da1c 0a3e 673f 3dbc 87a8 c4bd
00000340: eb70 c0bd 6fd5 55bb 206a 51be c74f a43d
00000350: afa5 d8bd 8399 09be 880a 053e 8459 fb3d
00000360: 4878 773d b241 17bd d5b2 843e 09a7 343e
00000370: 2a20 a2bd 8161 913d 1ede 553d 3faa 64bd
00000380: 11d9 22bd a7fc a9be 74ed ba3d f6d2 e8bd
00000390: d992 abbe bb4d 643d 6a41 0e3e 9ce6 cc3e
000003a0: d64c 3fbe 2faa 5dbd fe08 33be d815 debc
000003b0: f221 5bbe d017 0f3c dc82 cc3d 6b6b 493d
000003c0: 77b1 443e 5014 9c3d 1f85 573e f78d 26be
000003d0: 9345 fabd f796 76bd 1f4a 373c d0ce e8be
000003e0: 6971 963e 51ab 673d 5650 66be dd62 9cbb
000003f0: 52b9 8f3d fcd2 0dbc ad65 26bc 2ed3 db3d

signal_classifier.stem.2.0.bias f4 [32]
0.038808927 -0.0056774644 -0.09052777 -0.010565957 -0.09900139 0.07389363 -0.05595373 -0.053632233
0.017880209 0.06677808 0.04803871 -0.09896222 -0.0009740641 -0.006835019 0.0011147723 0.071324766
-0.05542023 0.043964505 0.06176778 -0.013057035 0.0760822 -0.057713285 0.038632832 -0.04301597
-0.0809832 -0.093363665 0.045298394 -0.058728795 -0.023926819 0.08534596 -0.0280572 -0.06668326
00000000: 1cf6 1e3d 060a babb a066 b9bd d61c 2dbc
00000010: 3ec1 cabd 8b55 973d bd2f 65bd 79ad 5bbd
00000020: 8479 923c f2c2 883d 3dc4 443d b4ac cabd
00000030: 5658 7fba 4cf8 dfbb 8d1d 923a b812 923d
00000040: 5300 63bd 2014 343d 3600 7d3d 2ded 55bc
00000050: fcd0 9b3d c464 6cbd 763d 1e3d 8431 30bd
00000060: 85da a5bd 7335 bfbd cf8a 393d 9b8d 70bd
00000070: 2d02 c4bc ddc9 ae3d 37d8 e5bc 3c91 88bd

signal_classifier.stem.2.1.weight f4 [32]
0.97725797 1.0121787 1.0181483 1.0045284 0.98433137 0.9708889 1.0097512 0.98678833
0.99421865 0.99335593 1.0052016 1.0538986 0.9784927 1.004864 1.0029145 1.018093
0.9986529 1.0101506 0.98979867 0.9975425 1.0126635 1.0109326 0.99014676 0.9888769
1.0074826 1.0141345 0.99211764 0.97953016 1.021269 1.0022736 1.0070716 1.0159701
00000000: 942d 7a3f 128f 813f af52 823f 6394 803f
00000010: 24fd 7b3f 2d8c 783f 873f 813f 299e 7c3f
00000020: 1d85 7e3f 934c 7e3f 72aa 803f 26e6 863f
00000030: 7f7e 7a3f 629f 803f 815f 803f df50 823f
00000040: b7a7 7f3f 9d4c 813f 7263 7d3f f25e 7f3f
00000050: f59e 813f 3d66 813f 427a 7d3f 0927 7d3f
00000060: 31f5 803f 29cf 813f 6cfb 7d3f 7dc2 7a3f
00000070: f1b8 823f 804a 803f b9e7 803f 4f0b 823f

signal_classifier.stem.2.1.bias f4 [32]
0.0063523366 0.032971255 0.02893489 0.006801554 0.01806002 -0.009893079 -4.0174746e-05 0.012583169
0.020745326 0.046910618 0.04958101 0.026815498 0.027366608 0.003536724 0.026339687 -0.027020248
0.033456344 -0.02328835 0.02441403 0.012292387 -0.022452315 -0.049263217 0.011191901 -0.007493605
-0.00057955796 -0.00094019936 0.011969788 0.038200594 0.034212925 -0.032748934 0.023463761 0.029962832
00000000: 4327 d03b de0c 073d dd08 ed3c 92df de3b
00000010: 9bf2 933c 9516 22bc 4e81 28b8 a329 4e3c
00000020: 1af2 a93c 5925 403d 7515 4b3d 2dac db3c
00000030: f02f e03c 62c8 673b 54c6 d73c 9159 ddbc
00000040: 8509 093d 36c7 bebc efff c73c 0266 493c
00000050: ebed b7bc 3ac8 49bd 3c5e 373c ea8c f5bb
00000060: 7aed 17ba b677 76ba ee1c 443c 3a78 1c3d
00000070: da22 0c3d bf23 06bd 1337 c03c 9d74 f53c

signal_classifier.stem.2.1.running_mean f4 [32]
0.061365608 0.2577336 -0.03764791 -0.34918195 -0.06523724 -0.21320999 -0.5975048 -0.42616853
-0.012823755 0.13469324 -0.044625558 -0.58254015 -0.3154327 0.12552935 -0.14172892 0.19763678
0.079797834 0.006209782 0.37284404 0.10019232 0.42718232 -0.10155963 0.24863525 -0.022528011
-0.1777772 0.0604728 0.34062493 -0.030457104 -0.13680862 0.107195795 -0.31614676 -0.50731945
00000000: 815a 7b3d a9f5 833e b234 1abd fac7 b2be
00000010: 1a9b 85bd b853 5abe 13f6 18bf c332 dabe
00000020: ba1a 52bc 06ed 093e 4ac9 36bd 5a21 15bf
00000030: 6580 a1be c48a 003e 6321 11be 4c61 4a3e
00000040: 0c6d a33d 6d7b cb3b 6ae5 be3e a231 cd3d
00000050: a4b7 da3e 7ffe cfbd 3d9a 7e3e aa8c b8bc
00000060: 3a0b 36be 54b2 773d 6466 ae3e 2d81 f9bc
00000070: 8f17 0cbe 7889 db3d fddd a1be b0df 01bf

signal_classifier.stem.2.1.running_var f4 [32]
0.5769511 0.86076885 0.8523696 1.248028 1.1341784 2.6008961 3.8758123 2.6217394
0.6166258 1.0911193 1.0952513 4.534193 2.093444 0.8875859 1.310474 1.1288426
0.9481089 0.7169693 1.4765459 1.1418399 2.2559474 0.6407691 2.897078 0.702979
0.98685026 0.67931885 4.0253897 0.6788949 1.6172897 0.823958 2.368524 4.806901
00000000: 11b3 133f 595b 5c3f e534 5a3f 62bf 9f3f
00000010: c22c 913f 1575 2640 4f0d 7840 94ca 2740
00000020: 30db 1d3f cca9 8b3f 3231 8c3f 1c18 9140
00000030: fdfa 0540 d438 633f 9dbd a73f ea7d 903f
00000040: 44b7 723f 4d8b 373f 75ff bc3f cf27 923f
00000050: 7161 1040 7209 243f ba69 3940 6ff6 333f
00000060: 38a2 7c3f d7e7 2d3f fecf 8040 0ecc 2d3f
00000070: 5903 cf3f e9ee 523f e695 1740 22d2 9940

signal_classifier.body.0.layers1.0.weight f4 [16, 32, 1]
0.18839431 0.6469367 0.17562135 0.34459352 0.4425491 0.116880715 0.24794616 -0.17583677
0.100180715 0.13261504 -0.28700933 0.30061224 -0.25523904 0.2557753 -0.25639123 -0.229395
0.14943962 -0.039740816 0.21996547 -0.11572868 0.13724668 -0.88864636 0.13906996 -0.12464514
-0.031950306 -0.058907825 -0.029351555 0.11692908 0.091459624 -0.22817695 0.48790178 -0.13898678
0.03925687 0.36350274 -0.24477783 0.02823447 0.10823258 0.15277848 0.006020324 0.13763319
-0.09425355 -0.10582509 0.055008493 -0.42604414 -0.09461066 -0.03916449 -0.16420119 -0.019973168
0.16521779 0.14711733 -0.2713186 -0.022594087 -0.29157048 0.2369312 0.26475212 0.100748576
0.24234712 -0.098788105 0.22540864 -0.011334928 0.14506106 -0.120370075 0.47297686 -0.3266883
-0.098089226 -0.25489855 0.14486787 0.20820132 -0.11331226 0.025588738 0.0223783 0.14463869
0.080984786 0.12862611 -0.07428181 -0.13117103 -0.28843 0.29791242 -0.24665411 -0.32035094
0.2000995 0.42118275 -0.028830063 0.47160918 0.22315554 0.11132741 -0.014422575 0.43379882
-0.03950334 -0.17269965 -0.056945458 -0.03772416 -0.1960254 0.39330816 0.07701761 -0.30775586
0.12087481 0.40947518 0.18277182 -0.03759831 0.39133623 0.16352826 -0.23673835 0.43820512
-0.06473039 -0.1970818 0.38902715 -0.063490264 -0.028351134 0.22475034 0.09375124 0.21445876
0.22712399 -0.026344765 0.019727942 0.4712971 -0.00491442 0.10633578 -0.24264872 -0.08229599
0.12863168 -0.24369393 -0.26200208 -0.61418575 0.00016276482 0.30357316 0.22801115 0.36516538
0.2729241 0.29991132 0.077927426 -0.085410014 0.42904133 -0.42826018 -0.48305336 -0.09196955
0.08823005 0.17240319 -0.5317335 -0.23561905 -0.21187113 0.12617742 0.08923231 -0.35163736
0.017468808 0.19480245 0.011778351 -0.12347716 -0.4341974 0.4022023 -0.07355297 0.28877857
-0.2594765 -0.16705562 -0.27129942 0.15655296 -0.18787874 0.5071462 -0.14311333 -0.081020415
0.012583449 -0.048134707 0.16637129 0.15262742 0.029230917 0.5266689 0.21164376 -0.18763883
-0.2223959 0.13296305 0.4364147 -0.25746742 0.51431787 0.09918231 0.43757057 0.118002415
0.030941378 -0.23043469 0.009944349 -0.097294435 0.0072765113 0.18407212 -0.1115422 -0.13925123
-0.28874633 0.016908549 0.1358523 0.35327724 -0.40779012 0.00086412404 -0.19701862 -0.27388668
-0.21825396 -0.17079012 0.17482881 0.22873165 0.039940603 -0.09672084 -0.35556275 0.1867609
-0.014871022 -0.25233287 0.08151196 -0.18273835 -0.018548416 0.3247963 0.16242243 -0.51122755
-0.13430136 -0.14838399 0.54548246 -0.017874738 -0.1330855 -0.12927634 -0.24795312 0.17064317
-0.2145417 -0.23435484 -0.095637836 -9.685471e-05 -0.2091526 0.17192231 -0.11167772 0.29419073
0.19911158 -0.31574634 -0.3710125 -0.06665721 -0.34821877 0.12778151 0.3022097 0.21177952
0.0122232735 -0.09243277 -0.05732805 0.051788643 -0.021699514 -0.061587952 -0.2659142 -0.029037232
-0.36236852 0.18196933 0.026739102 -0.033027004 0.2684505 -0.105202176 0.032081172 -0.10548454
0.1842943 -0.2304603 0.19384459 -0.23214415 0.05107425 -0.4810648 0.16772668 -0.3053593
00000000: 70ea 403e a59d 253f 15d6 333e 906e b03e
00000010: cc95 e23e 285f ef3d 99e5 7d3e 8e0e 34be
00000020: 8c2b cd3d 3dcc 073e e3f2 92be d9e9 993e
00000030: b1ae 82be fbf4 823e b645 83be 86e6 6abe
00000040: b306 193e 44c7 22bd a13e 613e 2803 edbd
00000050: 658a 0c3e 547e 63bf 5b68 0e3e f345 ffbd
00000060: 53de 02bd 5549 71bd ac72 f0bc 8378 ef3d
00000070: 2f4f bb3d 38a7 69be 43ce f93e 8d52 0ebe
00000080: d0cb 203d 081d ba3e 0aa7 7abe fa4b e73c
00000090: 0ba9 dd3d f671 1c3e 2346 c53b b7ef 0c3e
000000a0: 0108 c1bd d3ba d8bd 9650 613d 7522 dabe
000000b0: 3cc3 c1bd f26a 20bd 5b24 28be c59e a3bc
000000c0: da2e 293e eda5 163e 46ea 8abe 3c17 b9bc
000000d0: ba48 95be 189e 723e 978d 873e 4555 ce3d
000000e0: d829 783e 6b51 cabd 86d1 663e 22b6 39bc
000000f0: e38a 143e 9684 f6bd 062a f23e b043 a7be
00000100: 01e3 c8bd 1082 82be 3e58 143e ba32 553e
00000110: 4210 e8bd 799f d13c b252 b73c 2a1c 143e
00000120: 5adb a53d 90b6 033e 1021 98bd b351 06be
00000130: 19ad 93be fa87 983e e592 7cbe 0a05 a4be
00000140: e2e6 4c3e 44a5 d73e 062d ecbc c276 f13e
00000150: e382 643e a0ff e33d aa4c 6cbc e11a de3e
00000160: 41ce 21bd 2dd8 30be a43f 69bd a684 1abd
00000170: e2ba 48be b05f c93e 69bb 9d3d 2d92 9dbe
00000180: 368d f73d bba6 d13e 8928 3b3e af00 1abd
00000190: 395d c83e f473 273e 8a6b 72be 6c5c e03e
000001a0: 5e91 84bd d0cf 49be 912e c73e 2f07 82bd
000001b0: a340 e8bc f424 663e a600 c03d 149b 5b3e
000001c0: 3193 683e fad0 d7bc 7e9c a13c da4d f13e
000001d0: 2509 a1bb 93c6 d93d e878 78be cd8a a8bd
000001e0: 06b8 033e e78a 79be 2325 86be 473b 1dbf
000001f0: d9ab 2a39 f16d 9b3e c17b 693e f5f6 ba3e
00000200: b5bc 8b3e fa8d 993e 6a98 9f3d 72eb aebd
00000210: 4eab db3e eb44 dbbe c552 f7be 885a bcbd
00000220: f5b1 b43d 768a 303e b01f 08bf 1f46 71be
00000230: bff4 58be a734 013e 6ebf b63d d009 b4be
00000240: bf1a 8f3c 4b7a 473e fcf9 403c 98e1 fcbd
00000250: 1f4f debe 76ed cd3e f1a2 96bd c9da 933e
00000260: 1bda 84be a110 2bbe c2e7 8abe 6b4f 203e
00000270: 4963 40be 55d4 013f 4d8c 12be 08ee a5bd
00000280: cf2a 4e3c e628 45bd 3c5d 2a3e 5d4a 1c3e
00000290: ad75 ef3c c6d3 063f 24b9 583e 6524 40be
000002a0: c0bb 63be 7727 083e bf71 df3e c5d2 83be
000002b0: 56aa 033f 1820 cb3d 4009 e03e 40ab f13d
000002c0: c678 fd3c 12f7 6bbe 9fed 223c 4e42 c7bd
000002d0: cd6f ee3b 677d 3c3e 3d70 e4bd e097 0ebe
000002e0: 8fd6 93be cc83 8a3c de1c 0b3e c1e0 b43e
000002f0: dec9 d0be 6286 623a 40bf 49be e03a 8cbe
00000300: f77d 5fbe 9be3 2ebe 5306 333e a138 6a3e
00000310: c298 233d 9315 c6bd 520c b6be 403e 3f3e
00000320: 96a5 73bc c631 81be beef a63d c31f 3bbe
00000330: d9f2 97bc b34b a63e 1152 263e cfdf 02bf
00000340: 4c86 09be f9f1 17be bda4 0b3f 0b6e 92bc
00000350: 9147 08be 0461 04be 6ce7 7dbe 15bd 2e3e
00000360: d2b0 5bbe b7fa 6fbe c5dd c3bd 7a1e cbb8
00000370: 192c 56be 670c 303e 4ab7 e4bd 2ba0 963e
00000380: e8e3 4b3e 81a9 a1be 5af5 bdbe 9383 88bd
00000390: bb49 b2be 28d9 023e 3bbb 9a3e bbdc 583e
000003a0: 2044 483c 644d bdbd d1d0 6abd 5420 543d
000003b0: 2ec3 b1bc a643 7cbd e825 88be 7ddf edbc
000003c0: 5e88 b9be 2b56 3a3e f60b db3c 5347 07bd
000003d0: 5872 893e 3d74 d7bd 8c67 033d 4708 d8bd
000003e0: a5b7 3c3e c9fd 6bbe 327f 463e 32b7 6dbe
000003f0: 3c33 513d 204e f6be 8bc0 2b3e 0e58 9cbe

signal_classifier.body.0.layers1.0.bias f4 [16]
0.10847831 -0.09977304 -0.026365723 0.16866711 -0.11044348 0.05253481 -0.05065059 -0.0015448348
-0.019763727 -0.11034235 0.17036937 0.1370312 -0.13898492 -0.14420399 -0.08268675 -0.12444326
00000000: e029 de3d cf55 ccbd eefc d7bc 12b7 2c3e
00000010: 3130 e2bd be2e 573d fe76 4fbd 0e7c caba
00000020: 8ae7 a1bc 2cfb e1bd 4f75 2e3e e851 0c3e
00000030: 1052 0ebe 36aa 13be ac57 a9bd 1cdc febd

signal_classifier.body.0.layers1.1.weight f4 [16]
1.0028124 0.9923236 0.96792173 0.9916912 0.981036 0.98945165 0.953907 1.0326211
0.9947022 1.0176319 0.9869267 0.99614084 1.0007919 1.0242554 0.95774513 1.0176536
00000000: 285c 803f eb08 7e3f b8c9 773f 79df 7d3f
00000010: 2d25 7b3f b44c 7d3f 4033 743f ee2c 843f
00000020: cea4 7e3f c341 823f 3aa7 7c3f 1603 7f3f
00000030: f319 803f cd1a 833f c92e 753f 7942 823f

signal_classifier.body.0.layers1.1.bias f4 [16]
0.010703211 0.03030255 0.043964434 -0.018701045 0.026739936 0.03188803 -0.05031369 0.048618887
0.00043529886 -0.0055901944 -0.041003473 -0.030580932 -0.013300069 0.0077747866 -0.0026879262 0.043670584
00000000: 855c 2f3c 0e3d f83c 0d14 343d ef32 99bc
00000010: b60d db3c 069d 023d ba15 4ebd 9924 473d
00000020: d338 e439 f32d b7bb 42f3 27bd dd84 fabc
00000030: 88e8 59bc a3c3 fe3b eb27 30bb eddf 323d

signal_classifier.body.0.layers1.1.running_mean f4 [16]
0.32938844 -0.061103877 0.029782189 0.46724963 -0.310219 0.19334441 -0.20644023 -0.18772686
0.023010911 -0.25521782 -0.08005279 0.13340995 -0.36755362 0.07591995 0.30885744 -0.23951066
00000000: 9aa5 a83e 0f48 7abd c7f9 f33c 583b ef3e
00000010: 06d5 9ebe 14fc 453e 1165 53be 783b 40be
00000020: 6181 bc3c e9ab 82be b8f2 a3bd 9e9c 083e
00000030: fd2f bcbe eb7b 9b3d 9022 9e3e 4842 75be

signal_classifier.body.0.layers1.1.running_var f4 [16]
1.591147 0.31284586 1.2564597 1.0026699 0.62600034 0.49599802 0.84475464 1.3053899
0.40755656 0.81282645 0.540747 0.7084177 0.2896243 1.5887047 0.751043 0.7345149
00000000: b4aa cb3f 552d a03e acd3 a03f 7d57 803f
00000010: 8f41 203f 74f3 fd3e d741 583f 0417 a73f
00000020: 41ab d03e 6515 503f 656e 0a3f dd5a 353f
00000030: a349 943e ad5a cb3f 5b44 403f 2b09 3c3f

signal_classifier.body.0.layers2.0.0.weight f4 [16, 32, 1]
-0.20011476 0.31524938 -0.1342818 -0.54456264 -0.033166163 -0.0428282 0.6805644 0.00595817
0.38741696 -0.15756088 0.1810066 0.1178065 -0.14607352 -0.075657345 0.012288968 0.57836044
-0.07841005 0.21298791 0.17089055 -0.109885246 0.00015277535 0.5790425 0.08431514 -0.34970373
-0.6713489 -0.14842744 -0.4029811 0.055101275 -0.26790917 0.1384282 0.16566485 0.12581672
-0.2299579 0.07056446 0.436861 -0.034843545 0.43745196 0.028043339 -0.10911774 0.06433019
-0.39558923 -0.27141485 0.15872036 0.09717654 -0.3563877 -0.24810682 -0.45324928 0.11611818
0.24889763 -0.072749265 -0.0108028455 0.0006012595 0.028451063 0.12170254 -0.04387447 -0.43954197
0.11200109 -0.48094752 0.35614762 0.053475693 0.0015347365 -0.37231407 -0.11233834 0.006845867
-0.10413581 -0.13096315 -0.23668447 0.23740013 0.0021708102 0.054421872 0.025844306 0.16398737
0.28765032 -0.6774106 -0.16995695 0.099602416 -0.03515402 0.07071282 -0.09276914 -0.09747952
-0.12988852 -0.054575674 -0.19378282 -0.22085673 0.07509152 0.18207231 -0.41131768 0.33878273
-0.25600824 0.12370067 -0.05792207 0.030428056 -0.24452122 -0.3807748 -0.11729035 0.6169236
-0.53277075 -0.47945935 0.2673233 -0.3143178 -0.24889877 -0.21261913 0.03285718 0.38243008
0.22352263 0.24868923 -0.20414251 -0.078402855 0.15490307 -0.03872587 -0.025106018 0.23685075
0.057500042 -0.17100763 -0.07482875 -0.29670334 0.28601557 -0.018550316 0.22650993 0.12859899
0.2108502 0.7152812 0.25195324 -0.17761253 -0.119679235 -0.02949806 -0.11906431 0.092073545
0.12857941 -0.13755465 0.103300974 -0.25758347 0.224582 -0.39863804 0.009417272 -0.21416704
0.115659595 0.11389281 -0.031946823 0.12737553 -0.7088672 -0.17035897 -0.35815397 -0.09541272
0.19891635 0.032411274 0.16852725 0.2840551 -0.036174487 -0.2956991 0.31909528 0.23157825
0.16001108 0.12839273 -0.15398267 -0.075557195 -0.65615606 -0.0008837446 0.20758504 0.36762142
0.067561515 -0.08798724 0.038630992 0.017102435 0.3365457 -0.107370354 -0.059726793 0.07323978
-0.08419829 0.21754196 -0.47850183 -0.496852 0.16705862 0.444401 0.34110904 -0.63384485
-0.036299765 0.047798235 0.030521106 0.4646953 -0.10265291 0.79329413 -0.31539112 0.26892257
0.290822 -0.19484906 0.010687939 -0.2928999 -0.41376993 0.055219386 -0.34870037 0.3036064
-0.06356862 -0.07546373 -0.038551826 -0.40033716 -0.28581634 0.5049585 -0.25537872 0.29444918
0.028961455 0.083934054 -0.09428439 -0.2826104 0.17840219 0.23325306 0.54516613 0.44805855
-0.20724303 0.11603824 0.15587588 -0.09306581 0.06262788 0.26137114 0.021711366 0.0049766786
-0.05084931 -0.015198284 -0.004782218 0.09512976 -0.14509103 0.54086256 -0.26031402 0.06206664
-0.14440143 -0.01942185 0.0006591575 -0.45745924 0.14110893 -0.069667794 -0.54327106 -0.058128472
-0.33183166 0.21584442 0.022859778 -0.413997 -0.14599945 -0.6763909 -0.057288937 0.14513019
0.07243118 0.29333124 -0.167597 0.4688818 0.0044177016 -0.33220112 -0.02934955 -0.29786777
0.019844485 0.114198595 -0.1490167 0.18127353 0.24039365 0.049611297 -0.10774792 0.11355039
00000000: e2ea 4cbe 5e68 a13e 2b81 09be 7568 0bbf
00000010: 3ed9 07bd 9f6c 2fbd 7839 2e3f c13c c33b
00000020: 845b c63e a457 21be cb59 393e 8944 f13d
00000030: 4c94 15be 3df2 9abd ab57 493c 6e0f 143f
00000040: 7395 a0bd 8119 5a3e effd 2e3e 840b e1bd
00000050: 5232 2039 213c 143f 6bad ac3d 5e0c b3be
00000060: 86dd 2bbf 5dfd 17be 8a53 cebe e0b1 613d
00000070: 642b 89be 1fc0 0d3e 0ca4 293e 19d6 003e
00000080: 157a 6bbe 1984 903d 3fac df3e 1bb8 0ebd
00000090: b4f9 df3e 25bb e53c 1f79 dfbd 8cbf 833d
000000a0: ac8a cabe e3f6 8abe 9787 223e 7e04 c73d
000000b0: 7378 b6be b70f 7ebe 4a10 e8be 5ecf ed3d
000000c0: 05df 7e3e 91fd 94bd 6bfe 30bc d89d 1d3a
000000d0: 3412 e93c 2e3f f93d b7b5 33bd a50b e1be
000000e0: d460 e53d c13e f6be fb58 b63e 5409 5b3d
000000f0: 3629 c93a f39f bebe a511 e6bd 4b53 e03b
00000100: 2845 d5bd 341b 06be 6a5d 72be 0519 733e
00000110: 2744 0e3b 78e9 5e3d 70b7 d33c 4eec 273e
00000120: e746 933e c86a 2dbf 3209 2ebe 5afc cb3d
00000130: a9fd 0fbd e2d1 903d bffd bdbd 58a3 c7bd
00000140: 7f01 05be be8a 5fbd 016f 46be 4428 62be
00000150: 95c9 993d 2a71 3a3e 3b98 d2be ee74 ad3e
00000160: 8313 83be c756 fd3d b13f 6dbd 4244 f93c
00000170: c563 7abe eaf4 c2be ec35 f0bd b4ee 1d3f
00000180: aa63 08bf b27b f5be 99de 883e 43ee a0be
00000190: 52df 7ebe d4b8 59be 4095 063d e0cd c33e
000001a0: 1ee3 643e 64a8 7e3e bc0a 51be ad91 a0bd
000001b0: e99e 1e3e 059f 1ebd 23ab cdbc 0189 723e
000001c0: 2a85 6b3d a01c 2fbe d13f 99bd 80e9 97be
000001d0: a270 923e d5f6 97bc 38f2 673e 74af 033e
000001e0: 1de9 573e ab1c 373f 0400 813e 0fe0 35be
000001f0: 631a f5bd eaa5 f1bc fdd7 f3bd 0e91 bc3d
00000200: 52aa 033e 20db 0cbe 768f d33d fbe1 83be
00000210: d3f8 653e 491a ccbe e74a 1a3c 9b4e 5bbe
00000220: f0de ec3d a240 e93d acda 02bd bb6e 023e
00000230: 5278 35bf 9572 2ebe f55f b7be bf67 c3bd
00000240: bab0 4b3e afc1 043d 6892 2c3e ac6f 913e
00000250: b32b 14bd df65 97be 7560 a33e d922 6d3e
00000260: f2d9 233e 6279 033e a2ad 1dbe bbbd 9abd
00000270: d8f9 27bf 19ab 67ba 2c91 543e e038 bc3e
00000280: b15d 8a3d a732 b4bd 883b 1e3d 681a 8c3c
00000290: b84f ac3e fde4 dbbd 15a4 74bd bdfe 953d
000002a0: 2770 acbd 52c3 5e3e 31fe f4be 6363 febe
000002b0: 6a11 2b3e 8788 e33e d8a5 ae3e a843 22bf
000002c0: 10af 14bd 15c8 433d 6607 fa3c 8bec ed3e
000002d0: b03b d2bd 5315 4b3f f27a a1be 38b0 893e
000002e0: 9fe6 943e 8386 47be 771c 2f3c faf6 95be
000002f0: a7d9 d3be b92d 623d db88 b2be 4c72 9b3e
00000300: 4430 82bd ba8c 9abd 85e8 1dbd fef8 ccbe
00000310: 8556 92be f644 013f 00c1 82be 0bc2 963e
00000320: 9340 ed3c 9ee5 ab3d 2d18 c1bd 4fb2 90be
00000330: 10af 363e e4d9 6e3e 0290 0b3f ee67 e53e
00000340: 8437 54be 75a5 ed3d ed9d 1f3e 4a99 bebd
00000350: 0c43 803d 70d2 853e 09dc b13c 6813 a33b
00000360: 5e47 50bd 3902 79bc 27b4 9cbb 64d3 c23d
00000370: be92 14be f875 0a3f e147 85be 9739 7e3d
00000380: f8dd 13be 921a 9fbc 50cb 2c3a 1938 eabe
00000390: dc7e 103e fdad 8ebd d013 0bbf 1f18 6ebd
000003a0: d7e5 a9be 5206 5d3e 6e44 bb3c 6af7 d3be
000003b0: e180 15be f427 2dbf cea7 6abd 029d 143e
000003c0: cc56 943d 832f 963e 8c9e 2bbe 4611 f03e
000003d0: 5ec2 903b 4416 aabe 786e f0bc 2082 98be
000003e0: e790 a23c f4e0 e93d d597 18be c59f 393e
000003f0: c129 763e 3735 4b3d f1aa dcbd 1b8d e83d

signal_classifier.body.0.layers2.0.0.bias f4 [16]
-0.03660618 0.07801938 0.11567851 -0.010604069 0.13784672 0.1640174 -0.019834494 0.087973684
0.014373637 0.0627048 -0.05040576 -0.17421278 -0.14742851 -0.13488024 -0.16637924 -0.06337581
00000000: 5df0 15bd a0c8 9f3d dbe8 ec3d b0bc 2dbc
00000010: b127 0d3e 2df4 273e f37b a2bc 8c2b b43d
00000020: 677f 6b3c 606b 803d 4576 4ebd d664 32be
00000030: 80f7 16be 0c1e 0abe 525f 2abe 2dcb 81bd

signal_classifier.body.0.layers2.0.1.weight f4 [16]
0.981017 1.0012473 0.9989621 1.0090612 0.9975078 0.99119836 1.0023874 1.0193871
0.9901194 0.99688894 1.0592955 1.0291568 1.0014062 1.0295407 0.9887075 1.0124123
00000000: ee23 7b3f df28 803f fbbb 7f3f eb28 813f
00000010: ac5c 7f3f 2dbf 7d3f 3b4e 803f 477b 823f
00000020: 7778 7d3f 1d34 7f3f ff96 873f 69bb 833f
00000030: 142e 803f fdc7 833f ef1b 7d3f ba96 813f

signal_classifier.body.0.layers2.0.1.bias f4 [16]
0.008538906 -0.002564471 0.029780025 -0.038440388 0.035326738 0.018826447 0.015429841 0.03437561
-0.017556515 -0.014754914 0.053192776 -0.014238845 0.02513542 0.06537044 0.05630468 0.0069693755
00000000: c5e6 0b3c af10 28bb 3df5 f33c ab73 1dbd
00000010: c5b2 103d ec39 9a3c 72cd 7c3c 71cd 0c3d
00000020: aed2 8fbc 98be 71bc abe0 593d 0b4a 69bc
00000030: cce8 cd3c f0e0 853d bc9f 663d 5c5f e43b

signal_classifier.body.0.layers2.0.1.running_mean f4 [16]
0.03303552 -0.09593913 -0.058229532 0.05324064 0.029261371 0.10924666 0.14498745 -0.15589191
0.11676038 0.36403292 -0.3166928 -0.13101038 -0.14284289 -0.026409034 -0.089540154 -0.33782497
00000000: 4150 073d bc7b c4bd 1782 6ebd db12 5a3d
00000010: 8bb5 ef3c b6bc df3d 9777 143e 21a2 1fbe
00000020: 1120 ef3d 8662 ba3e 8f25 a2be 9627 06be
00000030: 6845 12be c257 d8bc d460 b7bd 65f7 acbe

signal_classifier.body.0.layers2.0.1.running_var f4 [16]
0.6689436 0.6043359 2.81145 1.0391556 0.6704519 0.75467384 0.9005319 0.4761246
0.44353884 0.67798877 2.9682508 2.843847 0.49470726 0.590039 1.5164711 0.70610225
00000000: e33f 2b3f c2b5 1a3f ccee 3340 0d03 853f
00000010: bca2 2b3f 4e32 413f 4289 663f 9bc6 f33e
00000020: 8617 e33e ac90 2d3f d2f7 3d40 9701 3640
00000030: 454a fd3e cc0c 173f ba1b c23f 1ec3 343f
