experiments/weights/m202_MultiOutput_20230518_114418/best_uar-0.pth (torch, 383971 bytes, 138 tensors)

signal_classifier.stem.0.0.weight f4 [32, 1, 11]
0.5976505 -0.0058995434 -0.09030404 0.17008735 0.5896837 -0.38994822 -0.31568208 -0.3590316
-0.5903839 -0.1526943 0.48713353 0.7101163 0.06485911 0.15790111 -0.03708171 -0.23995969
0.21210693 -0.40213022 -0.5672192 -0.33720168 -0.04728691 0.5252315 0.9991259 0.70917624
0.02247619 -0.28441435 0.56090194 -0.20195466 -0.46946102 -0.11954524 0.3819983 0.07063789
0.20677313 0.26122388 -0.33748853 0.78323764 0.16310334 -0.19950916 0.6485975 -0.4009449
-0.18519726 -0.24241349 -0.21911083 0.24763523 -0.30052638 -0.26863307 0.20730944 0.06705561
-0.24544682 0.18170662 -0.25225455 -0.36006305 0.23375322 -0.2927775 0.9087143 -0.51313955
0.32844293 -0.037830796 0.116808265 -0.6957122 -0.08158894 0.10474184 0.37129182 -0.24046074
0.21720558 0.08245857 0.059979063 -0.43952367 -0.31891719 -0.54557675 0.89690804 -0.28575873
0.23629843 0.21166195 -0.2740091 0.30586466 0.6563149 -0.14066069 0.95478946 -0.12706889
-0.79386526 -0.5325823 0.29747844 0.0014652637 -0.10329759 -0.06816457 -0.8295609 0.2565962
0.258712 0.55379695 -0.6039626 -0.2739897 0.2677831 -0.32591933 -0.18454817 0.2065641
-0.031024558 -0.6049355 -0.9067979 0.08496391 0.13874072 -0.048619047 -0.2846248 0.21685615
-0.19159609 -0.28536183 -0.51573384 0.3621569 0.6233589 0.7798894 0.42830077 -0.16756465
-0.40660632 -0.01678274 -0.1806323 -0.04287336 -0.6761489 0.091116235 -0.07629712 0.10334981
-0.48654044 0.33305636 -0.5008616 0.33003917 -0.021229783 0.16433667 0.2522138 0.29500428
-0.852905 0.31743762 0.9813888 0.44290635 0.63959616 0.4945196 0.19638854 0.6613768
-0.71189636 0.70417094 0.40514114 0.28321302 0.13108702 -0.37375838 0.018789219 0.18922266
0.1660371 0.63840854 0.33870313 -0.52780324 0.029203568 -0.023981823 1.0989147 -0.42771816
0.088423744 -0.3065361 -0.05100322 -0.6433252 -0.38385624 0.1994178 -0.14760199 1.2012126
-0.252804 -0.13470177 -0.3559135 -0.73580104 -0.33452758 0.39184332 -0.42955887 0.22396776
0.9753672 -0.15028688 0.18813743 0.19524638 0.39967734 0.23659755 0.5037315 -0.1633849
-0.101096414 0.031396493 -0.4421744 -0.38497943 -0.41660297 0.2643137 -0.35714877 -0.21288233
0.30094805 -0.30696067 0.2645525 0.73106086 -0.0787661 0.70214885 -0.39874542 -0.08877363
-0.10647244 0.25659603 0.0916594 0.23666754 -0.2336771 0.14995633 0.4562563 0.19779973
0.43788436 0.3089403 0.45570564 0.25620422 -0.20859456 -0.22781472 0.16520128 0.07960956
-0.21366848 -0.30222872 -0.26870653 -0.075810626 0.028609073 0.19672045 0.17101446 0.5658724
-0.006143497 0.096558884 0.13361949 0.3013996 -0.10551928 0.22276445 0.070041 0.2998244
-0.18454751 0.5022362 0.2699499 0.029520845 -0.07508932 0.21646841 0.49351543 -0.3082592
0.033311676 0.37532192 -0.29188982 -0.28124136 -0.25124937 -0.18742566 -0.011372596 0.4818279
0.18809338 0.054135364 0.07767538 -0.044762965 -0.77906334 -1.0798807 -0.10242198 0.33778024
-0.3740863 0.3974392 -0.36118022 0.38194007 0.47589922 0.2578492 -0.21437612 -0.16355038
00000000: a0ff 183f f550 c1bb 53f1 b8bd 612b 2e3e
00000010: 83f5 163f 4ba7 c7be 15a1 a1be fdd2 b7be
00000020: 6623 17bf e55b 1cbe 9169 f93e 2fca 353f
00000030: dad4 843d d4b0 213e fee2 17bd feb7 75be
00000040: 8f32 593e 03e4 cdbe 4735 11bf b3a5 acbe
00000050: ebaf 41bd 9275 063f b7c6 7f3f 938c 353f
00000060: fd1f b83c c29e 91be 4597 0f3f 34cd 4ebe
00000070: 325d f0be 23d4 f4bd 4895 c33e 99aa 903d
00000080: 56bc 533e 23bf 853e 4ccb acbe 4382 483f
00000090: 9004 273e 214c 4cbe 7c0a 263f a648 cdbe
000000a0: 5aa4 3dbe 3e3b 78be 975e 60be 1794 7d3e
000000b0: 98de 99be 468a 89be ed48 543e 7454 893d
000000c0: 6956 7bbe 4d11 3a3e 8227 81be 2f5a b8be
000000d0: 015d 6f3e efe6 95be 80a1 683f 1d5d 03bf
000000e0: ac29 a83e 77f4 1abd 2c39 ef3d 321a 32bf
000000f0: 1a18 a7bd e482 d63d f619 be3e 573b 76be
00000100: 246b 5e3e 0ae0 a83d 9bac 753d 3f09 e1be
00000110: 1d49 a3be ebaa 0bbf c49b 653f f84e 92be
00000120: 37f8 713e e9bd 583e ec4a 8cbe 4b9a 9c3e
00000130: 4104 283f 5b09 10be 156d 743f 591e 02be
00000140: c13a 4bbf 5057 08bf 184f 983e 170e c03a
00000150: b08d d3bd de99 8bbd 1a5e 54bf 9460 833e
00000160: e675 843e a3c5 0d3f 4b9d 1abf 6148 8cbe
00000170: de1a 893e e6de a6be 32fa 3cbe 8a85 533e
00000180: 3727 febc 0edd 1abf e823 68bf 8f01 ae3d
00000190: 0c12 0e3e c424 47bd 57ba 91be 8a0f 5e3e
000001a0: c431 44be f21a 92be 2207 04bf a16c b93e
000001b0: 7394 1f3f d5a6 473f 3d4a db3e 1196 2bbe
000001c0: b42e d0be f57b 89bc acf7 38be fa9b 2fbd
000001d0: 1818 2dbf 269b ba3d aa41 9cbd 11a9 d33d
000001e0: d41b f9be 5d86 aa3e 7738 00bf e5fa a83e
000001f0: 15ea adbc df47 283e 2b22 813e cd0a 973e
00000200: fb57 5abf 2f87 a23e 4c3c 7b3f 9fc4 e23e
00000210: 93bc 233f ac31 fd3e 141a 493e fd4f 293f
00000220: d73e 36bf 8c44 343f a96e cf3e 4c01 913e
00000230: ad3b 063e 425d bfbe d9eb 993c 96c3 413e
00000240: a105 2a3e be6e 233f 7f6a ad3e 1d1e 07bf
00000250: 523c ef3c 8775 c4bc 3da9 8c3f e0fd dabe
00000260: 8217 b53d 4df2 9cbe c1e8 50bd f6b0 24bf
00000270: ce88 c4be 2e34 4c3e fa24 17be 56c1 993f
00000280: 876f 81be 43ef 09be 4b3a b6be 755d 3cbf
00000290: 3347 abbe b09f c83e 24ef dbbe ce57 653e
000002a0: aab1 793f cee4 19be 19a7 403e abee 473e
000002b0: 82a2 cc3e a146 723e 8cf4 003f 5f4e 27be
000002c0: a30b cfbd 9c99 003d af64 e2be 061c c5be
000002d0: fc4c d5be 2054 873e 34dc b6be d3fd 59be
000002e0: dd15 9a3e f329 9dbe 6d73 873e ce26 3b3f
000002f0: 1f50 a1bd 07c0 333f 5c28 ccbe f3ce b5bd
00000300: 390e dabd 8e60 833e ecb7 bb3d fa58 723e
00000310: 0d49 6fbe 278e 193e 6d9a e93e 038c 4a3e
00000320: 6132 e03e 6c2d 9e3e 4052 e93e 332d 833e
00000330: d099 55be 4348 69be 862a 293e 560a a33d
00000340: e9cb 5abe b9bd 9abe e793 89be 9a42 9bbd
00000350: 935d ea3c 1671 493e 6a1e 2f3e 03dd 103f
00000360: 634f c9bb aac0 c53d 8cd3 083e 0c51 9a3e
00000370: 7e1a d8bd 5d1c 643e a871 8f3d 9582 993e
00000380: 06fa 3cbe 8d92 003f e036 8a3e b3d5 f13c
00000390: 6ec8 99bd e5a9 5d3e 0eae fc3e 26d4 9dbe
000003a0: d371 083d 322a c03e 9572 95be defe 8fbe
000003b0: c2a3 80be 83ec 3fbe 2054 3abc 26b2 f63e
000003c0: 8d9b 403e 0bbd 5d3d 4514 9f3d 5f59 37bd
000003d0: b270 47bf 8839 8abf 9dc2 d1bd 88f1 ac3e
000003e0: 3d88 bfbe 277d cb3e 9dec b8be a68d c33e
000003f0: 10a9 f33e cf04 843e 6a85 5bbe c079 27be

signal_classifier.stem.0.0.bias f4 [32]
0.2632173 -0.021094682 -0.28365254 0.046534177 0.20150994 0.000112859685 -0.30971518 -0.17601155
0.0055070706 -0.22918758 0.01728428 -0.15595265 0.1956069 0.14715381 -0.19843587 0.16643105
-0.22599871 -0.19575417 -0.28114945 -0.182236 0.09500194 0.07573316 0.26578873 0.06646121
-0.053357676 -0.14894132 -0.2482104 0.2204968 0.19951227 0.20569305 -0.30048996 -0.06155482
00000000: 6bc4 863e c1ce acbc e83a 91be 9f9a 3e3d
00000010: 9f58 4e3e 15af ec38 fd92 9ebe 5f3c 34be
00000020: a874 b43b 26b0 6abe c397 8d3c 0db2 1fbe
00000030: 2d4d 483e 7daf 163e c632 4bbe e76c 2a3e
00000040: 356c 67be c873 48be d2f2 8fbe 139c 3abe
00000050: 6190 c23d fd19 9b3d 7615 883e d11c 883d
00000060: 948d 5abd 1384 18be de2a 7ebe eac9 613e
00000070: f24c 4c3e 33a1 523e d2d9 99be e820 7cbd

signal_classifier.stem.0.1.weight f4 [32]
1.0240341 0.9887985 0.98949254 0.98564106 0.9822776 1.0111237 0.97042745 0.9784789
0.9919443 0.99550325 1.0226985 1.0045904 1.017689 1.0158982 0.9902003 1.0088245
1.0261271 1.0049403 1.0097164 1.0040258 1.0004901 1.0119139 0.96916264 1.0297537
0.988164 1.0081561 0.9877362 0.99449605 0.9805121 1.0092958 0.9848901 1.0208403
00000000: 8d13 833f e621 7d3f 624f 7d3f f952 7c3f
00000010: 8b76 7b3f 806c 813f ef6d 783f 987d 7a3f
00000020: 10f0 7d3f 4dd9 7e3f c9e7 823f 6b96 803f
00000030: a243 823f f408 823f c47d 7d3f 2921 813f
00000040: 2258 833f e2a1 803f 633e 813f eb83 803f
00000050: 0f10 803f 6586 813f 0b1b 783f f8ce 833f
00000060: 51f8 7c3f 420b 813f 48dc 7c3f 4b97 7e3f
00000070: d702 7b3f 9b30 813f c221 7c3f e5aa 823f

signal_classifier.stem.0.1.bias f4 [32]
0.01095266 -0.00094169116 -0.007853262 0.023659732 -0.0026336634 -0.0023143662 0.040010728 -0.0075432598
-0.021796087 -0.0005106787 -0.013380626 0.01213826 -0.009451438 0.023971254 -0.0009126315 0.0025232972
-0.0053172857 0.004885915 0.003938013 0.0022836924 0.020651873 -0.040442657 -0.0034874408 0.0076835244
0.005007528 -0.00857634 -0.023607662 -0.025377758 0.0003485361 -0.032255813 0.02371743 0.0048215706
00000000: c972 333c d3db 76ba f8aa 00bc 0ed2 c13c
00000010: 8a99 2cbb 9fac 17bb 4ae2 233d 732d f7bb
00000020: b58d b2bc 11df 05ba 6a3a 5bbc 8ddf 463c
00000030: 34da 1abc 5d5f c43c aa3d 6fba e75d 253b
00000040: a03c aebb 071a a03b 730a 813b 00aa 153b
00000050: 1e2e a93c 33a7 25bd 8c8d 64bb 13c6 fb3b
00000060: 3016 a43b c783 0cbc db64 c1bc 04e5 cfbc
00000070: b9bb b639 ac1e 04bd 0e4b c23c 44fe 9d3b

signal_classifier.stem.0.1.running_mean f4 [32]
0.26505017 -0.020862415 -0.28347462 0.045552284 0.20091458 0.0003786166 -0.30956528 -0.17639095
0.004772128 -0.2296556 0.017536856 -0.15527341 0.19588098 0.1465424 -0.19811024 0.16467564
-0.22642024 -0.19594091 -0.2817884 -0.1821779 0.09420782 0.07501384 0.26599562 0.06505054
-0.05320018 -0.1475581 -0.24770164 0.22079141 0.20086865 0.205276 -0.300811 -0.061067406
00000000: a8b4 873e a8e7 aabc 9623 91be 0895 3a3d
00000010: 8dbc 4d3e 0f81 c639 577f 9ebe d49f 34be
00000020: 835f 9c3b d62a 6bbe 74a9 8f3c feff 1ebe
00000030: 0695 483e 360f 163e 69dd 4abe bba0 283e
00000040: b5da 67be bca4 48be 9246 90be d88c 3abe
00000050: 08f0 c03d dba0 993d 9430 883e 3839 853d
00000060: 6fe8 59bd 7819 17be 80a5 7dbe 2517 623e
00000070: 83b0 4d3e df33 523e e603 9abe d121 7abd

signal_classifier.stem.0.1.running_var f4 [32]
0.2827989 0.23520228 0.3391534 0.23712146 0.21580197 0.17319214 0.33625707 0.4005665
0.31538436 0.20502278 0.1695296 0.3478538 0.35933727 0.36238074 0.41968971 0.2659647
0.14255652 0.23375179 0.13954115 0.09550069 0.11758457 0.12527539 0.36139143 0.42321405
0.19687559 0.082984366 0.31488737 0.6489656 0.3568817 0.16164592 0.74505836 0.3214126
00000000: 04cb 903e ded8 703e 84a5 ad3e f8cf 723e
00000010: 31fb 5c3e 4859 313e e329 ac3e 0d17 cd3e
00000020: 0f7a a13e 7ef1 513e 2b99 2d3e e519 b23e
00000030: 0efb b73e f889 b93e 92e1 d63e 862c 883e
00000040: 56fa 113e a15c 6f3e e0e3 0e3e de95 c33d
00000050: 2ed0 f03d 3148 003e 4c08 b93e 83af d83e
00000060: c199 493e b5f3 a93d eb38 a13e 9c22 263f
00000070: 33b9 b63e 8286 253e 25bc 3e3f 3190 a43e

signal_classifier.stem.1.0.weight f4 [32, 32, 3]
-0.023357242 0.100317135 0.15623549 0.03662788 -0.025010165 -0.013974132 -0.07036174 0.14683187
0.14670779 -0.29989937 0.0015965373 0.104130544 0.13659503 -0.05937432 0.17221738 -0.02595839
-0.013612417 0.006459143 0.07309162 -0.1060216 -0.17694953 -0.12362329 0.08474659 0.16189441
0.05199816 0.024011595 -0.055197045 0.24038967 -0.13789715 -0.04137524 -0.048599083 -0.11691353
0.1245839 0.15909253 -0.006752434 -0.07080952 -0.2847453 0.13333763 -0.1370907 0.0707773
0.026435494 0.07960436 -0.18559581 -0.014858636 0.0015352952 0.23882337 0.2909285 0.22326885
0.02561993 -0.12978424 0.13118814 0.22284669 0.028876262 -0.109628886 -0.292285 -0.13790692
0.22865272 0.08916925 0.19476031 -0.050113637 -0.16699 -0.15334176 -0.41679338 -0.12982434
0.18545456 -1.9464203e-05 0.130747 0.097507946 0.00900129 0.17400302 0.17321716 0.13391474
-0.3482186 0.3000408 -0.042537477 0.06518819 0.18908685 -0.14667709 -0.11319694 -0.032430872
0.009194333 -0.06654459 0.10414903 -0.13455963 -0.07485384 -0.011104995 -0.065654114 0.21038477
0.20642357 -0.22151512 -0.083263546 0.12642282 -0.11840882 0.00089455314 0.09679578 -0.13976379
-0.122563675 0.25181946 0.033913936 -0.2373214 -0.025728444 0.1007311 -0.006129681 -0.13336429
0.08084434 -0.22515069 0.11168662 0.08609789 -0.08840707 -0.10901225 -0.008628861 0.06333145
-0.13064219 -0.061522763 -0.09430073 0.06647053 0.046848018 0.4039264 -0.10466661 -0.20963565
-0.09824429 -0.21868621 0.26197824 0.09150785 -0.015405959 0.10856754 0.10100259 -0.15235285
0.061053917 -0.23055077 0.08971367 -0.10512498 0.037210844 0.07029758 0.054730274 0.08362752
-0.106333144 0.22948313 0.11671641 -0.08509951 0.044303462 0.07652912 0.03661139 -0.11240844
-0.20519917 0.051728226 0.0680267 -0.04842644 -0.08560551 0.4375323 -0.053685375 -0.31247923
0.2143424 0.24700323 -0.14404137 -0.12688683 0.016468287 0.118794896 0.013724345 0.08162181
-0.03948968 -0.111448295 0.020687044 0.045355488 -0.032928374 0.18644501 -0.011924972 0.11792888
-0.0699175 -0.0098424805 0.22104311 0.1942108 -0.22123732 -0.23659918 0.17918065 0.010334146
-0.0035121194 0.11494858 -0.16012707 0.19868436 -0.15301666 0.096814856 0.16560756 -0.20372419
0.023650669 -0.06000928 -0.21748501 -0.086360864 -0.18639831 0.1474495 0.12645397 0.001974587
-0.22487366 -0.06156675 0.018869754 0.026205476 -0.12754832 -0.08612633 -0.036864944 -0.061196968
0.13173658 -0.0028870031 -0.2484166 -0.20331886 0.12088255 0.027985293 -0.07255059 -0.12335432
0.15318176 0.16265006 -0.3229636 0.17380597 -0.08335534 0.07367347 0.06350605 -0.17162137
0.1532481 0.19692859 -0.17793658 0.07853086 0.2375653 0.2449964 -0.1864297 -0.37932634
-0.00034362916 0.083111756 -0.13891141 0.20095693 0.08635676 0.07396256 -0.06675237 -0.030227581
-0.1435078 0.27224436 -0.13978618 -0.09297688 0.1820946 -0.14437038 -0.10894484 0.15430562
-0.14501062 0.10957482 0.077385396 -0.026529253 0.053624075 -0.27583036 0.073623344 -0.026584128
0.066632316 0.18271245 -0.052112076 0.1720428 -0.0222532 -0.057526745 -0.034629695 -0.06719997
00000000: b057 bfbc 1273 cd3d 32fc 1f3e 1e07 163d
00000010: 1ee2 ccbc c2f3 64bc d119 90bd 185b 163e
00000020: 913a 163e 698c 99be e742 d13a 6542 d53d
00000030: 91df 0b3e 7d32 73bd c159 303e b1a6 d4bc
00000040: 9d06 5fbc 38a7 d33b 0fb1 953d da21 d9bd
00000050: 4232 35be 352e fdbd 9f8f ad3d a6c7 253e
00000060: 06fc 543d f7b3 c43c 4c16 62bd b628 763e
00000070: e934 0dbe 1579 29bd d50f 47bd 5c70 efbd
00000080: d825 ff3d 27e9 223e 8643 ddbb 9504 91bd
00000090: 23ca 91be a989 083e 8161 0cbe b0f3 903d
000000a0: 408f d83c 9c07 a33d d40c 3ebe a371 73bc
000000b0: f53b c93a 1d8e 743e 95f4 943e 97a0 643e
000000c0: e3e0 d13c 29e6 04be 2f56 063e ec31 643e
000000d0: e98d ec3c 1c85 e0bd 61a6 95be 7937 0dbe
000000e0: f023 6a3e 5e9e b63d 3f6f 473e f543 4dbd
000000f0: 6dff 2abe 9f05 1dbe f165 d5be acf0 04be
00000100: cde7 3d3e 0f47 a3b7 8be2 053e 3fb2 c73d
00000110: 267a 133c d92d 323e d75f 313e f220 093e
00000120: b549 b2be f39e 993e c73b 2ebd 6381 853d
00000130: fc9f 413e 8532 16be ccd3 e7bd 3cd6 04bd
00000140: d4a3 163c 8848 88bd 164c d53d 00ca 09be
00000150: f84c 99bd baf1 35bc aa75 86bd 1b6f 573e
00000160: b360 533e dcd4 62be 1486 aabd fc74 013e
00000170: 5380 f2bd 7280 6a3a de3c c63d 3d1e 0fbe
00000180: aa02 fbbd 7bee 803e 57e9 0a3d 6204 73be
00000190: 75c4 d2bc 1b4c ce3d 7edb c8bb a690 08be
000001a0: b891 a53d e78d 66be f4bb e43d 1754 b03d
000001b0: c40e b5bd d141 dfbd 1160 0dbc ebb3 813d
000001c0: 11c7 05be 4bff 7bbd be20 c1bd b421 883d
000001d0: b5e3 3f3d 71cf ce3e 735b d6bd baaa 56be
000001e0: 4d34 c9bd 47ef 5fbe 0322 863e 7868 bb3d
000001f0: 4769 7cbc a958 de3d 72da ce3d 6302 1cbe
00000200: ac13 7a3d 8015 6cbe cdbb b73d c44b d7bd
00000210: 666a 183d 2df8 8f3d da2c 603d e844 ab3d
00000220: 31c5 d9bd a0fd 6a3e 0309 ef3d a748 aebd
00000230: 8c77 353d 4dbb 9c3d d3f5 153d 6536 e6bd
00000240: bb1f 52be fae0 533d 9551 8b3d ce5a 46bd
00000250: f151 afbd 3c04 e03e 32e5 5bbd 47fd 9fbe
00000260: 937c 5b3e 6aee 7c3e 957f 13be 9fee 01be
00000270: 80e8 863c bd4a f33d 13dc 603c 5629 a73d
00000280: eebf 21bd 013f e4bd e077 a93c adc6 393d
00000290: e7df 06bd 71eb 3e3e f560 43bc b284 f13d
000002a0: e830 8fbd 5b42 21bc 2059 623e 32df 463e
000002b0: 098c 62be 0e47 72be 227b 373e 8d50 293c
000002c0: 962b 66bb 296a eb3d 5af8 23be ea73 4b3e
000002d0: 66b0 1cbe de46 c63d 0795 293e 139d 50be
000002e0: 0cbf c13c 4acc 75bd 64b4 5ebe f7dd b0bd
000002f0: 33df 3ebe 00fd 163e 267d 013e 1368 013b
00000300: 4845 66be 6b2d 7cbd be94 9a3c deac d63c
00000310: 079c 02be 0063 b0bd b2ff 16bd aca9 7abd
00000320: f4e5 063e e033 3dbb ec60 7ebe d232 50be
00000330: 4591 f73d 6a41 e53c 6795 94bd 31a1 fcbd
00000340: aedb 1c3e bd8d 263e 7c5b a5be 31fa 313e
00000350: 34b6 aabd 1ee2 963d 760f 823d 83bd 2fbe
00000360: 12ed 1c3e a6a7 493e 0235 36be cad4 a03d
00000370: 5144 733e 56e0 7a3e 6de7 3ebe 1037 c2be
00000380: 2029 b4b9 7f36 aa3d cb3e 0ebe a7c7 4d3e
00000390: d0db b03d af79 973d 77b5 88bd d59f f7bc
000003a0: b5f3 12be 9d63 8b3e 1c24 0fbe aa6a bebd
000003b0: 0277 3a3e d4d5 13be 791e dfbd 4b02 1e3e
000003c0: aa7d 14be c368 e03d 3c7c 9e3d e053 d9bc
000003d0: eba4 5b3d a339 8dbe d6c7 963d f5c6 d9bc
000003e0: 8676 883d f918 3b3e 7973 55bd fd2b 303e
000003f0: 584c b6bc 2aa1 6bbd ded7 0dbd 23a0 89bd

signal_classifier.stem.1.0.bias f4 [32]
0.06457516 0.04896466 -0.09041851 -0.066987604 0.017416677 0.09946718 0.0771869 -0.10149178
-0.04956172 -0.02035281 -0.087938085 -0.071335904 0.060835995 -0.02255291 0.091537334 0.07860356
0.10618858 -0.09620771 0.029310517 0.04172265 0.06980872 -0.10027172 -0.087842196 0.08727339
0.104902945 -0.010119411 -0.07400689 -0.0901987 -0.049110238 -0.08022971 0.03469577 -0.023655059
00000000: fb3f 843d 2b8f 483d 572d b9bd cc30 89bd
00000010: 6bad 8e3c 73b5 cb3d 2a14 9e3d ecda cfbd
00000020: 3b01 4bbd f0ba a6bc e218 b4bd 8f18 92bd
00000030: 2a2f 793d e1c0 b8bc ed77 bb3d e7fa a03d
00000040: 6679 d93d 8c08 c5bd 9c1c f03c 5fe5 2a3d
00000050: e0f7 8e3d 425b cdbd 9ce6 b3bd 64bc b23d
00000060: 5bd7 d63d e3cb 25bc ed90 97bd 19ba b8bd
00000070: d127 49bd 794f a4bd 271d 0e3d 41c8 c1bc

signal_classifier.stem.1.1.weight f4 [32]
1.0027902 0.98195505 0.98493624 1.0248743 0.9781925 0.983996 1.0148959 0.97713774
1.0024853 1.0137976 1.0285336 1.0138507 0.99091244 1.0301075 0.98854 1.0165133
1.018488 0.97531796 1.0012238 0.99316204 0.9948628 0.993789 0.9703528 1.0334231
1.0001576 1.0091434 1.0005225 0.9661393 0.9744879 1.0190998 1.0057412 0.9894195
00000000: 6e5b 803f 6861 7b3f c824 7c3f 152f 833f
00000010: d36a 7a3f 29e7 7b3f 1ce8 813f b325 7a3f
00000020: 7051 803f 1fc4 813f fda6 833f dcc5 813f
00000030: 70ac 7d3f 90da 833f f510 7d3f 1c1d 823f
00000040: d15d 823f 70ae 793f 1a28 803f de3f 7e3f
00000050: 54af 7e3f f568 7e3f 0b69 783f 3547 843f
00000060: 2a05 803f 9c2b 813f 1f11 803f e854 773f
00000070: 0a78 793f dd71 823f 21bc 803f 994a 7d3f

signal_classifier.stem.1.1.bias f4 [32]
-0.02633947 0.017287875 0.016229076 0.033960965 -0.033180118 -0.021126723 0.038497068 -0.012663757
0.011056456 0.02614136 0.046086993 -0.017100465 0.0061971275 -0.0016017824 -0.048895113 0.028984757
-0.010871518 0.04008256 -0.02045072 -0.0010687556 0.013661129 -0.029903008 0.0021907706 0.04208729
0.00958529 0.0035129178 0.019989964 -0.006345072 -0.001301521 0.0070916596 -0.0016152147 -0.021266071
00000000: dfc5 d7bc 4d9f 8d3c d7f2 843c a71a 0b3d
00000010: e0e7 07bd f311 adbc 1aaf 1d3d a67b 4fbc
00000020: 2326 353c 6826 d63c b7c5 3c3d 4616 8cbc
00000030: 4611 cb3b e6f2 d1ba 3e46 48bd 7171 ed3c
00000040: 741e 32bc 9c2d 243d 4588 a7bc 7d15 8cba
00000050: eed2 5f3c 27f7 f4bc 0893 0f3b b963 2c3d
00000060: 9f0b 1d3c fb38 663b fec1 a33c 52ea cfbb
00000070: cc97 aaba 2761 e83b 9db5 d3ba 2f36 aebc

signal_classifier.stem.1.1.running_mean f4 [32]
0.12275805 0.08101931 -0.2090138 -0.17563416 -0.14260618 0.028572807 0.17710885 -0.13988818
-0.13434097 0.08490244 0.051095963 -0.12676623 0.10279643 -0.021693813 0.10644437 0.21748038
0.046711538 0.11668795 0.039567426 0.22696985 -0.005563471 -0.18410988 -0.16653685 0.10576256
-0.064827934 0.06191361 0.069781646 -0.14664175 0.034235552 0.042770285 -0.026702974 0.02211584
00000000: 9368 fb3d 74ed a53d b707 56be 71d9 33be
00000010: 5b07 12be 8511 ea3c 065c 353e d93e 0fbe
00000020: ae90 09be 55e1 ad3d 004a 513d 02cf 01be
00000030: ef86 d23d 39b7 b1bc 81ff d93d 2db3 5e3e
00000040: 9954 3f3d 18fa ee3d 7411 223d c96a 683e
00000050: c74d b6bb 4d87 3cbe a388 2abe 0b9a d83d
00000060: 82c4 84bd 2099 7d3d aee9 8e3d 4129 16be
00000070: 943a 0c3d e52f 2f3d 32c0 dabc 472c b53c

signal_classifier.stem.1.1.running_var f4 [32]
0.760374 0.7471625 0.80229694 0.7718137 1.4090207 0.88099056 0.78302425 0.82417494
0.90831804 1.0390141 0.85915947 0.48192996 0.6243188 1.1731668 0.61142915 1.4568584
0.7751563 1.6963459 0.41182142 1.4962347 0.71514636 0.97965604 0.7448178 0.6532581
1.7916439 0.784976 1.3161104 0.99247485 0.88112223 1.3030411 0.61882967 0.7107574
00000000: dfa7 423f 0b46 3f3f 5563 4d3f 9595 453f
00000010: ca5a b43f 9988 613f 4774 483f 21fd 523f
00000020: 8887 683f 6afe 843f e0f1 5b3f 86bf f63e
00000030: 5bd3 1f3f 542a 963f 9f86 1c3f 567a ba3f
00000040: a570 463f dd21 d93f 42da d23e 9e84 bf3f
00000050: d513 373f bdca 7a3f 61ac 3e3f ec3b 273f
00000060: 9654 e53f 30f4 483f 4e76 a83f d512 7e3f
00000070: 3a91 613f 0dca a63f 9f6b 1e3f 32f4 353f

signal_classifier.stem.2.0.weight f4 [32, 32, 3]
-0.083718926 -0.124040194 0.23184073 0.11748865 -0.026542205 0.022326436 0.1191234 -0.22048075
-0.025590688 -0.023953069 -0.040944364 -0.025607543 -0.05895441 0.23319496 0.14964958 0.08700724
-0.12681648 -0.14437628 -0.040367357 0.06476255 -0.033514947 0.054660182 -0.0038294948 -0.10349518
-0.21063982 -0.14397052 0.21464942 0.09956523 0.19034192 0.22949573 0.12990123 -0.26202375
0.017357765 0.094342135 0.22718178 0.03945168 0.3512601 0.1532265 -0.00021374843 0.15115903
-0.08197283 -0.058564916 -0.20269027 0.07915236 0.07336176 0.14621946 -0.097363494 0.009464526
0.050417356 0.14330481 0.24022023 0.055509664 0.18504728 -0.17910302 -0.22786938 -0.24429639
-0.05314389 0.044349592 -0.17652248 -0.081198074 0.12355345 0.016232163 -0.35934815 0.123238474
-0.17139512 -0.022888388 -0.12723362 -0.07924505 -0.10976442 -0.10046459 0.08675917 0.2689501
-0.00031407754 -0.03387094 -0.009188304 0.06023231 0.03164143 0.023030309 -0.1668385 0.12524588
0.13994731 -0.05105246 -0.015048884 0.16802956 -0.14213139 0.19816302 -0.07392015 -0.19600281
-0.0871234 0.07611542 0.033906005 0.010744236 -0.2408616 -0.12778677 -0.16952291 0.108526856
8.9077774e-05 0.20485477 0.27744955 -0.03272591 -0.07521475 -0.07049374 0.011566926 -0.05940744
-0.13557091 -0.07551262 0.21725903 0.18780221 -0.13073249 -0.04269955 0.152215 -0.0991483
-0.09549971 -0.0099294875 0.009209083 0.011322357 -0.079140715 0.06039649 -0.032611497 -0.14368051
0.013961861 0.11507924 0.28783098 0.10585354 0.12139858 0.032803807 0.10067941 -0.024378179
-0.05403202 0.15639693 -0.14001536 0.046628434 0.06044589 -0.07865639 -0.04581976 0.21183419
-0.18119916 -0.07567282 0.08615557 -0.118325315 -0.09718363 0.19786404 -0.3663842 -0.044274326
-0.24406284 0.17222305 0.04631867 0.12027982 0.029348698 -0.026022593 0.15169325 0.073203035
0.08661655 0.11395116 0.034917954 -0.06900094 -0.08031364 0.16108388 0.07480547 0.06644775
0.026808346 -0.14343233 -0.14717838 0.040267516 -0.072445326 0.2661215 -0.15563978 -0.036071632
0.3454293 0.3194718 -0.16537137 0.025284823 -0.043952525 0.07410535 -0.037006307 -0.29119992
-0.074059986 0.12815143 -0.2604083 -0.012688164 0.15236044 0.26819888 0.19711001 0.18727252
0.02406089 -0.15334928 0.26118222 0.15750554 0.026056683 -0.06709169 -0.07027916 -0.03279829
0.11550418 0.23569016 0.087976046 -0.15112373 -0.021398626 -0.033708952 -0.060407244 0.007080862
-0.12724319 -0.3083453 -0.07701704 -0.01949424 0.008337372 0.13477124 -0.0074826367 -0.09494335
-0.090729415 -0.0038291153 -0.201079 0.08136405 -0.10554779 -0.13370168 0.12776491 0.12187444
0.062558465 -0.039294742 0.2589272 0.1722091 -0.07744735 0.07304462 0.05424927 -0.05403068
-0.040376745 -0.3337658 0.09244822 -0.11404045 -0.33158284 0.05510512 0.14220643 0.40076223
-0.18762948 -0.054610625 -0.17201199 -0.026000677 -0.20999232 0.006962039 0.10145953 0.047052827
0.19252121 0.07521044 0.21092273 -0.16122086 -0.120099574 -0.060773443 0.014020061 -0.45424977
0.29827735 0.05509809 -0.22544773 -0.004647391 0.070091434 -0.009451289 -0.00993285 0.10507448
00000000: d474 abbd c908 febd a867 6d3e e49d f03d
00000010: 0a6f d9bc eee5 b63c f8f6 f33d b5c5 61be
00000020: 90a3 d1bc 3a39 c4bc 47b5 27bd e9c6 d1bc
00000030: 2e7a 71bd a9ca 6e3e bd3d 193e da30 b23d
00000040: 2edc 01be 60d7 13be 3e58 25bd 3aa2 843d
00000050: f846 09bd 5be3 5f3d 43f8 7abb 48f5 d3bd
00000060: f7b1 57be 026d 13be 0fcd 5b3e dbe8 cb3d
00000070: fee8 423e ee00 6b3e d404 053e fa27 86be
00000080: df31 8e3c 7336 c13d 57a2 683e 1698 213d
00000090: 5dd8 b33e 68e7 1c3e a821 60b9 6fc9 1a3e
000000a0: 5fe1 a7bd c4e1 6fbd 0a8e 4fbe a21a a23d
000000b0: b13e 963d 8eba 153e 8366 c7bd 1911 1b3c
000000c0: 6e82 4e3d 7fbe 123e 4bfc 753e 1a5e 633d
000000d0: 097d 3d3e c866 37be 9756 69be d528 7abe
000000e0: 68ad 59bd eba7 353d 4fc2 34be 2d4b a6bd
000000f0: 9709 fd3d 50f9 843c 7bfc b7be 7464 fc3d
00000100: 3482 2fbe 6e80 bbbc 8849 02be 3b4b a2bd
00000110: 2bcc e0bd 61c0 cdbd cbae b13d d4b3 893e
00000120: c6aa a4b9 41bc 0abd 8a8a 16bc 28b6 763d
00000130: 729a 013d 0faa bc3c b6d7 2abe 7540 003e
00000140: 594e 0f3e 621c 51bd 988f 76bc f10f 2c3e
00000150: e48a 11be 3feb 4a3e 7363 97bd f6b4 48be
00000160: c16d b2bd 67e2 9b3d 06e1 0a3d 9808 303c
00000170: 6ca4 76be 89da 02be 6a97 2dbe 5443 de3d
00000180: 44cf ba38 73c5 513e de0d 8e3e 9b0b 06bd
00000190: 310a 9abd 065f 90bd 3483 3d3c 3755 73bd
000001a0: 1ad3 0abe 5ca6 9abd 2779 5e3e 394f 403e
000001b0: bdde 05be b9e5 2ebd 40de 1b3e 440e cbbd
000001c0: 5a95 c3bd 4aaf 22bc b2e1 163c 6881 393c
000001d0: 8714 a2bd 4f62 773d a293 05bd fc20 13be
000001e0: 4ac0 643c aaae eb3d 955e 933e bec9 d83d
000001f0: d29f f83d 495d 063d 0231 ce3d bfb4 c7bc
00000200: ae50 5dbd 8426 203e 3060 0fbe 75fd 3e3d
00000210: 1c96 773d 9a16 a1bd 80ad 3bbd 10eb 583e
00000220: 468c 39be 5afa 9abd 5572 b03d 8b54 f2bd
00000230: 3608 c7bd df9c 4a3e b696 bbbe ff58 35bd
00000240: 9ceb 79be 3d5b 303e a5b8 3d3d 4455 f63d
00000250: ae6c f03c 552d d5bc 7a55 1b3e 79eb 953d
00000260: 0564 b13d 3a5f e93d 2106 0f3d 5d50 8dbd
00000270: 7a7b a4bd 2cf3 243e 9c33 993d c215 883d
00000280: 2d9d db3c eddf 12be eeb5 16be 8def 243d
00000290: 375e 94bd 1441 883e 0960 1fbe d9bf 13bd
000002a0: 1cdc b03e cf91 a33e 1d57 29be 1e22 cf3c
000002b0: 9007 34bd 8cc4 973d ed93 17bd 2818 95be
000002c0: c3ac 97bd 213a 033e 3d54 85be 04e2 4fbc
000002d0: 6004 1c3e 5d51 893e 35d7 493e 5ec4 3f3e
000002e0: 581b c53c 9807 1dbe adb9 853e 2249 213e
000002f0: d374 d53c 5e67 89bd 85ee 8fbd 8057 06bd
00000300: 758d ec3d c358 713e c92c b43d 2ec0 1abe
00000310: 2c4c afbc 6612 0abd 966d 77bd 9306 e83b
00000320: 0a4c 02be 6fdf 9dbe 1cbb 9dbd 62b2 9fbc
00000330: 7999 083c 7901 0a3e e830 f5bb a971 c2bd
00000340: 58d0 b9bd e5f1 7abb a7e7 4dbe 32a2 a63d
00000350: 7129 d8bd 18e9 08be ced4 023e 4e99 f93d
00000360: a71e 803d 86f3 20bd 1b92 843e 9557 303e
00000370: b79c 9ebd 6b98 953d 7c34 5e3d 464f 5dbd
00000380: 1662 25bd 5ae3 aabe 7e55 bd3d 0a8e e9bd
00000390: 3ac5 a9be e8b5 613d 909e 113e b530 cd3e
000003a0: f121 40be 64af 5fbd e923 30be 5fff d4bc
000003b0: 3a08 57be d121 e43b 04ca cf3d 77ba 403d
000003c0: 4824 453e ee07 9a3d 21fc 573e 1517 25be
000003d0: c4f6 f5bd 93ed 78bd 66b4 653c 6d93 e8be
000003e0: cfb7 983e 89ae 613d c5db 66be 2449 98bb
000003f0: 198c 8f3d 94d9 1abc 64bd 22bc 4a31 d73d

signal_classifier.stem.2.0.bias f4 [32]
0.03922307 -0.007762325 -0.09151699 -0.006651669 -0.098650254 0.07407132 -0.05621201 -0.05347825
0.017346783 0.06786146 0.048884958 -0.098029226 6.547253e-05 -0.005572128 -0.0011616009 0.07133456
-0.056920476 0.04423607 0.060374107 -0.012613896 0.076098606 -0.05634663 0.03891886 -0.04074992
-0.080160014 -0.093546465 0.04603114 -0.059254803 -0.023800237 0.083980635 -0.027274221 -0.067390464
00000000: 5fa8 203d 1a5b febb 426d bbbd 3ef6 d9bb
00000010: 2509 cabd b4b2 973d 913e 66bd 020c 5bbd
00000020: d71a 8e3c f3fa 8a3d 983b 483d 8cc3 c8bd
00000030: 4c4e 8938 6696 b6bb dc40 98ba db17 923d
00000040: 7225 69bd e230 353d d74a 773d 84aa 4ebc
00000050: 96d9 9b3d b9cb 66bd 6269 1f3d 63e9 26bd
00000060: ef2a a4bd 4a95 bfbd 268b 3c3d 2ab5 72bd
00000070: b7f8 c2bc 0afe ab3d 306e dfbc 0304 8abd

signal_classifier.stem.2.1.weight f4 [32]
0.9798977 1.0138822 1.0163895 1.0044667 0.98535347 0.9733944 1.0084242 0.9857943
0.9969845 0.9895431 1.0050051 1.056943 0.9834485 1.000986 1.0019113 1.0160961
1.0030859 1.0067424 0.98734504 0.99362874 1.0125766 1.0111339 0.98938465 0.99277717
1.0067723 1.0161 0.9960886 0.9768521 1.0151677 1.002472 1.013362 1.016635
00000000: 93da 7a3f e4c6 813f 0d19 823f 5d92 803f
00000010: 2040 7c3f 6030 793f 0b14 813f 045d 7c3f
00000020: 603a 7f3f b252 7d3f 02a4 803f e949 873f
00000030: 48c3 7b3f 4f20 803f a13e 803f 700f 823f
00000040: 1e65 803f efdc 803f a5c2 7c3f 745e 7e3f
00000050: 1c9c 813f d66c 813f 5048 7d3f a526 7e3f
00000060: eadd 803f 910f 823f aaff 7e3f fb12 7a3f
00000070: 04f1 813f 0151 803f d9b5 813f 1821 823f

signal_classifier.stem.2.1.bias f4 [32]
0.005815726 0.032554515 0.024427444 0.007750199 0.019385785 -0.007546215 0.00013478243 0.010003991
0.026292702 0.046722732 0.04842999 0.029010389 0.033254284 0.0060242596 0.028922044 -0.0266841
0.03671146 -0.022895578 0.023917262 0.008712468 -0.020436717 -0.046456814 0.012601452 -0.005049174
-0.0014773572 -0.0021676351 0.011135602 0.03968981 0.03405136 -0.037744824 0.032390177 0.027235517
00000000: d891 be3b e257 053d 101c c83c 62f5 fd3b
00000010: f0ce 9e3c 3d46 f7bb 6254 0d39 c8e7 233c
00000020: cb63 d73c 5660 3f3d 865e 463d 32a7 ed3c
00000030: a535 083d 2767 c53b eced ec3c 9d98 dabc
00000040: c25e 163d 828f bbbc 22ee c33c bdbe 0e3c
00000050: e76a a7bc 8049 3ebd 5276 4e3c 8b73 a5bb
00000060: e2a3 c1ba e20e 0ebb 1a72 363c c891 223d
00000070: 7079 0b3d 519a 1abd 90ab 043d 051d df3c

signal_classifier.stem.2.1.running_mean f4 [32]
0.05089826 0.195721 -0.052436706 -0.28194207 -0.075189404 -0.15842226 -0.48550308 -0.33767155
0.015960354 0.12859006 -0.02062492 -0.48018634 -0.26490706 0.091570035 -0.12203499 0.18188003
0.046316374 0.009935936 0.31146324 0.054607674 0.36303297 -0.09057314 0.2220897 -0.008391762
-0.16139151 0.03687722 0.28450483 -0.036397524 -0.14324091 0.112493284 -0.25868997 -0.42469084
00000000: b27a 503d 166b 483e dfc7 56bd b65a 90be
00000010: e7fc 99bd 7239 22be dc93 f8be 49e3 acbe
00000020: 4abf 823c 1dad 033e 98f5 a8bc fcda f5be
00000030: e6a1 87be 1289 bb3d 7bed f9bd c23e 3a3e
00000040: 3db6 3d3d 56ca 223c 1c78 9f3e 4cac 5f3d
00000050: 75df b93e 697e b9bd 7b6b 633e 9a7d 09bc
00000060: d143 25be 910c 173d 9eaa 913e 9215 15bd
00000070: bfad 12be e162 e63d 0373 84be 1471 d9be

signal_classifier.stem.2.1.running_var f4 [32]
0.50721794 0.9496692 0.925488 1.3082144 1.0105331 2.7840164 4.1117845 2.4971414
0.55546474 1.1561639 0.92275816 4.756895 2.0665777 0.9276653 1.383768 0.9958845
1.1199092 0.79755956 1.4071524 1.2187676 2.396321 0.68831635 2.9975836 0.5462661
0.83820075 0.8615556 4.083554 0.76395357 2.035089 0.81075746 2.4613128 4.6067376
00000000: 09d9 013f 851d 733f c8ec 6c3f 9273 a73f
00000010: 2659 813f 532d 3240 bd93 8340 2ad1 1f40
00000020: f032 0e3f 2efd 933f e139 6c3f 7c38 9840
00000030: cf42 0440 797b 6d3f 4f1f b13f 49f2 7e3f
00000040: 2f59 8f3f dd2c 4c3f 921d b43f 9400 9c3f
00000050: 535d 1940 8035 303f 69d8 3f40 18d8 0b3f
00000060: 5394 563f e88e 5c3f 79ac 8240 7692 433f
00000070: e63e 0240 cd8d 4f3f 2686 1d40 656a 9340

signal_classifier.body.0.layers1.0.weight f4 [16, 32, 1]
0.19038087 0.6424029 0.17798725 0.34981748 0.44559342 0.11677115 0.24746181 -0.17745343
0.10286236 0.13064206 -0.28851923 0.30039525 -0.25639594 0.25859496 -0.25833744 -0.2289682
0.14876747 -0.039137747 0.22278844 -0.114432804 0.13362898 -0.8820043 0.13741532 -0.12383592
-0.035071585 -0.061045155 -0.031066913 0.11531833 0.089453824 -0.22888453 0.49104214 -0.138737
0.041080978 0.36971948 -0.2444966 0.03269566 0.111282535 0.15029053 0.008808827 0.13882433
-0.09611955 -0.10503246 0.057179216 -0.42419264 -0.09388192 -0.03230614 -0.16301095 -0.01663052
0.16405614 0.15019661 -0.2657374 -0.024896152 -0.29195088 0.24322735 0.26509047 0.10369223
0.23621678 -0.09872197 0.22408679 -0.0094869835 0.14393319 -0.11867631 0.4700337 -0.326898
-0.104480155 -0.25822157 0.14080228 0.21176778 -0.11110543 0.025363036 0.023670133 0.14514431
0.082777046 0.12487632 -0.07581191 -0.13085604 -0.28600654 0.30115214 -0.24676293 -0.32076943
0.20223494 0.4213108 -0.029194737 0.46868786 0.22122294 0.11109636 -0.01681667 0.4344105
-0.042819172 -0.17386419 -0.05954475 -0.038376186 -0.19316442 0.38916722 0.07537347 -0.30884713
0.12322774 0.41086054 0.18623519 -0.037550073 0.3932527 0.16164319 -0.24226002 0.43989986
-0.06471639 -0.19777521 0.38707748 -0.065412454 -0.026347395 0.22189452 0.088969424 0.21141566
0.22562908 -0.026391692 0.017342249 0.47384927 -0.0033646082 0.10095354 -0.24127492 -0.08116568
0.13253674 -0.23992646 -0.26216972 -0.6149678 -0.00029801598 0.3025076 0.22704217 0.35823104
0.27250707 0.29558945 0.076020144 -0.08533691 0.43255916 -0.43086708 -0.47959152 -0.08913498
0.08460352 0.16832957 -0.53175724 -0.23322691 -0.20990954 0.121289685 0.09500103 -0.35121363
0.013949567 0.19140282 0.011005244 -0.124452025 -0.43537617 0.40407625 -0.078619055 0.290046
-0.262262 -0.16597748 -0.2732198 0.1542211 -0.18283834 0.50858337 -0.14443292 -0.081294104
0.007904065 -0.05037964 0.1651956 0.15496343 0.030393755 0.52829814 0.2133358 -0.18571627
-0.22729275 0.12638204 0.43465066 -0.25618523 0.5170288 0.09824385 0.44120854 0.116609074
0.026845274 -0.23129793 0.0076414123 -0.09787879 0.003243987 0.18399392 -0.11529371 -0.14078328
-0.2904943 0.01772465 0.13297367 0.35052487 -0.40318093 -0.0025895461 -0.19705907 -0.27342692
-0.22299567 -0.1776531 0.16919875 0.22993356 0.03363183 -0.0962268 -0.35231453 0.1908143
-0.015008049 -0.25277716 0.07589661 -0.17883421 -0.016434437 0.319691 0.16520555 -0.51602983
-0.13688669 -0.15512437 0.54137135 -0.018046793 -0.13791192 -0.13201694 -0.25378293 0.16677003
-0.2174546 -0.23713146 -0.10001203 -0.0018332122 -0.2047069 0.169294 -0.11170372 0.2939046
0.20300642 -0.31028163 -0.36911792 -0.06772502 -0.35039145 0.1320462 0.30141383 0.21251033
0.01912355 -0.0942125 -0.056485873 0.052654352 -0.018733732 -0.065762445 -0.2649549 -0.027660804
-0.3637993 0.17938715 0.02943282 -0.036146734 0.269039 -0.10824543 0.031548504 -0.10762864
0.18310376 -0.22904566 0.1957443 -0.2322033 0.05093533 -0.47712845 0.17280258 -0.30380553
00000000: 34f3 423e 8474 243f 4a42 363e 471b b33e
00000010: d224 e43e b625 ef3d a166 7d3e 5ab6 35be
00000020: 80a9 d23d 08c7 053e cbb8 93be 68cd 993e
00000030: 5446 83be 8f66 843e ce44 84be a476 6abe
00000040: 8056 183e e74e 20bd a722 643e bf5b eabd
00000050: 09d6 083e 09cb 61bf 9ab6 0c3e b09d fdbd
00000060: 39a7 0fbd 7c0a 7abd 0a80 febc 042c ec3d
00000070: 9133 b73d b560 6abe e069 fb3e 1211 0ebe
00000080: 8744 283d df4b bd3e 515d 7abe e2eb 053d
00000090: 19e8 e33d c3e5 193e e652 103c f727 0e3e
000000a0: 54da c4bd 421b d7bd c134 6a3d c72f d9be
000000b0: 2a45 c0bd 7153 04bd 58ec 26be ba3c 88bc
000000c0: 55fe 273e 24cd 193e bc0e 88be 04f3 cbbc
000000d0: 967a 95be 9710 793e f0b9 873e 985c d43d
000000e0: d0e2 713e bf2e cabd 0277 653e 4b6f 1bbc
000000f0: 3963 133e 910c f3bd 42a8 f03e 2d5f a7be
00000100: b1f9 d5bd 9e35 84be 792e 103e a7d9 583e
00000110: 3e8b e3bd 24c6 cf3c dee7 c13c b6a0 143e
00000120: 0387 a93d 28bf ff3d 4643 9bbd 20ff 05be
00000130: 736f 92be 9d30 9a3e 6caf 7cbe e43b a4be
00000140: ad16 4f3e 0db6 d73e cd29 efbc dbf7 ef3e
00000150: 4488 623e 7d86 e33d 1dc3 89bc 0e6b de3e
00000160: 2863 2fbd 7409 32be 32e5 73bd 5930 1dbd
00000170: e5cc 45be ed40 c73e 685d 9a3d 3621 9ebe
00000180: d35e fc3d 505c d23e 70b4 3e3e 1bce 19bd
00000190: 6b58 c93e cb85 253e 0313 78be 8e3a e13e
000001a0: 078a 84bd 9685 4abe 052f c63e f7f6 85bd
000001b0: 7ed6 d7bc 5138 633e 9a35 b63d 597d 583e
000001c0: 4f0b 673e 6433 d8bc 5511 8e3c 5f9c f23e
000001d0: c280 5cbb bbc0 ce3d c610 77be 313a a6bd
000001e0: b6b7 073e 48af 75be 1c3b 86be 886e 1dbf
000001f0: 073f 9cb9 47e2 9a3e be7d 683e 0f6a b73e
00000200: 0c86 8b3e 8057 973e 73b0 9b3d 1ec5 aebd
00000210: 6578 dd3e 9c9a dcbe 058d f5be 678c b6bd
00000220: 9c44 ad3d 965e 2c3e 3e21 08bf 09d3 6ebe
00000230: 87f2 56be ba66 f83d e68f c23d 46d2 b3be
00000240: ba8c 643c 1aff 433e 574f 343c b4e0 febd
00000250: a0e9 debe 15e3 ce3e 0703 a1bd e980 943e
00000260: 3447 86be 00f6 29be 77e3 8bbe 23ec 1d3e
00000270: f939 3bbe 8532 023f 39e6 13be 867d a6bd
00000280: 0d80 013c e25a 4ebd 0929 293e bcae 1e3e
00000290: 53fc f83c 8c3e 073f b374 5a3e 682c 3ebe
000002a0: 6ebf 68be 4b6a 013e 888a de3e b62a 83be
000002b0: 005c 043f 1234 c93d 16e6 e13e bdd0 ee3d
000002c0: 9fea db3c 5dd9 6cbe d064 fa3b ad74 c8bd
000002d0: 1299 543b e768 3c3e 1c1f ecbd 7e29 10be
000002e0: abbb 94be 4933 913c 402a 083e ff77 b33e
000002f0: bb6d cebe 60b5 29bb dac9 49be 9dfe 8bbe
00000300: fa58 64be b2ea 35be 7042 2d3e b473 6b3e
00000310: 88c1 093d 8e12 c5bd 9262 b4be d364 433e
00000320: 52e4 75bc 026c 81be af6f 9b3d 5120 37be
00000330: 83a1 86bc 8aae a33e a52b 293e 881a 04bf
00000340: 062c 0cbe ecd8 1ebe 5097 0a3f ded6 93bc
00000350: c838 0dbe 732f 07be d6ef 81be c3c5 2a3e
00000360: 6bac 5ebe 97d2 72be 1bd3 ccbd 6548 f0ba
00000370: b09e 51be 685b 2d3e ecc4 e4bd aa7a 963e
00000380: eae0 4f3e 3cdd 9ebe 06fd bcbe 6ab3 8abd
00000390: 8266 b3be 1e37 073e ea52 9a3e 4f9c 593e
000003a0: fea8 9c3c 7cf2 c0bd bb5d 67bd 17ac 573d
000003b0: 7c77 99bc 76ae 86bd 2ba8 87be e998 e2bc
000003c0: e743 babe 44b1 373e 191d f13c 990e 14bd
000003d0: 7bbf 893e c8af ddbd 0139 013d 686c dcbd
000003e0: 8d7f 3b3e f28a 6abe 3271 483e b4c6 6dbe
000003f0: 91a1 503d 2e4a f4be 29f3 303e 668c 9bbe

signal_classifier.body.0.layers1.0.bias f4 [16]
0.10686431 -0.09876552 -0.026684793 0.16880101 -0.11034155 0.05340315 -0.050713483 -0.0043445677
-0.021584624 -0.109925516 0.17064092 0.13751245 -0.13517068 -0.1434487 -0.081963055 -0.12384126
00000000: addb da3d 9445 cabd 119a dabc 2cda 2c3e
00000010: c0fa e1bd 43bd 5a3d f1b8 4fbd e05c 8ebb
00000020: 3dd2 b0bc a120 e1bd 7ebc 2e3e 10d0 0c3e
00000030: 2f6a 0abe 37e4 12be 3fdc a7bd 7da0 fdbd

signal_classifier.body.0.layers1.1.weight f4 [16]
1.008056 0.993688 0.96858877 0.99219614 0.97976196 0.98642904 0.95245624 1.0325238
0.99532187 1.0187262 0.98587906 0.9988091 0.99974024 1.0295339 0.95519 1.0192482
00000000: fb07 813f 5662 7e3f 6ff5 773f 9100 7e3f
00000010: aed1 7a3f 9d86 7c3f 2cd4 733f bd29 843f
00000020: 6acd 7e3f 9f65 823f 9262 7c3f f4b1 7f3f
00000030: faee 7f3f c4c7 833f 5587 743f ba76 823f

signal_classifier.body.0.layers1.1.bias f4 [16]
0.014294017 0.03015344 0.043930024 -0.012515259 0.02534852 0.030730646 -0.0486886 0.048431866
-0.003069385 -0.0044468823 -0.039412644 -0.03013654 -0.0144108655 0.0051183514 -0.00417288 0.04615772
00000000: 7431 6a3c 5904 f73c f8ef 333d cd0c 4dbc
00000010: b3a7 cf3c d6be fb3c b36d 47bd 7e60 463d
00000020: bc27 49bb 27b7 91bb 276f 21bd e8e0 f6bc
00000030: 8d1b 6cbc d8b7 a73b a8bc 88bb e10f 3d3d

signal_classifier.body.0.layers1.1.running_mean f4 [16]
0.28912035 -0.06281174 0.0076836143 0.41327578 -0.28674927 0.16800156 -0.17906213 -0.14993614
0.020067196 -0.2409953 -0.04036289 0.13045411 -0.31877908 0.030233935 0.2499114 -0.23922901
00000000: 9507 943e 71a3 80bd d4c6 fb3b e298 d33e
00000010: cdd0 92be 9a08 2c3e 105c 37be dc88 19be
00000020: f663 a43c 79c7 76be 8f53 25bd c395 053e
00000030: 0337 a3be 28ad f73c c6e8 7f3e 73f8 74be

signal_classifier.body.0.layers1.1.running_var f4 [16]
1.4922491 0.3151527 1.2414529 1.005063 0.5762435 0.39734942 0.9275172 1.2950016
0.43605348 0.7350004 0.6034612 0.68103075 0.33461055 1.6345729 0.7131396 0.74155694
00000000: 0502 bf3f b25b a13e eee7 9e3f e8a5 803f
00000010: b284 133f 6271 cb3e c471 6d3f 9dc2 a53f
00000020: 6742 df3e fc28 3c3f 6f7c 1a3f 0858 2e3f
00000030: 1352 ab3e af39 d13f 5190 363f add6 3d3f

signal_classifier.body.0.layers2.0.0.weight f4 [16, 32, 1]
-0.20355256 0.31555158 -0.1353811 -0.54273546 -0.034108814 -0.041558366 0.6801985 -0.00039233465
0.3883183 -0.15836073 0.1766331 0.1162347 -0.1500387 -0.07590937 0.0068018516 0.5753356
-0.08180125 0.20834418 0.16696768 -0.11237833 -0.0013746344 0.5862598 0.082435705 -0.34755912
-0.67070454 -0.14865173 -0.4046067 0.05718873 -0.27458784 0.13263714 0.16728784 0.121024795
-0.23023234 0.07145025 0.43710023 -0.038163267 0.43405974 0.029487917 -0.110230125 0.06659382
-0.39655414 -0.26914293 0.15861572 0.0942478 -0.35927054 -0.24736875 -0.4521636 0.118953824
0.2503273 -0.07051874 -0.011735955 0.0031519304 0.027594289 0.12696713 -0.043668147 -0.4464869
0.112371646 -0.4793734 0.3563694 0.055300713 -0.0012698642 -0.36917916 -0.106293544 0.0073469616
-0.10142579 -0.12686291 -0.23509149 0.23371693 0.0041140956 0.05713415 0.026353296 0.16343369
0.28970858 -0.67749345 -0.17343362 0.100933984 -0.033905566 0.06950232 -0.09075497 -0.09397711
-0.12862583 -0.0585236 -0.19132695 -0.22021659 0.07845717 0.18496488 -0.40871227 0.34290934
-0.2567634 0.124756545 -0.05567797 0.031838562 -0.24392083 -0.3768766 -0.114578225 0.61877966
-0.53073347 -0.47644967 0.26846728 -0.3108584 -0.24757223 -0.2143288 0.030759804 0.3788037
0.22669645 0.25033778 -0.20995231 -0.08157535 0.15021522 -0.03701724 -0.024405591 0.23617567
0.055753745 -0.17423767 -0.07581539 -0.2973522 0.28489518 -0.020812258 0.2262832 0.12750179
0.20905739 0.72071457 0.24878503 -0.17403601 -0.12146149 -0.027898265 -0.12036901 0.08836803
0.12852822 -0.1373688 0.09893101 -0.25670633 0.22433837 -0.3985029 0.0086310115 -0.2146783
0.11683568 0.11228945 -0.031396337 0.12815379 -0.71323985 -0.16925317 -0.3602133 -0.09421244
0.20071033 0.034124658 0.16708314 0.2825813 -0.037801567 -0.29371697 0.3199167 0.22947772
0.16136158 0.12615147 -0.15408137 -0.075879306 -0.6587949 -0.0018651094 0.20881695 0.36666688
0.06905781 -0.08689887 0.04012574 0.0178446 0.3397836 -0.108730435 -0.05878992 0.07218883
-0.087727055 0.21639894 -0.4813311 -0.50043076 0.16417114 0.44529444 0.3361472 -0.6345632
-0.03551506 0.049031716 0.0295848 0.46333012 -0.10192258 0.7901172 -0.3127723 0.27315438
0.2903777 -0.19372693 0.010762758 -0.29280886 -0.40967193 0.05773528 -0.34856084 0.30173135
-0.066259064 -0.07697878 -0.034527726 -0.40037885 -0.28339076 0.50228614 -0.25242683 0.2985722
0.028863061 0.08538741 -0.09009326 -0.28248113 0.17972668 0.23452492 0.547817 0.44796106
-0.20638224 0.117733166 0.15832354 -0.09039906 0.06727674 0.25918108 0.02316558 0.007446529
-0.04964828 -0.0126637565 -0.004681704 0.09303502 -0.14119187 0.5402774 -0.26472995 0.06217541
-0.1454088 -0.02548992 0.00059683947 -0.45636824 0.1390676 -0.07102787 -0.5470854 -0.061855305
-0.33270332 0.21199277 0.019267824 -0.4181293 -0.15010352 -0.6797398 -0.06260335 0.14154378
0.07042462 0.28797972 -0.16892892 0.46723542 0.0007519368 -0.32899773 -0.031505268 -0.29905212
0.019715883 0.11567295 -0.15364356 0.18088152 0.23736575 0.047164075 -0.10813855 0.11131602
00000000: 1570 50be fa8f a13e 58a1 0abe b6f0 0abf
00000010: afb5 0bbd 1b39 2abd 7d21 2e3f 44b2 cdb9
00000020: a8d1 c63e 5129 22be 4fdf 343e 750c ee3d
00000030: bfa3 19be 5f76 9bbd 11e2 de3b 3249 133f
00000040: 6a87 a7bd 2d58 553e 93f9 2a3e 9c26 e6bd
00000050: 142d b4ba 1f15 163f 0dd4 a83d 45f3 b1be
00000060: 4bb3 2bbf 2938 18be 9c28 cfbe bb3e 6a3d
00000070: c796 8cbe 08d2 073e 814d 2b3e d9db f73d
00000080: 07c2 6bbe 8254 923d 9acb df3e 1651 1cbd
00000090: 143d de3e a590 f13c 55c0 e1bd 5762 883d
000000a0: 2509 cbbe 1acd 89be 296c 223e fe04 c13d
000000b0: 4ff2 b7be 3c4e 7dbe fd81 e7be 109e f33d
000000c0: e62a 803e 216c 90bd 2a48 40bc 9e90 4e3b
000000d0: 6b0d e23c ac03 023e 5fdd 32bd ee99 e4be
000000e0: 1b23 e63d 6e70 f5be 0d76 b63e 0083 623d
000000f0: 9271 a6ba 0d05 bdbe 6eb0 d9bd c8be f03b
00000100: 53b8 cfbd 5ae8 01be d3bb 70be 7e53 6f3e
00000110: 89cf 863b 8005 6a3d dee2 d73c 295b 273e
00000120: af54 943e 3670 2dbf 9598 31be 7ab6 ce3d
00000130: 90e0 0abd 3b57 8e3d bedd b9bd 1277 c0bd
00000140: 7db6 03be 71b6 6fbd 36eb 43be 7580 61be
00000150: 27ae a03d 6f67 3d3e bc42 d1be d091 af3e
00000160: 7e76 83be 5c80 ff3d 950e 64bd 2769 023d
00000170: 62c6 79be f8f5 c0be fda7 eabd 5868 1e3f
00000180: 26de 07bf 36f1 f3be 8b74 893e d528 9fbe
00000190: 9383 7dbe 0279 5bbe fcfb fb3c 8ff2 c13e
000001a0: 1d23 683e 462c 803e bdfd 56be fa10 a7bd
000001b0: 05d2 193e 649f 17bd 3cee c7bc 09d8 713e
000001c0: 0a5e 643d 5c6b 32be 1945 9bbd 8c3e 98be
000001d0: c8dd 913e 787e aabc c8b6 673e d48f 023e
000001e0: 2413 563e c080 383f 81c1 7e3e 7f36 32be
000001f0: cdc0 f8bd e78a e4bc 0784 f6bd 4cfa b43d
00000200: e79c 033e 68aa 0cbe 579c ca3d 036f 83be
00000210: f5b8 653e 9208 ccbe 1669 0d3c a1d4 5bbe
00000220: 8c47 ef3d 03f8 e53d 7299 00bd bf3a 033e
00000230: e396 36bf b450 2dbe e16d b8be 74f2 c0bd
00000240: 0287 4d3e 4cc6 0b3d d817 2b3e 7fae 903e
00000250: d1d5 1abd 1262 96be 1fcc a33e 35fc 6a3e
00000260: f83b 253e da2d 013e 82c7 1dbe 9c66 9bbd
00000270: c8a6 28bf b076 f4ba 1cd4 553e c3bb bb3e
00000280: 2e6e 8d3d 09f8 b1bd e35a 243d d72e 923c
00000290: 1ef8 ad3e 10ae debd b3cd 70bd bdd7 933d
000002a0: 3eaa b3bd af97 5d3e 0871 f6be 3b1c 00bf
000002b0: 7b1c 283e a2fd e33e 7c1b ac3e bc72 22bf
000002c0: 3d78 11bd 7bd5 483d d35b f23c 9b39 ed3e
000002d0: c9bc d0bd 1f45 4a3f b123 a0be e4da 8b3e
000002e0: 63ac 943e 5a60 46be 4756 303c 0beb 95be
000002f0: 85c0 d1be d47b 6c3d 9176 b2be 887c 9a3e
00000300: d5b2 87bd 0da7 9dbd f26c 0dbd 75fe ccbe
00000310: 9818 91be d395 003f 173e 81be 75de 983e
00000320: 3a72 ec3c 98df ae3d d182 b8bd 5ea1 90be
00000330: 450a 383e 4d27 703e bc3d 0c3f 275b e53e
00000340: de55 53be 161e f13d 911f 223e 2423 b9bd
00000350: 63c8 893d 62b3 843e bec5 bd3c 0302 f43b
00000360: ff5b 4bbd a57b 4fbc fb68 99bb 2589 be3d
00000370: 9a94 10be 9f4f 0a3f af8a 87be a5ab 7e3d
00000380: 0be6 14be 3dd0 d0bc 3875 1c3a 19a9 e9be
00000390: bd67 0e3e 0f77 91bd ca0d 0cbf fd5b 7dbd
000003a0: 1758 aabe a214 593e 8ed7 9d3c 0b15 d6be
000003b0: bdb4 19be 6d03 2ebf 2f36 80bd daf0 103e
000003c0: c83a 903d 1472 933e b4fb 2cbe 7b39 ef3e
000003d0: a01d 453a 6472 a8be ab0b 01bd 5c1d 99be
000003e0: 3483 a13c f1e5 ec3d bd54 1dbe 0139 393e
000003f0: 0210 733e 1e2f 413d be77 ddbd a7f9 e33d

signal_classifier.body.0.layers2.0.0.bias f4 [16]
-0.03363349 0.07888957 0.11514372 -0.01011216 0.13842577 0.16269389 -0.019862771 0.08831859
0.0151496995 0.06283504 -0.050377604 -0.17358829 -0.14602989 -0.13765505 -0.16702259 -0.06357799
00000000: 45c3 09bd db90 a13d 78d0 eb3d 79ad 25bc
00000010: 7cbf 0d3e 3a99 263e 40b7 a2bc 60e0 b43d
00000020: 7236 783c a8af 803d bf58 4ebd 21c1 31be
00000030: dc88 15be 72f5 0cbe f807 2bbe 2d35 82bd

signal_classifier.body.0.layers2.0.1.weight f4 [16]
0.98205554 1.0005362 1.0010501 1.0081885 0.9959464 0.9963658 0.9990828 1.0136708
0.98646337 0.99661183 1.0590166 1.0265309 1.002917 1.0276449 0.9892965 1.0132985
00000000: fe67 7b3f 9211 803f 6922 803f 520c 813f
00000010: 58f6 7e3f d411 7f3f e4c3 7f3f f7bf 813f
00000020: dd88 7c3f f421 7f3f db8d 873f 5d65 833f
00000030: 965f 803f de89 833f 8942 7d3f c4b3 813f

signal_classifier.body.0.layers2.0.1.bias f4 [16]
0.009796105 -0.0027858156 0.03151177 -0.036802217 0.03571275 0.022731142 0.010342031 0.027652107
-0.018046742 -0.00591262 0.05124111 -0.01095486 0.023172379 0.06458279 0.0595226 0.008848452
00000000: d87f 203c 3b92 36bb 7c12 013d ecbd 16bd
00000010: 8847 123d a936 ba3c 9f71 293c ac86 e23c
00000020: c3d6 93bc a7be c1bb 33e2 513d 037c 33bc
00000030: 00d4 bd3c fb43 843d f8cd 733d 19f9 103c

signal_classifier.body.0.layers2.0.1.running_mean f4 [16]
0.0073311185 -0.07971178 -0.024249885 0.0352356 0.039605036 0.102149755 0.116506435 -0.12812003
0.10170507 0.3174975 -0.26524824 -0.15624537 -0.13434272 -0.041236624 -0.11295878 -0.29431525
00000000: e139 f03b ee3f a3bd b2a7 c6bc 3453 103d
00000010: e438 223d e433 d13d ed9a ee3d e631 03be
00000020: bf4a d03d 088f a23e 9ece 87be c9fe 1fbe
00000030: 2391 09be bce7 28bd ef56 e7bd 7db0 96be

signal_classifier.body.0.layers2.0.1.running_var f4 [16]
0.6437628 0.6258087 2.8016999 1.1790642 0.71476316 0.68868136 0.93953365 0.4514017
0.48531717 0.72524333 2.933599 2.4981031 0.49807164 0.5777489 1.5118729 0.7787174
00000000: a4cd 243f 0035 203f 0d4f 3340 93eb 963f
00000010: b8fa 363f 6c4d 303f 4785 703f 201e e73e
00000020: 7e7b f83e 8ca9 393f 16c0 3b40 ece0 1f40
00000030: 3f03 ff3e 5ae7 133f 0d85 c13f 065a 473f
