experiments/weights/m202_MultiOutput_20230518_114418/epoch_500.pth (torch, 383813 bytes, 138 tensors)

signal_classifier.stem.0.0.weight f4 [32, 1, 11]
0.5984684 0.09294375 -0.046966612 0.14667033 0.585789 -0.42172444 -0.28502548 -0.38417062
-0.5567713 -0.15327688 0.52871877 0.66561407 0.12513746 0.2468577 0.037188936 -0.25177372
0.23794658 -0.3804991 -0.52880484 -0.45332068 -0.059618767 0.51467234 1.0352603 0.7069229
-0.092237905 -0.2791368 0.44679555 -0.23071684 -0.48890558 -0.13729216 0.42267296 0.03208819
0.23955363 0.20675531 -0.35503757 0.7830272 0.103153326 -0.13204007 0.6744383 -0.38935894
-0.16656283 -0.20102113 -0.36038736 0.24728724 -0.27423802 -0.23517719 0.16107266 0.087821566
-0.2285794 0.23217452 -0.24326842 -0.33380407 0.2611741 -0.2750395 0.9612206 -0.54751194
0.3654483 0.021337288 0.13923135 -0.60770714 -0.100687645 0.19165377 0.42326465 -0.102542445
0.25944433 0.1425654 -0.049001466 -0.4127222 -0.3926017 -0.5270892 0.94760793 -0.2683785
0.15086457 0.25444174 -0.21227445 0.3197293 0.6412952 0.010060469 1.0271275 -0.08197031
-0.66829664 -0.51431495 0.37929654 0.1215068 -0.044603083 -0.066228434 -0.81157714 0.33575052
0.18361332 0.49975124 -0.59431535 -0.18789515 0.16300668 -0.45951226 -0.20743631 0.15653735
-0.1221567 -0.62232804 -0.9738532 0.027322829 0.05367602 -0.14641206 -0.32600603 0.0759306
-0.29353043 -0.44166288 -0.49510393 0.34255838 0.5839992 0.7507361 0.3618102 -0.20920151
-0.40194845 0.02645722 -0.1933951 -0.10654068 -0.74221265 0.0034891074 -0.20690493 0.085933484
-0.4515561 0.3622754 -0.52516407 0.26443964 -0.0044969223 0.16087145 0.2203733 0.2575104
-0.8618417 0.29388613 1.0575533 0.39875302 0.65164363 0.4346219 0.1895235 0.715583
-0.5256972 0.8129579 0.38348794 0.3717292 0.21819381 -0.4031164 -0.13436891 0.20195605
0.12840407 0.66968334 0.3467385 -0.58954275 -0.009775341 -0.049244802 0.9980289 -0.5144097
0.03454043 -0.293803 0.03924763 -0.53946686 -0.29946125 0.22280766 -0.05303303 1.3705342
-0.21671036 -0.035001513 -0.32312012 -0.6870763 -0.29546654 0.4503036 -0.29570633 0.25314462
0.9295213 -0.032327484 0.32318667 0.370093 0.43480617 0.21181326 0.567326 0.0005993455
-0.25436163 -0.13413243 -0.44705117 -0.47807962 -0.5083645 -0.0029957243 -0.45436236 -0.29068983
0.07359096 -0.3116357 4.4013494e-05 0.65411717 -0.17038314 0.7682358 -0.38931176 0.07555883
-0.14053881 0.27948722 0.036498863 0.2358579 -0.29813358 0.04632252 0.44344777 0.40055385
0.38648903 0.31504276 0.4970489 0.33296028 0.0048106676 0.044818573 0.27191922 0.10125269
0.118361965 -0.42874518 -0.39484143 -0.20844093 -0.078266345 0.059124757 0.115041375 0.47346357
0.0055044927 0.038451575 0.11225936 0.1922874 -0.12898909 0.17080967 0.14253543 0.33306155
-0.15859468 0.49383596 0.21596098 -0.024276435 -0.09598227 0.24820495 0.5388019 -0.27074423
0.09888203 0.40469924 -0.16026348 -0.18761499 -0.41398853 -0.19562979 -0.010006682 0.49017304
0.19005263 0.11576483 0.15274042 -0.053800017 -0.7253359 -1.046837 -0.04422437 0.38639414
-0.20953767 0.5653901 -0.117213525 0.49455085 0.52274317 0.2186884 -0.2879555 -0.28215685
00000000: 3a35 193f 4b59 be3d 1060 40bd bf30 163e
00000010: 45f6 153f 44ec d7be dcee 91be 03b2 c4be
00000020: 9088 0ebf 9df4 1cbe 1d5a 073f af65 2a3f
00000030: 0924 003e 44c8 7c3e 6d53 183d 7ce8 80be
00000040: 45a8 733e c7d0 c2be c15f 07bf a619 e8be
00000050: cf32 74bd 91c1 033f 6983 843f e6f8 343f
00000060: 3ae7 bcbd 05eb 8ebe 63c2 e43e 0941 6cbe
00000070: d551 fabe 5196 0cbe 9768 d83e e86e 033d
00000080: 8c4d 753e aab7 533e 7cc7 b5be 7874 483f
00000090: 0d42 d33d 8335 07be fda7 2c3f 0e5a c7be
000000a0: 728f 2abe 7cd8 4dbe b184 b8be de38 7d3e
000000b0: ed68 8cbe 4ad2 70be 3bf0 243e cbdb b33d
000000c0: b810 6abe 28bf 6d3e 5b1b 79be 5ee8 aabe
000000d0: 9db8 853e fad1 8cbe 8e12 763f be29 0cbf
000000e0: 0a1c bb3e 89cb ae3c aa92 0e3e b292 1bbf
000000f0: 5335 cebd e340 443e 25b6 d83e c601 d2bd
00000100: e3d5 843e aafc 113e c3b5 48bd 5350 d3be
00000110: 1703 c9be 51ef 06bf 6f96 723f e868 89be
00000120: 3e7c 1a3e 3046 823e 795e 59be 8fb3 a33e
00000130: ec2b 243f aad4 243c ea78 833f 0de0 a7bd
00000140: 7d15 2bbf 25aa 03bf 2833 c23e 8fd8 f83d
00000150: b9b1 36bd c6a2 87bd 85c3 4fbf 7ee7 ab3e
00000160: 2105 3c3e 65df ff3e 0d25 18bf 9667 40be
00000170: 39eb 263e 3145 ebbe 2f6a 54be 544b 203e
00000180: 4b2d fabd e450 1fbf 714e 79bf 20d4 df3c
00000190: 63db 5b3d 0bed 15be 43ea a6be 8181 9b3d
000001a0: 9f49 96be a321 e2be 437e fdbe d063 af3e
000001b0: f980 153f 3e30 403f 303f b93e ec38 56be
000001c0: 30cc cdbe d0bc d83c 5d09 46be 0032 dabd
000001d0: a601 3ebf 82a9 643b e3de 53be e5fd af3d
000001e0: 5c32 e7be 297c b93e 2771 06bf a264 873e
000001f0: eb5a 93bb 7cbb 243e 8aa9 613e 67d8 833e
00000200: a8a1 5cbf 3e78 963e e85d 873f 5b29 cc3e
00000210: 1ed2 263f c386 de3e 7312 423e 7330 373f
00000220: 1794 06bf 021e 503f 8858 c43e 4a53 be3e
00000230: 336e 5f3e 4665 cebe 0198 09be 91cd 4e3e
00000240: 5b7c 033e 5e70 2b3f b587 b13e 46ec 16bf
00000250: c028 20bc ebb4 49bd d27e 7f3f 5bb0 03bf
00000260: 447a 0d3d 596d 96be 1fc2 203d 801a 0abf
00000270: fc52 99be b127 643e 2a39 59bd aa6d af3f
00000280: 52e9 5dbe bf5d 0fbd 0070 a5be 3be4 2fbf
00000290: 6447 97be 328e e63e d266 97be 2c9c 813e
000002a0: 1cf5 6d3f d369 04bd b978 a53e d47c bd3e
000002b0: ea9e de3e 93e5 583e 473c 113f 651d 1d3a
000002c0: b03b 82be 035a 09be e4e3 e4be dac6 f4be
000002d0: 2d24 02bf ea53 44bb 2fa2 e8be 4cd5 94be
000002e0: dbb6 963d b78e 9fbe 219b 3838 3974 273f
000002f0: eb78 2ebe 1aab 443f df53 c7be 96be 9a3d
00000300: 68e9 0fbe f318 8f3e d57f 153d bc84 713e
00000310: f7a4 98be afbc 3d3d 960b e33e 6515 cd3e
00000320: e4e1 c53e 494d a13e 327d fe3e c579 aa3e
00000330: cea2 9d3b ae93 373d ff38 8b3e 925d cf3d
00000340: c267 f23d 7d84 dbbe a828 cabe 8a71 55be
00000350: 1b4a a0bd cd2c 723d d09a eb3d d169 f23e
00000360: 085f b43b 667f 1d3d 3ce8 e53d fde6 443e
00000370: b715 04be bbe8 2e3e cff4 113e 0b87 aa3e
00000380: a566 22be 11d8 fc3e e024 5d3e 60df c6bc
00000390: 5a92 c4bd 7029 7e3e ecee 093f fd9e 8abe
000003a0: a982 ca3d bd34 cf3e 1c1c 24be 251e 40be
000003b0: 4ef6 d3be 2d53 48be 11f3 23bc f6f7 fa3e
000003c0: 289d 423e 1c16 ed3d fc67 1c3e 685d 5cbd
000003d0: 9daf 39bf c1fe 85bf 9d24 35bd 74d5 c53e
000003e0: 0b91 56be 68bd 103f a50d f0bd c535 fd3e
000003f0: 7fd2 053f daef 5f3e e76e 93be dd76 90be

signal_classifier.stem.0.0.bias f4 [32]
0.2727773 0.0044868467 -0.35636604 0.005021587 0.22001186 0.06198973 -0.28171733 -0.24324626
0.01626132 -0.27615356 0.052701775 -0.02325964 0.18239668 0.13163151 -0.23961501 0.1772289
-0.15713447 -0.17095971 -0.38209066 -0.08670122 0.13336214 0.010926224 0.1814511 0.047129363
-0.021549692 -0.28713122 -0.27413842 0.11952002 0.20589536 0.15565798 -0.30253097 -0.053438608
00000000: 77a9 8b3e 6606 933b 9c75 b6be 208c a43b
00000010: ca4a 613e f1e8 7d3d 413d 90be 8c15 79be
00000020: 7636 853c 0064 8dbe d1dd 573d 008b bebc
00000030: 32c6 3a3e 69ca 063e a35d 75be 7e7b 353e
00000040: dce7 20be 1010 2fbe 63a1 c3be 6990 b1bd
00000050: 1690 083e e803 333c 51ce 393e b80a 413d
00000060: fb88 b0bc dd02 93be df5b 8cbe eac6 f43d
00000070: 3cd6 523e ce64 1f3e 57e5 9abe 71e2 5abd

signal_classifier.stem.0.1.weight f4 [32]
1.012872 1.1519964 0.95926297 0.8803563 1.0035691 1.0642829 0.89122814 0.96770227
0.9897722 1.0730363 0.97935116 0.97310334 0.9526242 0.99606526 1.0263566 1.0180179
1.1093227 1.0302781 1.1059586 1.0875149 0.91336066 0.95009375 0.90745914 1.058245
1.0254402 0.9316151 1.0197456 0.98156065 1.0461015 0.9468097 0.9912651 1.1044195
00000000: caa5 813f 9e74 933f 4292 753f 085f 613f
00000010: f474 803f 6c3a 883f 8727 643f 56bb 773f
00000020: b661 7d3f 4159 893f c2b6 7a3f 4d1d 793f
00000030: 2edf 733f 22fe 7e3f a75f 833f 694e 823f
00000040: 49fe 8d3f 27e0 833f 0d90 8d3f b033 8b3f
00000050: 01d2 693f 5839 733f 3e4f 683f 9274 873f
00000060: a041 833f 547e 6e3f 0687 823f 8f47 7b3f
00000070: a7e6 853f 1f62 723f 8dc3 7d3f 9e5d 8d3f

signal_classifier.stem.0.1.bias f4 [32]
0.028332205 0.00161337 -0.061640028 0.025053026 -0.0029283222 0.006485013 0.08046824 -0.004775389
-0.029642342 -0.001956748 -0.02761554 0.12135879 -0.02871258 0.12024138 -0.0064161816 -0.021332158
-0.0017041358 -0.02043566 -0.007514259 -0.0018176296 0.11194895 -0.12275314 -0.001060327 0.002040763
0.0033505464 -0.0495403 -0.021148805 -0.03469523 0.001298746 -0.08667607 0.030465446 0.0022423947
00000000: f118 e83c b777 d33a 417a 7cbd 013c cd3c
00000010: 18e9 3fbb 3b80 d43b 88cc a43d de7a 9cbb
00000020: 7fd4 f2bc c93c 00bb fc39 e2bc f58a f83d
00000030: a536 ebbc 1d41 f63d d53e d2bb c7c0 aebc
00000040: 4f5d dfba af68 a7bc 2c3a f6bb 873d eeba
00000050: 7e45 e53d 0066 fbbd acfa 8aba 52be 053b
00000060: d794 5b3b c5ea 4abd 4240 adbc 961c 0ebd
00000070: af3a aa3a 3983 b1bd ac92 f93c 24f5 123b

signal_classifier.stem.0.1.running_mean f4 [32]
0.2732401 0.0057416814 -0.3564879 0.0054340567 0.21867919 0.060913023 -0.2817339 -0.2439799
0.01575571 -0.27638867 0.053141654 -0.022991838 0.18260783 0.13073137 -0.23872885 0.17647369
-0.15671496 -0.17194428 -0.38165882 -0.08606101 0.13269515 0.0111215105 0.18242835 0.046627697
-0.022091497 -0.28672418 -0.2734916 0.1231037 0.20648633 0.15614672 -0.30177107 -0.053523436
00000000: 20e6 8b3e b724 bc3b 9585 b6be 2c10 b23b
00000010: 70ed 5f3e ef7f 793d 6d3f 90be ded5 79be
00000020: 1e12 813c d182 8dbe 10ab 593d 6159 bcbc
00000030: 8cfd 3a3e 72de 053e 5675 74be 85b5 343e
00000040: e379 20be 2912 30be c968 c3be c140 b0bd
00000050: 3de1 073e ff36 363c 7fce 3a3e affc 3e3d
00000060: 3af9 b4bc 83cd 92be 1707 8cbe cb1d fc3d
00000070: 2771 533e ede4 1f3e bd81 9abe 643b 5bbd

signal_classifier.stem.0.1.running_var f4 [32]
0.20441662 0.18724918 0.27218673 0.20323189 0.18235466 0.13871688 0.2628558 0.29300457
0.27540398 0.17906807 0.14240642 0.30196154 0.28372267 0.2761787 0.3536647 0.2208367
0.13057987 0.16838697 0.12374358 0.082926214 0.10045575 0.10207371 0.29757792 0.3123714
0.15920533 0.071779184 0.22334942 0.46872926 0.30394575 0.1382762 0.55998874 0.22572109
00000000: 9752 513e 40be 3f3e 0f5c 8b3e 051c 503e
00000010: 2ebb 3a3e cc0b 0e3e 0995 863e b204 963e
00000020: c001 8d3e 9f5d 373e fdd2 113e b49a 9a3e
00000030: 1944 913e 4b67 8d3e 8a13 b53e 0423 623e
00000040: bbb6 053e a26d 2c3e 466d fd3d 38d5 a93d
00000050: bfbb cd3d 050c d13d 225c 983e 25ef 9f3e
00000060: b906 233e f700 933d b6b5 643e 48fd ef3e
00000070: c79e 9b3e 4798 0d3e 6c5b 0f3f 6e23 673e

signal_classifier.stem.1.0.weight f4 [32, 32, 3]
-0.113276936 0.14579828 0.14845341 -0.026484838 -0.039604183 -0.052398875 -0.10066123 0.20397268
0.12072909 -0.32800475 0.0036258195 0.026337635 0.035627447 -0.110300876 0.1094048 0.046512764
-0.0016110591 0.07861324 0.14498587 -0.12766293 -0.15057464 -0.12793465 0.08541407 0.20977992
0.06817078 0.10221355 -0.048841536 0.14888124 -0.1867611 -0.066985376 -0.053544577 -0.110169046
0.11405314 0.24695319 -0.04212765 -0.030910626 -0.30009806 0.1635214 -0.16788223 0.10706423
0.11390995 0.079949096 -0.2590106 -0.081879325 -0.089850634 0.27478838 0.3478963 0.11626581
-0.061364815 -0.16341305 0.029837012 0.22934338 0.022206595 -0.15269667 -0.40081364 -0.16898209
0.09796211 0.1786009 0.10242904 -0.045841556 -0.11381263 -0.23671891 -0.38310805 -0.15279265
0.23223303 0.094378725 0.120420106 0.0602655 0.048422296 0.20191309 0.23463921 0.19139124
-0.30126905 0.29303512 0.01794635 0.027439373 0.16564836 -0.22125912 -0.05510462 0.0036031243
-0.012604701 -0.06985911 0.16080107 -0.057263304 -0.04960001 -0.015520414 -0.052272473 0.21514258
0.23688225 -0.17209765 -0.089495376 0.15304181 -0.06914307 0.027336689 0.19495001 -0.05986398
-0.10672636 0.13344596 0.013619033 -0.24855916 -0.05223734 0.15379582 -0.07370507 -0.17406656
0.07143242 -0.25631306 0.08748425 0.097294204 -0.1040335 -0.14077514 -0.0067890813 0.064626366
-0.07354128 -0.0917161 -0.1396311 0.020299666 -0.037687365 0.4002676 -0.078633405 -0.2475552
-0.035998877 -0.22521605 0.30057424 0.029087778 -0.06318095 0.11432798 0.08279419 -0.2803743
0.06482898 -0.29287145 0.0670655 -0.09420078 0.03184298 0.0610228 0.02845497 0.0912228
-0.06790386 0.24173021 0.1346887 -0.11778196 0.04655312 0.009439236 -0.014864742 -0.1633421
-0.2888888 0.013413149 -0.029414453 -0.0628481 -0.07436545 0.42314985 -0.20936753 -0.39040264
0.13308012 0.16452728 -0.15748307 -0.16867553 -0.08501799 0.08260138 -0.06999591 0.11391234
0.0030505108 -0.06773604 0.03679144 0.03674848 -0.08714557 0.19830063 -0.09228447 0.07524769
-0.052566245 0.04788982 0.24407211 0.14418444 -0.24008332 -0.23888563 0.16961218 -0.030900473
-0.06478555 0.03504965 -0.17066015 0.19164135 -0.12963112 0.0897651 0.18030752 -0.20646489
0.029953083 -0.023402316 -0.24815975 -0.15097743 -0.23194444 0.17591874 0.13948737 0.04978555
-0.23558784 -0.0892452 0.055014312 0.065760046 -0.04626706 -0.03816149 0.028524078 -0.04806187
0.15709807 -0.08093712 -0.19887333 -0.21962793 0.068782 -0.007676305 -0.007695004 -0.14575109
0.16001908 0.20790936 -0.32755014 0.06547168 -0.140857 0.027345441 0.019969974 -0.1469891
0.15517701 0.14701681 -0.25212228 0.18216145 0.2833799 0.2731812 -0.24390718 -0.39271632
-0.1175015 0.059568025 -0.15215427 0.13877015 0.10295896 0.063718975 -0.1596588 -0.033951994
-0.06387946 0.2736776 -0.103369355 -0.09831734 0.16962397 -0.16363385 -0.1495056 0.10733354
-0.19601654 -0.017720563 -0.026655551 -0.01721046 0.0016663038 -0.31399283 0.050562818 -0.09303608
0.010212733 0.21102834 -0.07379752 0.22910221 -0.082206056 -0.08754944 -0.017038418 -0.021575658
00000000: bdfd e7bd 254c 153e 2c04 183e bbf6 d8bc
00000010: ff37 22bd 34a0 56bd 7a27 cebd 37de 503e
00000020: d040 f73d 3df0 a7be 289f 6d3b 06c2 d73c
00000030: 16ee 113d 6de5 e1bd a00f e03d 2b84 3e3d
00000040: 2c2a d3ba faff a03d 2d77 143e 12ba 02be
00000050: 3d30 1abe 4d01 03be 92ed ae3d 8cd0 563e
00000060: 1f9d 8b3d 5655 d13d 100e 48bd 5374 183e
00000070: 4d3e 3fbe a12f 89bd 8f51 5bbd 4fa0 e1bd
00000080: b194 e93d 4ce1 7c3e 0b8e 2cbd 4838 fdbc
00000090: 74a6 99be 2772 273e 52e9 2bbe 7e44 db3d
000000a0: 9f49 e93d 5abc a33d 0a9d 84be 59b0 a7bd
000000b0: 9c03 b8bd 10b1 8c3e 771f b23e c51c ee3d
000000c0: ac59 7bbd c055 27be c06c f43c fed8 6a3e
000000d0: 9bea b53c 845c 1cbe 7237 cdbe a409 2dbe
000000e0: 5ca0 c83d 28e3 363e 51c6 d13d 5bc4 3bbd
000000f0: 9916 e9bd 7166 72be bd26 c4be ad75 1cbe
00000100: 7fce 6d3e a249 c13d d19e f63d f5d8 763d
00000110: 7556 463d 4ec2 4e3e 4345 703e 11fc 433e
00000120: f03f 9abe b308 963e 3904 933c 89c8 e03c
00000130: b99f 293e c091 62be 62b5 61bd 6522 6c3b
00000140: f383 4ebc 4b12 8fbd 09a9 243e ed8c 6abd
00000150: 6129 4bbd 5649 7ebc a91b 56bd 564e 5c3e
00000160: 4391 723e 5e3a 30be 5a49 b7bd feb6 1c3e
00000170: e29a 8dbd 31f1 df3c faa0 473e ef33 75bd
00000180: 5a93 dabd 0fa6 083e 5d22 5f3c 4b86 7ebe
00000190: d2f6 55bd a77c 1d3e aff2 96bd 813e 32be
000001a0: 294b 923d 773b 83be f12a b33d 2f42 c73d
000001b0: 840f d5bd 5c27 10be f176 debb d45a 843d
000001c0: d09c 96bd a7d5 bbbd 75fb 0ebe 7c4b a63c
000001d0: 115e 1abd e0ef cc3e 8d0a a1bd 1c7f 7dbe
000001e0: 8f73 13bd 099f 66be dee4 993e 7e49 ee3c
000001f0: 0465 81bd ca24 ea3d 0090 a93d 388d 8fbe
00000200: 0ec5 843d 3ff3 95be a359 893d 57ec c0bd
00000210: c96d 023d 0bf3 793d 661a e93c 05d3 ba3d
00000220: 2e11 8bbd 2088 773e d6eb 093e ab37 f1bd
00000230: 7cae 3e3d 06a7 1a3c 3f8b 73bc 2743 27be
00000240: 3ce9 93be d3c2 5b3c 94f6 f0bc 81b6 80bd
00000250: ea4c 98bd 19a7 d83e 7164 56be dbe2 c7be
00000260: 2846 083e d779 283e 3e43 21be 47b9 2cbe
00000270: e91d aebd ea2a a93d 045a 8fbd df4a e93d
00000280: 14eb 473b 31b9 8abd 9fb2 163d 9385 163d
00000290: 6079 b2bd 520f 4b3e a4ff bcbd 761b 9a3d
000002a0: b44f 57bd 1e28 443d 0aee 793e 16a5 133e
000002b0: 67d8 75be 6f9e 74be d1ae 2d3e fd22 fdbc
000002c0: 49ae 84bd 3990 0f3d 89c1 2ebe a13d 443e
000002d0: 05be 04be c4d6 b73d 89a2 383e 886b 53be
000002e0: 2b60 f53c 37b6 bfbc 971d 7ebe d499 1abe
000002f0: d882 6dbe 0b24 343e c7d5 0e3e efeb 4b3d
00000300: f03d 71be 30c6 b6bd b056 613d 34ad 863d
00000310: 8782 3dbd 394f 1cbd 54ab e93c 86dc 44bd
00000320: 51de 203e 5cc2 a5bd 73a5 4bbe 25e6 60be
00000330: 94dd 8c3d 8389 fbbb 5f26 fcbb c63f 15be
00000340: 0bdc 233e 31e6 543e a7b4 a7be 0416 863d
00000350: d13c 10be 8c03 e03c 1298 a33c 5084 16be
00000360: b9e6 1e3e 938b 163e 2c16 81be 8888 3a3e
00000370: 2c17 913e 68de 8b3e cec2 79be 1d12 c9be
00000380: a0a4 f0bd 9afd 733d 54ce 1bbe c319 0e3e
00000390: 26dc d23d 187f 823d 997d 23be 3f11 0bbd
000003a0: 3cd3 82bd 781f 8c3e 50b3 d3bd 9a5a c9bd
000003b0: e8b1 2d3e a28f 27be ff17 19be b0d1 db3d
000003c0: 8fb8 48be b72a 91bc be5c dabc f3fc 8cbc
000003d0: e167 da3a abc3 a0be f51a 4f3d b389 bebd
000003e0: 4f53 273c d017 583e 2723 97bd c599 6a3e
000003f0: a65b a8bd 1f4d b3bd 2794 8bbc 6fbf b0bc

signal_classifier.stem.1.0.bias f4 [32]
-0.019415224 0.074805535 -0.07849447 -0.17073748 0.013604632 0.15845592 0.04348853 -0.099611804
-0.069513015 -0.008757958 -0.018259093 -0.010956766 0.063433535 0.028517377 0.101734474 0.053195536
0.1359123 -0.033811472 0.01979302 0.007651134 0.16272981 -0.16161528 -0.09962585 0.035128098
0.13702366 -0.0030537702 -0.07049448 -0.023320038 -0.04957047 -0.052753657 0.053835552 0.022209285
00000000: ad0c 9fbc a533 993d b5c1 a0bd ced5 2ebe
00000010: f6e5 5e3c 4542 223e 0721 323d 4601 ccbd
00000020: d75c 8ebd 8a7d 0fbc 1894 95bc 0284 33bc
00000030: 71e9 813d 469d e93c 2a5a d03d 90e3 593d
00000040: 982c 0b3e e67d 0abd f924 a23c 5db6 fa3b
00000050: a5a2 263e 7a7e 25be a308 ccbd 7be2 0f3d
00000060: ee4f 0c3e c321 48bb 695f 90bd aa09 bfbc
00000070: 680a 4bbd 3814 58bd ab82 5c3d 3ff0 b53c

signal_classifier.stem.1.1.weight f4 [32]
1.0373827 0.9483527 1.0397022 1.1328226 1.0314521 0.9563047 0.97124285 0.8566021
0.9626041 1.0165153 0.9717692 1.120572 0.9061092 1.0263883 1.0304745 0.9434109
0.9924199 0.9524859 0.925844 0.9859281 0.95673007 1.1523408 1.091521 1.0689268
1.0734283 0.9202291 1.0333736 1.0131493 0.9180992 1.0397271 0.9928228 0.9009584
00000000: f5c8 843f 3ec7 723f f614 853f 5500 913f
00000010: 9f06 843f 63d0 743f 5fa3 783f 464a 5b3f
00000020: 396d 763f 2c1d 823f dec5 783f e76e 8f3f
00000030: c6f6 673f b160 833f 97e6 833f 6083 713f
00000040: 3b0f 7e3f 1ed6 733f 1d04 6d3f c965 7c3f
00000050: 43ec 743f e77f 933f f6b6 8b3f 98d2 883f
00000060: 1966 893f 2294 6b3f 9645 843f e0ae 813f
00000070: 8d08 6b3f c715 853f a329 7e3f 36a5 663f

signal_classifier.stem.1.1.bias f4 [32]
0.034510706 0.04164958 0.023417141 0.06251468 -0.005874782 -0.05376137 0.012067823 -0.08154935
-0.023912665 -0.060693566 0.15090165 0.030520035 0.025161065 0.06715235 -0.010256764 -0.01651058
0.035832085 0.12808312 0.043243375 0.0062878435 0.020553742 0.09143234 0.057870567 0.03967118
0.037094038 -0.021069651 0.001818408 0.08484306 0.019605115 0.0003087637 0.06147909 -0.03303413
00000000: 195b 0d3d c098 2a3d 4ed5 bf3c b207 803d
00000010: 3e81 c0bb e234 5cbd 1eb8 453c 5803 a7bd
00000020: 7ee4 c3bc d199 78bd f685 1a3e 2705 fa3c
00000030: 941e ce3c 2c87 893d fc0b 28bc 3241 87bc
00000040: aac4 123d 3928 033e f71f 313d 410a ce3b
00000050: 5260 a83c e140 bb3d b009 6d3d 3f7e 223d
00000060: ebef 173d 439a acbc a657 ee3a 33c2 ad3d
00000070: e89a a03c 90e1 a139 80d1 7b3d cc4e 07bd

signal_classifier.stem.1.1.running_mean f4 [32]
0.03942017 -0.12164345 -0.2912256 -0.68565357 -0.5281503 0.24685216 0.18061727 -0.4684815
-0.27634355 -0.045347434 0.2373088 -0.25897682 0.16830023 0.15891416 0.26568776 0.10961771
-0.15153056 -0.022737278 0.009227649 0.24357669 -0.108241566 -0.32420996 -0.20291644 0.38267004
-0.28428152 -0.063446246 -0.0077947583 -0.07011801 -0.29982287 -0.02735848 -0.15646036 -0.1429372
00000000: 0b77 213d 3320 f9bd 861b 95be fe86 2fbf
00000010: dc34 07bf d0c6 7c3e bcf3 383e cfdc efbe
00000020: e77c 8dbe 3bbe 39bd 1401 733e 9c98 84be
00000030: e556 2c3e 65ba 223e 3a08 883e 407f e03d
00000040: d42a 1bbe 8743 babc 912f 173c 2b6c 793e
00000050: c1ad ddbd d9fe a5be 54c9 4fbe 54ed c33e
00000060: 598d 91be 1bf0 81bd 2c6b ffbb 089a 8fbd
00000070: 6282 99be e41e e0bc 2537 20be 215e 12be

signal_classifier.stem.1.1.running_var f4 [32]
1.09605 1.3428688 1.1100757 4.6314044 3.565725 1.360206 0.8960687 2.635786
1.8112096 1.3149251 1.4794911 1.0672938 1.1484472 1.7028804 1.7450665 1.3039567
1.3522235 0.9452194 0.8562213 2.0323393 1.9383743 1.1774069 1.0025033 1.5676614
3.1632972 0.8825884 1.2098254 1.0227019 1.5335387 1.5943354 1.1982925 1.4000231
00000000: 5e4b 8c3f 20e3 ab3f f616 8e3f 7734 9440
00000010: d734 6440 3b1b ae3f c264 653f b8b0 2840
00000020: b7d5 e73f 774f a83f f75f bd3f 159d 883f
00000030: 5100 933f fcf7 d93f 575e df3f 0ee8 a63f
00000040: a915 ad3f e6f9 713f 5231 5b3f d911 0240
00000050: a61c f83f 45b5 963f 0752 803f 21a9 c83f
00000060: 7673 4a40 50f1 613f 8fdb 9a3f e5e7 823f
00000070: ff4a c43f 2f13 cc3f a661 993f f533 b33f

signal_classifier.stem.2.0.weight f4 [32, 32, 3]
-0.18147908 -0.10590095 0.23215495 0.06778284 0.012677547 0.08781585 0.118457384 -0.23314556
-0.0072410186 -0.0067151124 -0.111619756 -0.03173166 -0.093383335 0.22798589 0.1414417 0.093223356
-0.09675235 -0.1617765 -0.090791464 0.086730406 0.05369208 0.060293786 -0.029250335 -0.12912829
-0.20588633 -0.16362783 0.16073337 0.10947663 0.27453533 0.3066426 0.13123375 -0.24878907
0.011890583 -0.021343457 0.20265152 0.06451935 0.31545335 0.20784618 0.07231844 0.12378374
-0.08680117 -0.028958825 -0.16927227 0.078998074 0.123601034 0.0961469 -0.1459995 0.077718444
0.059986036 0.23113218 0.21970294 -0.01682771 0.19033192 -0.10369689 -0.30994076 -0.16783498
0.013990402 0.04318888 -0.14143386 -0.08163741 0.118510276 0.091346055 -0.29308027 0.12647696
-0.21901658 -0.033006076 -0.15926036 -0.14109725 -0.08689696 -0.121160164 0.060681712 0.33739957
0.022339694 -0.10082428 -0.0577261 -0.012219283 -0.013824245 0.0380649 -0.2079144 0.16197358
0.10462045 -0.073606215 -0.011606972 0.19616908 -0.18606396 0.23558143 -0.042335395 -0.20507705
-0.016953396 0.08929476 0.061118554 0.044980157 -0.2314622 -0.16818978 -0.19857875 0.15334271
0.042876206 0.16692747 0.33811888 -0.021899572 -0.010869277 -0.070224725 0.040242523 -0.04956668
-0.17071173 -0.08305129 0.3211123 0.23246841 -0.114319734 -0.0006910301 0.11635799 -0.07818876
-0.06912705 -0.004480684 0.13163516 0.037824497 -0.112053975 0.096666805 0.0115559995 -0.120218046
0.06893744 0.10627616 0.25288957 0.17667328 0.12243268 0.033497665 0.22453338 -0.012012596
-0.05066701 0.22271425 -0.090635575 0.02041562 0.037862685 -0.08986126 -0.019654188 0.24062388
-0.18148579 -0.05605877 0.09497275 -0.035240646 -0.07253556 0.29191476 -0.3105689 -0.013463285
-0.19197524 0.13026428 0.059211686 0.1608327 0.023249926 0.029499663 0.18955602 0.14240833
0.09477249 0.12824968 0.03622761 -0.06142625 -0.007863106 0.22330377 0.049227607 0.16706435
0.035321653 -0.08952814 -0.11725254 0.101062045 0.025574809 0.30815837 -0.13324617 -0.03932062
0.3682907 0.35703364 -0.22921284 0.08289443 -0.046362467 0.1339503 0.012019405 -0.272644
-0.08647669 0.10113767 -0.21400131 -0.03824618 0.13734087 0.23949881 0.18703242 0.2705664
0.05236094 -0.11594451 0.2433373 0.10497218 -0.046005256 0.008118018 -0.055178642 -0.02948769
0.16198128 0.21672125 0.008870863 -0.14917766 -0.04949061 0.007037071 -0.012532436 -0.09189304
-0.1184993 -0.37237313 -0.11253284 0.03663957 0.052960273 0.15806727 -0.054747146 -0.08600205
-0.086796775 -0.030252077 -0.21624377 0.01511654 -0.111151375 -0.07463252 0.09548134 0.13696018
0.056024253 0.03952226 0.28263327 0.15513039 -0.10902341 0.051817205 0.06266799 -0.052299086
0.002478257 -0.30239022 0.17123538 -0.106878445 -0.32232377 0.06873323 0.1547618 0.48481318
-0.20658864 -0.052722648 -0.17391765 0.012182522 -0.22121269 0.026389189 0.095933184 0.060482584
0.12522233 0.027329601 0.19807136 -0.20327121 -0.16994111 -0.09558828 0.010263437 -0.4586743
0.29563466 -0.03224473 -0.28845966 -0.023349902 0.11693951 0.019343683 0.017607281 0.105606
00000000: a7d5 39be 99e2 d8bd 07ba 6d3e bbd1 8a3d
00000010: 7cb5 4f3c ccd8 b33d c999 f23d b6bd 6ebe
00000020: 1146 edbb 720a dcbb e698 e4bd 0ff9 01bd
00000030: c33f bfbd 2275 693e 18d6 103e e3eb be3d
00000040: 1926 c6bd bda8 25be e0f0 b9bd b69f b13d
00000050: 3aec 5b3d 9ef6 763d 669e efbc 353a 04be
00000060: ded3 52be 0e8e 27be 4a97 243e 4935 e03d
00000070: e58f 8c3e 4200 9d3e 2462 063e 90c2 7ebe
00000080: b8d0 423c 79d8 aebc e183 4f3e b922 843d
00000090: 1a83 a13e a1d5 543e b11b 943d 5482 fd3d
000000a0: d0c4 b1bd 0f3b edbc b655 2dbe bec9 a13d
000000b0: 8a22 fd3d aae8 c43d e580 15be d92a 9f3d
000000c0: ebb3 753d eaad 6c3e cff9 603e 44da 89bc
000000d0: 5fe6 423e 095f d4bd 8eb0 9ebe efdc 2bbe
000000e0: 0038 653c d3e6 303d 0ad4 10be 8431 a7bd
000000f0: 84b5 f23d a413 bb3d 9e0e 96be 2d83 013e
00000100: e245 60be 6131 07bd 2615 23be cc7b 10be
00000110: 09f7 b1bd d222 f8bd 638d 783d a3bf ac3e
00000120: bc01 b73c f67c cebd 3472 6cbd 6333 48bc
00000130: 167f 62bc f1e9 1b3d 83e7 54be 67dc 253e
00000140: 3f43 d63d dbbe 96bd 2b2b 3ebc 8ce0 483e
00000150: 8d87 3ebe 423c 713e e167 2dbd b8ff 51be
00000160: d9e1 8abc 2ce0 b63d 7357 7a3d 1d3d 383d
00000170: 6d04 6dbe f139 2cbe 3a58 4bbe df05 1d3e
00000180: f69e 2f3d 09ef 2a3e eb1d ad3e bb66 b3bc
00000190: 0d15 32bc fbd1 8fbd 58d5 243d 6e06 4bbd
000001a0: 0ecf 2ebe cb16 aabd d568 a43e 330c 6e3e
000001b0: 7720 eabd 3f26 35ba 194d ee3d 6e21 a0bd
000001c0: 7c92 8dbd b4d2 92bb 5ecb 063e dced 1a3d
000001d0: 8e7c e5bd 3ff9 c53d 6055 3d3c e134 f6bd
000001e0: 132f 8d3d 51a7 d93d be7a 813e d7e9 343e
000001f0: fcbd fa3d d934 093d 14ec 653e 7bd0 44bc
00000200: 3688 4fbd 340f 643e 259f b9bd a93e a73c
00000210: e715 1b3d 2e09 b8bd d201 a1bc 1b66 763e
00000220: 69d7 39be e19d 65bd 1381 c23d 7f58 10bd
00000230: 868d 94bd da75 953e e302 9fbe 1c95 5cbc
00000240: 2895 44be 0064 053e f487 723d 54b1 243e
00000250: a176 be3c 47a9 f13c f91a 423e 7dd3 113e
00000260: 1418 c23d e253 033e 6763 143d 179a 7bbd
00000270: 42d4 00bc bea9 643e e3a2 493d eb12 2b3e
00000280: 70ad 103d 885a b7bd 1a22 f0bd 9ef9 ce3d
00000290: 4382 d13c efc6 9d3e af71 08be a90e 21bd
000002a0: 9990 bc3e 1dcd b63e c5b6 6abe 8ec4 a93d
000002b0: 92e6 3dbd 442a 093e 0aed 443c ff97 8bbe
000002c0: b11a b1bd 4421 cf3d 2923 5bbe 07a8 1cbd
000002d0: 16a3 0c3e 2d3f 753e 6d85 3f3e ae87 8a3e
000002e0: 6d78 563d 5174 edbd 6a2d 793e a8fb d63d
000002f0: 0270 3cbd 6f01 053c 0003 62bd 2b90 f1bc
00000300: 6cde 253e 2dec 5d3e 1957 113c 07c2 18be
00000310: aab6 4abd 3b97 e63b d954 4dbc 6b32 bcbd
00000320: c3af f2bd b1a7 bebe 9e77 e6bd 6013 163d
00000330: dfec 583d 63dc 213e 8b3e 60bd d821 b0bd
00000340: 82c2 b1bd 34d3 f7bc 026f 5dbe 5dab 773c
00000350: 55a3 e3bd efd8 98bd b98b c33d 4a3f 0c3e
00000360: b079 653d 18e2 213d 4fb5 903e 80da 1e3e
00000370: aa47 dfbd 473e 543d 1358 803d 9137 56bd
00000380: 416a 223b e4d2 9abe 5458 2f3e 16e3 dabd
00000390: 9f07 a5be 02c4 8c3d e179 1e3e 6f39 f83e
000003a0: f98b 53be b4f3 57bd 7817 32be 3399 473c
000003b0: 9485 62be 242e d83c 9e78 c43d 96bc 773d
000003c0: 483a 003e 54e2 df3c 38d3 4a3e 5426 50be
000003d0: 0b05 2ebe cac3 c3bd fa27 283c 5cd7 eabe
000003e0: 6d5d 973e 0d13 04bd fcb0 93be 4b48 bfbc
000003f0: fb7d ef3d a576 9e3c 253d 903c f547 d83d

signal_classifier.stem.2.0.bias f4 [32]
0.04804804 -0.03749875 -0.13469212 0.005882154 -0.09961541 0.0038811483 -0.095149554 0.013586541
-0.07721963 0.078574665 0.042287823 -0.10579938 -0.102854714 0.001365576 0.08803195 0.072366625
-0.06828391 0.09274079 0.0979985 -0.02955773 0.05576932 -0.021692965 0.028556284 0.01321482
-0.06149058 -0.11981768 0.041203704 -0.14155379 -0.008609694 0.055452876 -0.063658245 -0.11764031
00000000: 06ce 443d 4a98 19bd bbec 09be 16bf c03b
00000010: 2a03 ccbd dd5a 7e3b c5dd c2bd 159a 5e3c
00000020: 5325 9ebd c1eb a03d ff35 2d3d 58ad d8bd
00000030: 7ea5 d2bd 21fd b23a 184a b43d f434 943d
00000040: 6fd8 8bbd e2ee bd3d 70b3 c83d 0d23 f2bc
00000050: 5f6e 643d 72b5 b1bc deee e93c f982 583c
00000060: 8cdd 7bbd f962 f5bd 37c5 283d 7af3 10be
00000070: ad0f 0dbc 8e22 633d 415f 82bd 67ed f0bd

signal_classifier.stem.2.1.weight f4 [32]
0.98905766 1.0535799 0.91567624 0.9612993 0.9865399 0.9988296 1.1017976 1.0405151
0.9591547 0.87930995 1.0764829 1.077838 1.0428002 0.9579037 1.0237 0.9916113
1.0028948 0.9388208 1.0460308 1.0390085 0.97091657 1.0369803 0.9783272 0.9135316
0.94774085 1.0045196 1.0247589 0.9211762 1.0757304 0.9718389 1.1112573 1.1179409
00000000: e232 7d3f b5db 863f c269 6a3f b617 763f
00000010: e18d 7c3f 4cb3 7f3f b407 8d3f 992f 853f
00000020: 2a8b 753f 751a 613f 31ca 893f 98f6 893f
00000030: 7a7a 853f 2d39 753f 9a08 833f 3dda 7d3f
00000040: db5e 803f 8f56 703f 56e4 853f 3bfe 843f
00000050: fd8d 783f c5bb 843f a773 7a3f 35dd 693f
00000060: 259f 723f 1994 803f 4d2b 833f 34d2 6b3f
00000070: 89b1 893f 6fca 783f ae3d 8e3f b018 8f3f

signal_classifier.stem.2.1.bias f4 [32]
-0.014788264 -0.017802125 -0.005310249 0.0063650217 0.03203054 -0.025238374 0.051763136 0.018978462
0.04568841 -0.009263923 0.17211074 0.0996178 0.051085953 0.086258955 0.10048701 -0.034242652
0.10139834 -0.074350156 0.1198688 0.15540288 -0.04248088 -0.0047302768 0.00918171 -0.028040927
-0.06618233 0.05844111 0.07209124 0.014464168 0.07339861 -0.12533532 0.073217586 0.026012033
00000000: 7a4a 72bc c3d5 91bc 9901 aebb ac91 d03b
00000010: 7532 033d b5c0 cebc 9505 543d b878 9b3c
00000020: c523 3b3d b6c7 17bc cc3d 303e 6b04 cc3d
00000030: 813f 513d 89a8 b03d 22cc cd3d 0642 0cbd
00000040: efa9 cf3d e544 98bd c67d f53d ef21 1f3e
00000050: 6e00 2ebd 7000 9bbb e26e 163c 16b6 e5bc
00000060: 9a8a 87bd f25f 6f3d 92a4 933d 1efb 6c3c
00000070: 0352 963d e757 00be 1af3 953d 3017 d53c

signal_classifier.stem.2.1.running_mean f4 [32]
0.055924203 0.59374034 -0.16768903 -0.510179 -0.22586274 -0.72704744 -0.59967685 0.04071543
-0.22392635 0.27209842 0.11048603 -0.6944055 -0.9283547 -0.14057688 0.3570857 0.22659901
0.17588264 0.26016474 0.24295506 0.13288452 0.49862424 0.17248619 0.20862736 -0.36078045
-0.40189672 -0.22565486 0.25946197 -0.25928465 -0.06544887 0.39421836 0.05900231 -0.026091339
00000000: c710 653d 5eff 173f acb6 2bbe 179b 02bf
00000010: 9048 67be c81f 3abf 6c84 19bf 39c5 263d
00000020: f34c 65be 7c50 8b3e 8046 e23d 8fc4 31bf
00000030: a7a8 6dbf 63f3 0fbe f0d3 b63e 9209 683e
00000040: 941a 343e 5034 853e 36c9 783e e112 083e
00000050: ad4b ff3e 38a0 303e 69a2 553e 37b8 b8be
00000060: 68c5 cdbe 1112 67be 33d8 843e f5c0 84be
00000070: 0f0a 86bd fdd6 c93e 68ac 713d 81bd d5bc

signal_classifier.stem.2.1.running_var f4 [32]
0.79534984 1.4750264 0.55768716 0.8732893 0.7893246 2.3171146 1.0958753 2.1725953
1.0565987 0.9370363 1.2759844 3.7083993 2.6681893 1.0652653 0.6122731 1.6950262
1.4960767 0.57917047 1.0218111 1.0741179 1.4840181 1.5207558 2.610261 1.7046161
1.4000671 1.1672735 2.492356 0.58043146 2.345492 1.494089 2.4989116 1.4432039
00000000: 0c9c 4b3f aacd bc3f 96c4 0e3f e38f 5f3f
00000010: 2d11 4a3f 9b4b 1440 a445 8c3f cd0b 0b40
00000020: a03e 873f 9ce1 6f3f 7553 a33f 6a56 6d40
00000030: 9dc3 2a40 9d5a 883f eebd 1c3f 9ef6 d83f
00000040: 717f bf3f 8444 143f b5ca 823f b27c 893f
00000050: 4ef4 bd3f 20a8 c23f 840e 2740 dc30 da3f
00000060: 6635 b33f 3869 953f c382 1f40 2897 143f
00000070: 8a1c 1640 4f3e bf3f 2bee 1f40 e8ba b83f

signal_classifier.body.0.layers1.0.weight f4 [16, 32, 1]
0.123184904 0.60094005 0.13166988 0.35068932 0.41270125 0.12066941 0.23344536 -0.15777668
0.13761283 0.1995767 -0.2510944 0.22175725 -0.32122293 0.38187322 -0.2769914 -0.18617
0.12223691 0.03089415 0.258768 -0.22117452 0.116595045 -0.96253604 0.120513655 -0.1614922
0.005514536 -0.070536755 -0.1197877 0.109385826 0.06793046 -0.21530542 0.43005478 -0.16295193
0.039441828 0.43448386 -0.28734678 0.107213184 0.14646718 0.07357594 -0.003582547 0.14196567
-0.112040915 -0.080757685 0.026158063 -0.44972906 -0.0594213 -0.12661937 -0.16087589 0.039539363
0.22998694 0.043686345 -0.2093147 -0.014869923 -0.24360669 0.2492674 0.30120426 -0.041208375
0.28979155 -0.02974069 0.25262344 0.02618988 0.2004727 -0.12755659 0.43084472 -0.33607572
-0.047216922 -0.26455724 0.12634665 -0.021437848 -0.13569294 0.09933266 0.004281853 0.09464218
0.05408366 0.16809967 -0.099337064 -0.17501156 -0.33215907 0.20770368 -0.2152813 -0.30147496
0.2530498 0.38820744 0.024508486 0.6066867 0.22394305 0.21536991 -0.035617173 0.35803595
-0.112507954 -0.1442994 -0.039202295 -0.033556048 -0.22816889 0.3922085 0.08667206 -0.3122354
0.13873181 0.3557795 0.0928611 -0.04618685 0.3433574 0.11904694 -0.22024986 0.58379215
-0.036676776 -0.2461282 0.57863367 0.08034252 -0.024907725 0.14480574 0.18343994 0.2451959
0.24810705 -0.019289413 0.07175368 0.43079045 -0.021975994 0.042838402 -0.21040261 -0.003759354
0.14820376 -0.14938907 -0.22555237 -0.5906318 0.08352109 0.29262736 0.35423738 0.57305855
0.28540662 0.3847311 0.110539876 -0.022588829 0.50766945 -0.37580287 -0.35814208 -0.06150784
0.1247926 0.16541615 -0.4795662 -0.24958245 -0.18476564 0.11561029 0.109609395 -0.32932276
0.029592995 0.17693043 0.028564809 -0.10957378 -0.4055392 0.5401422 -0.055360902 0.2654613
-0.20713688 -0.19102186 -0.26976547 0.1962971 -0.20724455 0.51407623 -0.14814612 -0.046412453
0.021207862 -0.06415025 0.16790462 0.2145418 0.05042608 0.48771977 0.20632036 -0.1294686
-0.1967023 0.11902269 0.4701735 -0.2967699 0.57020843 0.09611321 0.47180638 0.10296601
0.0070916093 -0.3209725 -0.008033366 -0.2090664 0.009479272 0.14766175 -0.10729112 -0.12190955
-0.23456079 -0.022025682 0.11436906 0.24657358 -0.47647876 -0.03300739 -0.3041131 -0.26551324
-0.2058114 -0.18750332 0.12766662 0.2872147 0.026908407 -0.16091296 -0.3800451 0.24254675
-0.018877005 -0.102375984 0.14100324 -0.16468562 -0.08754352 0.3850298 0.18086247 -0.4457828
-0.05701182 -0.1304148 0.60171866 -0.064911 -0.10377598 -0.11623969 -0.16776928 0.1719237
-0.18324241 -0.25828192 -0.05302598 0.028372435 -0.23810601 0.15481845 -0.13338953 0.3114403
0.12795019 -0.44048426 -0.2772044 -0.041717216 -0.24536565 0.15678266 0.35551813 0.25278953
0.079737924 -0.13543251 0.0050091296 0.19040975 0.017996758 -0.14679892 -0.2979017 -0.17297599
-0.41518497 0.1185277 0.035060227 -0.123991586 0.17586912 -0.2303904 -0.017982464 -0.0951957
0.1599667 -0.2812581 0.11433294 -0.30728167 0.10094835 -0.4636605 0.2694067 -0.18947697
00000000: 5e48 fc3d 35d7 193f 78d4 063e 8d8d b33e
00000010: 944d d33e 8621 f73d 4d0c 6f3e 3690 21be
00000020: 61ea 0c3e d65d 4c3e 728f 80be 5514 633e
00000030: 5577 a4be e384 c33e d1d1 8dbe 59a3 3ebe
00000040: 5857 fa3d ba15 fd3c 3d7d 843e 937b 62be
00000050: 62c9 ee3d c368 76bf ddcf f63d 365e 25be
00000060: 48b3 b43b 9375 90bd 4153 f5bd ad05 e03d
00000070: 201f 8b3d 0679 5cbe 2430 dc3e dfdc 26be
00000080: c18d 213d ab74 de3e 1e1f 93be 9692 db3d
00000090: 7efb 153e fcae 963d 2ac9 6abb 735f 113e
000000a0: b575 e5bd 4964 a5bd 6f49 d63c e342 e6be
000000b0: c063 73bd 82a8 01be a6bc 24be 07f4 213d
000000c0: b281 6b3e 74f0 323d 9856 56be faa0 73bc
000000d0: 0874 79be f43f 7f3e 7237 9a3e 1dca 28bd
000000e0: 8f5f 943e bfa2 f3bc dc57 813e 298c d63c
000000f0: b748 4d3e 329e 02be ae97 dc3e 1e12 acbe
00000100: 8866 41bd 0c74 87be 0461 013e 6d9e afbc
00000110: 17f3 0abe ec6e cb3d c94e 8c3b c2d3 c13d
00000120: d486 5d3d 5222 2c3e 3b71 cbbd 3b36 33be
00000130: c110 aabe 46b0 543e b372 5cbe ed5a 9abe
00000140: be8f 813e 20c3 c63e 05c6 c83c d24f 1b3f
00000150: 5451 653e ee89 5c3e 50e3 11bd 7d50 b73e
00000160: 926a e6bd 39c3 13be 9692 20bd 1172 09bd
00000170: 1ba5 69be 8dcf c83e 1f81 b13d 51dd 9fbe
00000180: b60f 0e3e bb28 b63e f62d be3d 6c2e 3dbd
00000190: 8bcc af3e e2ce f33d 2e89 61be 6773 153f
000001a0: 633a 16bd 0809 7cbe 5621 143f 9e8a a43d
000001b0: 490b ccbc f547 143e aed7 3b3e a214 7b3e
000001c0: c60f 7e3e d504 9ebc 98f3 923d 9190 dc3e
000001d0: 0007 b4bc 5277 2f3d c873 57be 7e5f 76bb
000001e0: bac2 173e 73f9 18be 33f7 66be a533 17bf
000001f0: 1b0d ab3d 41d3 953e 9a5e b53e f7b3 123f
00000200: d120 923e 7afb c43e bb62 e23d 350c b9bc
00000210: a0f6 013f 3c69 c0be 665e b7be a5ef 7bbd
00000220: 4393 ff3d da62 293e b389 f5be 8b92 7fbe
00000230: 3433 3dbe 16c5 ec3d e47a e03d fe9c a8be
00000240: 026d f23c 402d 353e bf00 ea3c 3868 e0bd
00000250: d6a2 cfbe c246 0a3f 1dc2 62bd 8bea 873e
00000260: b11b 54be 3c9b 43be b31e 8abe 1b02 493e
00000270: ea37 54be 809a 033f 9eb3 17be fc1a 3ebd
00000280: 1cbc ad3c 3561 83bd 30ef 2b3e d8b0 5b3e
00000290: 948b 4e3d 68b6 f93e a545 533e 6b93 04be
000002a0: 546c 49be 2bc2 f33d 95ba f03e 39f2 97be
000002b0: 2ef9 113f 01d7 c43d 9b90 f13e d8df d23d
000002c0: bb60 e83b 8256 a4be 619e 03bc 8115 56be
000002d0: f34e 1b3c a434 173e 72bb dbbd b7ab f9bd
000002e0: b430 70be 346f b4bc 533a ea3d c97d 7c3e
000002f0: 06f5 f3be c232 07bd b6b4 9bbe 5af1 87be
00000300: 39c0 52be df00 40be 0abb 023e ce0d 933e
00000310: 056f dc3c 5ec6 24be 4595 c2be 2d5e 783e
00000320: f3a3 9abc 80aa d1bd 2763 103e 59a3 28be
00000330: 044a b3bd a022 c53e 0334 393e a53d e4be
00000340: 3a85 69bd 758b 05be 3c0a 1a3f 0ff0 84bd
00000350: 8088 d4bd 130f eebd b6cb 2bbe c40c 303e
00000360: e6a3 3bbe 873d 84be c531 59bd 4f6d e83c
00000370: 10d2 73be ba88 1e3e 4497 08be 1a75 9f3e
00000380: 6005 033e 2787 e1be bced 8dbe acdf 2abd
00000390: 2241 7bbe a28b 203e 7906 b63e a16d 813e
000003a0: a34d a33d d2ae 0abe a023 a43b c6fa 423e
000003b0: f06d 933c 7552 16be 9286 98be 9e20 31be
000003c0: 2093 d4be a7be f23d 509b 0f3d 4def fdbd
000003d0: 0917 343e 76eb 6bbe f64f 93bc f7f5 c2bd
000003e0: 50ce 233e 1001 90be 6327 ea3d 0654 9dbe
000003f0: 02be ce3d e964 edbe adef 893e 4006 42be

signal_classifier.body.0.layers1.0.bias f4 [16]
0.14091286 -0.121785074 -0.056676205 0.17113398 -0.104635626 -0.015566049 -0.012152437 -0.03360189
0.014536772 -0.108518444 0.1814958 0.13919297 -0.15099958 -0.08699007 -0.1862375 -0.08010114
00000000: 764b 103e 746a f9bd 4f25 68bd bf3d 2f3e
00000010: 344b d6bd be08 7fbc 041b 47bc 23a2 09bd
00000020: a42b 6e3c eb3e debd 09da 393e 9a88 0e3e
00000030: a29f 1abe da27 b2bd 0bb5 3ebe 110c a4bd

signal_classifier.body.0.layers1.1.weight f4 [16]
1.0665897 1.0276014 0.904475 1.0245109 0.9564716 1.009607 1.0148962 1.0759468
1.0558822 0.9861916 0.9682714 0.8978954 0.9158043 1.0497763 0.88159907 0.99096245
00000000: 0386 883f 7188 833f ac8b 673f 2c23 833f
00000010: 53db 743f cd3a 813f 1ee8 813f a0b8 893f
00000020: 2627 873f 0d77 7c3f a2e0 773f 79dc 653f
00000030: 2772 6a3f 125f 863f 7ab0 613f b7af 7d3f

signal_classifier.body.0.layers1.1.bias f4 [16]
0.09663485 0.05134879 0.06962078 0.011455985 0.022627385 0.091013424 -0.026240805 0.16758922
0.02403745 0.011379728 -0.05572881 -0.08314501 0.066473864 0.14639919 0.044090737 0.10697188
00000000: 7ee8 c53d 1c53 523d 5795 8e3d e2b1 3b3c
00000010: 115d b93c 3f65 ba3d f5f6 d6bc 829c 2b3e
00000020: 30ea c43c 0a72 3a3c e543 64bd ee47 aabd
00000030: 7323 883d abe9 153e 7d98 343d 1314 db3d

signal_classifier.body.0.layers1.1.running_mean f4 [16]
0.2414034 -0.036544077 0.013863355 0.93853706 -0.32014716 0.1054374 -0.036815934 -0.25439963
0.072275095 -0.46134323 -0.17835411 0.17177087 -0.5823184 0.029560095 0.31088415 -0.41186294
00000000: 7432 773e 3eaf 15bd 2023 633c f743 703f
00000010: 54ea a3be 90ef d73d 4ecc 16bd ab40 82be
00000020: f704 943d 2e35 ecbe 76a2 36be b4e4 2f3e
00000030: d212 15bf 0328 f23c 352c 9f3e b3df d2be

signal_classifier.body.0.layers1.1.running_var f4 [16]
1.0577574 0.7961391 0.5092669 0.77707225 1.4766575 0.4254296 0.52994406 3.2498844
0.32820594 0.7076901 0.4203176 0.7513426 0.48461846 0.6450168 0.5046983 0.5714433
00000000: 9864 873f c6cf 4b3f 515f 023f 35ee 463f
00000010: 1d03 bd3f e9d1 d93e 6aaa 073f 1bfe 4f40
00000020: 9c0a a83e 2e2b 353f de33 d73e fd57 403f
00000030: e91f f83e d21f 253f e833 013f 1c4a 123f

signal_classifier.body.0.layers2.0.0.weight f4 [16, 32, 1]
-0.22512527 0.28539062 -0.21183029 -0.5931171 -0.06732529 -0.13538902 0.6856018 0.098208815
0.46437672 -0.16498713 0.2839583 0.17613891 -0.17778492 -0.014487222 0.07094679 0.5542728
-0.05350622 0.21407984 0.17127955 -0.15538599 0.022230977 0.47950304 0.048343953 -0.32297492
-0.70771885 -0.16767348 -0.40866217 -0.023753364 -0.18443425 0.12677675 0.25811848 0.25020087
-0.22948493 0.10855235 0.36432862 0.069841236 0.45201248 -0.0313103 -0.12265664 0.1005406
-0.35306603 -0.28914508 0.22430012 0.08038649 -0.44057918 -0.28921342 -0.4581416 0.16925874
0.25605026 -0.07281972 0.04420887 -0.067304805 0.056294948 0.025437873 -0.019608505 -0.42184272
0.14109743 -0.48842877 0.383427 0.040039223 0.044377528 -0.37835068 -0.16319981 0.008317879
-0.106450915 -0.14840104 -0.15390405 0.2534684 0.08802546 0.041676003 0.10185717 0.22695507
0.3195358 -0.5330935 -0.07042793 0.21573794 -0.034339376 0.14417915 -0.14651003 -0.10174902
-0.12683815 0.020795042 -0.14932452 -0.33403236 0.09287009 0.14686392 -0.32387564 0.3837677
-0.2332619 0.097238004 -0.06723567 0.037375953 -0.21911138 -0.27961692 -0.10290792 0.72919536
-0.5231738 -0.55446726 0.19688486 -0.32594317 -0.25331664 -0.1803336 0.006320852 0.38641575
0.26455432 0.22018348 -0.17494182 -0.13006364 0.12258885 0.019311136 0.038093723 0.25240862
0.03065817 -0.1615175 -0.04750733 -0.35184637 0.30568907 -0.009620624 0.15183179 0.12992303
0.22114104 0.6867724 0.20491518 -0.30473787 -0.16052416 -0.076095 -0.17324696 0.015908426
0.16836736 -0.14588413 0.07165037 -0.1857391 0.235509 -0.4399516 -0.094594896 -0.26239038
0.16337386 0.1250689 -0.005929824 0.0506889 -0.76347154 -0.19706383 -0.29574665 -0.053541627
0.18406837 0.09753402 0.25172725 0.095001824 0.018341806 -0.29168722 0.41887796 0.15718819
0.2391616 0.12101317 -0.12936266 0.012985305 -0.69219404 0.010535882 0.09746935 0.30612046
0.106327154 -0.08848165 0.038040653 0.035003148 0.32292828 -0.14949909 -0.1479489 0.09004286
-0.023452664 0.19575034 -0.4965404 -0.5127956 0.21878245 0.4139984 0.3951482 -0.62406
-0.0604266 0.020097688 -0.0037762942 0.46947828 -0.10150198 0.8400937 -0.27732176 0.30808762
0.21612412 -0.26098025 0.0495456 -0.30854645 -0.3353242 0.05908296 -0.3411534 0.2781742
0.032840665 -0.011433375 -0.07816433 -0.40530333 -0.3145684 0.5952636 -0.21163155 0.28925598
0.010055608 0.017219227 -0.14336927 -0.32885745 0.17319654 0.25927514 0.59676385 0.42239848
-0.13414268 0.13347787 0.14324783 -0.18414536 0.087818705 0.3042995 -0.0040341495 0.041140568
-0.044721007 0.06790521 0.025156032 0.103458606 -0.23712958 0.49014807 -0.2987316 -0.022259815
-0.180123 -0.041948337 -0.0717843 -0.48356265 0.041606057 -0.15640299 -0.6367929 -0.052440774
-0.33761933 0.16753523 0.09269368 -0.38136992 -0.2110032 -0.6330317 0.00032857683 0.11775479
0.038347367 0.20519105 -0.22323634 0.51536536 -0.028963907 -0.36657518 -0.088515826 -0.2961619
-0.00011228185 0.09201668 -0.17730545 0.12511411 0.29397684 0.024171911 -0.109158956 0.13870807
00000000: 3d87 66be b81e 923e 0aea 58be 86d6 17bf
00000010: d7e1 89bd 6ba3 0abe 9983 2f3f b421 c93d
00000020: c9c2 ed3e 63f2 28be fb62 913e c25d 343e
00000030: 400d 36be d05b 6dbc 8d4c 913d d2e4 0d3f
00000040: 5729 5bbd bf37 5b3e e863 2f3e 811d 1fbe
00000050: bd1d b63c 6c81 f53e 4f04 463d f85c a5be
00000060: 102d 35bf 99b2 2bbe 2b3c d1be 6a96 c2bc
00000070: 55dc 3cbe c4d1 013e 1b28 843e 541a 803e
00000080: 19fe 6abe b250 de3d 4889 ba3e ec08 8f3d
00000090: 2e6e e73e 3b3f 00bd 6833 fbbd 3be8 cd3d
000000a0: 12c5 b4be d30a 94be eeae 653e aca1 a43d
000000b0: 9893 e1be c813 94be 8991 eabe 2a52 2d3e
000000c0: 0519 833e 8122 95bd 5c14 353d 1ad7 89bd
000000d0: 8895 663d 1663 d03c 04a2 a0bc c5fb d7be
000000e0: d87b 103e 5613 fabe 8b50 c43e 2b00 243d
000000f0: 36c5 353d 2eb7 c1be da1d 27be b747 083c
00000100: f002 dabd 71f6 17be 0699 1dbe 9cc6 813e
00000110: b146 b43d 75b4 2a3d 7e9a d03d e966 683e
00000120: 329a a33e d178 08bf 853c 90bd 68ea 5c3e
00000130: 72a7 0cbd b3a3 133e ba06 16be ca61 d0bd
00000140: dce1 01be 5d5a aa3c 87e8 18be 4a06 abbe
00000150: ac32 be3d 7f63 163e 07d3 a5be 337d c43e
00000160: 35dc 6ebe b824 c73d dbb2 89bd 8717 193d
00000170: bc5e 60be f329 8fbe 63c1 d2bd 8cac 3a3f
00000180: b8ee 05bf 91f1 0dbf 2f9c 493e 06e2 a6be
00000190: b8b2 81be 5fa9 38be 261f cf3b 49d8 c53e
000001a0: aa73 873e c777 613e f323 33be 672f 05be
000001b0: dd0f fb3d 6332 9e3c 2a08 1c3d b43b 813e
000001c0: d826 fb3c d864 25be 0c97 42bd 3525 b4be
000001d0: 4783 9c3e d29f 1dbc cb79 1b3e 8b0a 053e
000001e0: cc72 623e 51d0 2f3f 49d5 513e 9a06 9cbe
000001f0: 7260 24be b2d7 9bbd a767 31be 6352 823c
00000200: 7e68 2c3e a662 15be 6ebd 923d 6432 3ebe
00000210: 4529 713e 5641 e1be f8ba c1bd 0858 86be
00000220: 7a4b 273e 1012 003e f84e c2bb 2a9f 4f3d
00000230: df72 43bf 1acb 49be 1b6c 97be 774e 5bbd
00000240: 6b7c 3c3e ebbf c73d 65e2 803e 5190 c23d
00000250: 8e41 963c 0758 95be 2c77 d63e f1f5 203e
00000260: c7e6 743e c1d5 f73d a577 04be 51c0 543c
00000270: a133 31bf b19e 2c3c 039e c73d d2bb 9c3e
00000280: 0dc2 d93d de35 b5bd 84d0 1b3d 765f 0f3d
00000290: db56 a53e 4a16 19be eb7f 17be 6468 b83d
000002a0: cd1f c0bc c772 483e 8b3a febe 9346 03bf
000002b0: 8208 603e 99f7 d33e dd50 ca3e 65c2 1fbf
000002c0: e281 77bd e8a3 a43c b47b 77bb 755f f03e
000002d0: 45e0 cfbd 6110 573f 1efd 8dbe a9bd 9d3e
000002e0: a44f 5d3e 349f 85be 54f0 4a3d cdf9 9dbe
000002f0: 9daf abbe f900 723d a9ab aebe d96c 8e3e
00000300: ef83 063d 0d53 3bbc 9f14 a0bd eb83 cfbe
00000310: 1c0f a1be 3263 183f f1b5 58be 5c19 943e
00000320: 47c0 243c 560f 8d3c 65cf 12be 0160 a8be
00000330: 6f5a 313e b6bf 843e 84c5 183f 9d44 d83e
00000340: b35c 09be 6cae 083e 8faf 123e 9a90 3cbe
00000350: 4bda b33d 25cd 9b3e e630 84bb 0383 283d
00000360: 602d 37bd e311 8b3d 0614 ce3c 1be2 d33d
00000370: 19d2 72be b0f4 fa3e 59f3 98be 375a b6bc
00000380: 2a72 38be 05d2 2bbd a603 93bd 8695 f7be
00000390: 1d6b 2a3d 1b28 20be dc04 23bf 23cc 56bd
000003a0: 71dc acbe 5b8e 2b3e 2fd6 bd3d eb42 c3be
000003b0: 3911 58be 5e0e 22bf d644 ac39 6c29 f13d
000003c0: 2112 1d3d 9a1d 523e 1198 64be fcee 033f
000003d0: b745 edbc beaf bbbe c947 b5bd 88a2 97be
000003e0: dc78 ebb8 3e73 bc3d 8f8f 35be ea1d 003e
000003f0: 2284 963e 2c04 c63c bb8e dfbd 7d09 0e3e

signal_classifier.body.0.layers2.0.0.bias f4 [16]
-0.013941954 0.06849827 0.2345513 -0.045374554 0.14425546 0.14332017 0.015579145 0.12603667
0.016900321 0.040061906 0.045733906 -0.24705218 -0.12955123 -0.1206848 -0.18617778 0.0032121819
00000000: cb6c 64bc d248 8c3d 372e 703e abda 39bd
00000010: b4b7 133e 86c2 123e ac3f 7f3c c20f 013e
00000020: 8b72 8a3c f417 243d 7a53 3b3d 3ffb 7cbe
00000030: 14a9 04be 9829 f7bd 63a5 3ebe 7883 523b

signal_classifier.body.0.layers2.0.1.weight f4 [16]
0.9538771 0.9028128 1.0748235 0.99728745 1.0386581 0.9677054 0.96244586 1.0301818
0.9598176 0.8821409 1.1327713 1.0611367 0.855479 1.08279 0.9869982 1.0082726
00000000: 4a31 743f bd1e 673f d193 893f 3b4e 7f3f
00000010: c0f2 843f 8bbb 773f da62 763f ffdc 833f
00000020: 9bb6 753f fcd3 613f a6fe 903f 54d3 873f
00000030: ac00 5b3f dd98 8a3f eaab 7c3f 140f 813f

signal_classifier.body.0.layers2.0.1.bias f4 [16]
0.058509447 -0.06484852 0.03852603 0.026405048 0.07307771 0.085276835 0.0669161 0.12018718
-0.05965515 0.03294837 0.12749341 -0.05087003 0.03693468 0.06142444 0.12272555 0.07099612
00000000: 9aa7 6f3d 4dcf 84bd 78cd 1d3d 664f d83c
00000010: c4a9 953d 9fa5 ae3d 4f0b 893d b224 f63d
00000020: f558 74bd dff4 063d a28d 023e 185d 50bd
00000030: d248 173d 3298 7b3d 8857 fb3d 6a66 913d

signal_classifier.body.0.layers2.0.1.running_mean f4 [16]
0.24238287 -0.12982215 0.22123198 -0.1508845 -0.05884475 0.11456227 0.11953808 -0.25391605
0.2813421 0.5574702 -0.007864761 -0.28741482 -0.17264745 0.20759882 -0.028877713 -0.6235324
00000000: 3733 783e 19f0 04be a38a 623e 7781 1abe
00000010: 3107 71bd a09f ea3d 62d0 f43d 4901 82be
00000020: 120c 903e 5eb6 0e3f 33db 00bc 0928 93be
00000030: 7eca 30be c994 543e f490 ecbc d29f 1fbf

signal_classifier.body.0.layers2.0.1.running_var f4 [16]
0.5721481 0.56338537 1.3324474 0.8845635 0.6031233 0.741371 1.352731 0.8512461
0.8027284 0.6799908 2.3679159 2.6999543 0.39690864 0.7576559 3.7210996 1.6307113
00000000: 4c78 123f 063a 103f a38d aa3f c172 623f
00000010: 4a66 1a3f 7dca 3d3f 4a26 ad3f 44eb 593f
00000020: 9c7f 4d3f e113 2e3f ef8b 1740 0dcc 2c40
00000030: 9c37 cb3e bdf5 413f 7f26 6e40 26bb d03f
