experiments/weights/m202_MultiOutput_20230518_114418/epoch_200.pth (torch, 383813 bytes, 138 tensors)

signal_classifier.stem.0.0.weight f4 [32, 1, 11]
0.58675283 0.034904696 -0.069643825 0.13388862 0.58875334 -0.40885627 -0.3471105 -0.37799504
-0.5645295 -0.19642442 0.48028886 0.7156136 0.06842834 0.18778268 0.02015923 -0.25232747
0.20901059 -0.39570588 -0.529362 -0.38823706 -0.07979127 0.5220158 0.9997552 0.722636
-0.0151118245 -0.26645055 0.51453036 -0.24428116 -0.46774256 -0.13036342 0.3990474 0.09113303
0.22945042 0.19956821 -0.31564382 0.8132952 0.15438363 -0.16764352 0.6376468 -0.41515717
-0.1972141 -0.2656569 -0.27404866 0.21538913 -0.30221525 -0.24493913 0.15987894 0.061515506
-0.22709155 0.19040643 -0.22880313 -0.33611166 0.25509086 -0.25676808 0.96601045 -0.5307655
0.41340795 -0.020754509 0.14741513 -0.6141012 -0.08954418 0.15158063 0.39409384 -0.15437208
0.24110198 0.11978748 -0.031651385 -0.45630085 -0.37260824 -0.5434054 0.90069187 -0.30796844
0.20640866 0.20091212 -0.2681203 0.29439494 0.6306659 -0.016160436 1.0513566 -0.10521212
-0.69698024 -0.5084815 0.34591144 0.08377425 -0.041058127 -0.016595773 -0.75258505 0.361268
0.2322113 0.44740397 -0.64386445 -0.24194036 0.20906061 -0.4035564 -0.1769758 0.2128866
-0.055998787 -0.6033806 -0.96570045 0.07988844 0.06644061 -0.107899815 -0.3488646 0.14206778
-0.22532307 -0.3857751 -0.54674095 0.29699674 0.55309325 0.7849617 0.42813516 -0.17940348
-0.38913077 0.018632272 -0.20482239 -0.072720885 -0.7115756 0.08385663 -0.13249862 0.1576253
-0.4221772 0.35460356 -0.50907415 0.26768503 -0.029410101 0.1594251 0.21823306 0.2715111
-0.8895833 0.2951708 1.0034486 0.40954953 0.6864951 0.46945545 0.18391526 0.66061574
-0.6553197 0.6953484 0.3987526 0.29451832 0.20304312 -0.41435298 -0.13284063 0.20667747
0.15985133 0.62487125 0.31266806 -0.5492307 0.012453232 -0.07938254 1.0771667 -0.4769288
0.08071192 -0.3130877 -0.0033237152 -0.5997974 -0.34490895 0.20546953 -0.10130201 1.3096321
-0.24254493 -0.041436426 -0.3556457 -0.6564488 -0.34242934 0.40402573 -0.34200504 0.2660148
0.9553681 -0.056057077 0.2003823 0.260646 0.4741691 0.27234536 0.56965953 -0.02250388
-0.17096186 -0.056936365 -0.5136752 -0.39827213 -0.4416197 0.17165843 -0.36144748 -0.31282797
0.19538239 -0.31320956 0.18677303 0.7690073 -0.09993109 0.6639383 -0.4165764 -0.027493557
-0.16263121 0.248803 0.08800845 0.20908451 -0.2698131 0.09905314 0.41779727 0.34664938
0.4538891 0.37715518 0.49145907 0.23438518 -0.110431455 -0.060701914 0.28115106 0.12233656
-0.020499567 -0.35929063 -0.3388472 -0.11988642 -0.036933452 0.101196095 0.13976206 0.57501316
-0.04438951 0.07643628 0.10357283 0.2121378 -0.08558629 0.21211836 0.10646299 0.313352
-0.18175352 0.5171768 0.25566348 -0.008345369 -0.05598492 0.25474182 0.4858759 -0.35779858
0.0579406 0.3670869 -0.23893516 -0.21603209 -0.3573265 -0.19321057 -0.03745796 0.4512965
0.18900242 0.09170874 0.11473197 0.00095898204 -0.7211732 -1.0453541 -0.035978224 0.38101667
-0.26889324 0.5212241 -0.21409199 0.46562403 0.5511012 0.1979855 -0.27723548 -0.19305359
00000000: 6f35 163f 3af8 0e3d 6ca1 8ebd 191a 093e
00000010: 8ab8 163f 9c55 d1be 78b8 b1be 9188 c1be
00000020: 0185 10bf 7c23 49be 6ce8 f53e 7432 373f
00000030: 2824 8c3d 1a4a 403e f824 a53c 1131 81be
00000040: df06 563e f699 cabe 4584 07bf 02c7 c6be
00000050: 9b69 a3bd d4a2 053f f5ef 7f3f acfe 383f
00000060: 9697 77bc 356c 88be 43b8 033f d724 7abe
00000070: f47b efbe fd7d 05be f14f cc3e f4a3 ba3d
00000080: 0df5 6a3e 9c5b 4c3e 119c a1be 1d34 503f
00000090: be16 1e3e beaa 2bbe d23c 233f 7b8f d4be
000000a0: 7ef2 49be 2e04 88be 1b50 8cbe f88e 5c3e
000000b0: f5bb 9abe 53d1 7abe 4eb7 233e aff7 7b3d
000000c0: b08a 68be e7f9 423e 5e4b 6abe d416 acbe
000000d0: 459b 823e 1b77 83be 764c 773f 3fe0 07bf
000000e0: 35aa d33e 5c05 aabc fef3 163e bc35 1dbf
000000f0: f062 b7bd f437 1b3e abc6 c93e b713 1ebe
00000100: 70e3 763e 2353 f53d e2a4 01bd 44a0 e9be
00000110: 82c6 bebe 9e1c 0bbf be93 663f 0aae 9dbe
00000120: cb5c 533e e8bb 4d3e 1047 89be efba 963e
00000130: 5273 213f e462 84bc da92 863f 7479 d7bd
00000140: 4c6d 32bf d82b 02bf 4e1b b13e d591 ab3d
00000150: 912c 28bd dcf3 87bc 6aa9 40bf 1ff8 b83e
00000160: cdc8 6d3e 2212 e53e 4dd4 24bf 37bf 77be
00000170: fc13 563e f29e cebe 2539 35be f2fe 593e
00000180: fc5e 65bd 2777 1abf 2538 77bf 8d9c a33d
00000190: 0412 883d 94fa dcbd 619e b2be 377a 113e
000001a0: 17bb 66be 5084 c5be 37f7 0bbf f50f 983e
000001b0: 8597 0d3f 40f3 483f 8834 db3e 8cb5 37be
000001c0: 263c c7be b5a2 983c f6bc 51be b0ee 94bd
000001d0: d229 36bf 06bd ab3d b8ad 07be 8768 213e
000001e0: 9c27 d8be 998e b53e af52 02bf 030e 893e
000001f0: 74ed f0bc 5540 233e 7d78 5f3e 8103 8b3e
00000200: bbbb 63bf a120 973e 0171 803f 7ab0 d13e
00000210: 25be 2f3f 775c f03e 4854 3c3e 1d1e 293f
00000220: 08c3 27bf 5a02 323f 4d29 cc3e 1bcb 963e
00000230: 89ea 4f3e 1326 d4be 6007 08be 42a3 533e
00000240: 11b0 233e 90f7 1f3f 0716 a03e 629a 0cbf
00000250: a408 4c3c 5093 a2bd 99e0 893f 0330 f4be
00000260: 4b4c a53d 084d a0be b0d2 59bb 538c 19bf
00000270: e897 b0be 9b66 523e 6e77 cfbd 06a2 a73f
00000280: b35d 78be 3eb9 29bd 3117 b6be 070d 28bf
00000290: e652 afbe 76dc ce3e 491b afbe 1833 883e
000002a0: 0193 743f 1b9c 65bd 0531 4d3e 6473 853e
000002b0: 4bc6 f23e da70 8b3e 35d5 113f 0f5a b8bc
000002c0: a010 2fbe 1b36 69bd 3880 03bf 53ea cbbe
000002d0: fa1b e2be 3ac7 2f3e a50f b9be fd2a a0be
000002e0: 5212 483e 015d a0be 6e41 3f3e aadd 443f
000002f0: aca8 ccbd dcf7 293f 8049 d5be 2b3a e1bc
00000300: cc88 26be 37c6 7e3e c63d b43d 401a 563e
00000310: f124 8abe 5fdc ca3d 86e9 d53e 077c b13e
00000320: 2764 e83e 7c1a c13e 86a0 fb3e ab02 703e
00000330: e329 e2bd 92a2 78bd 08f3 8f3e 978b fa3d
00000340: b5ee a7bc f1f4 b7be 617d adbe 0387 f5bd
00000350: 8847 17bd e63f cf3d c91d 0f3e 1034 133f
00000360: c6d1 35bd a08a 9c3d fe1d d43d a73a 593e
00000370: dd47 afbd 8e35 593e 4509 da3d ac6f a03e
00000380: 981d 3abe b365 043f 53e6 823e 04bb 08bc
00000390: 7250 65bd 856d 823e bac4 f83e 6031 b7be
000003a0: 1f53 6d3d d0f2 bb3e 6bab 74be 8437 5dbe
000003b0: 80f3 b6be fed8 45be 856d 19bd 5610 e73e
000003c0: da89 413e cbd1 bb3d 98f8 ea3d 3264 7b3a
000003d0: cf9e 38bf 2ace 85bf e75d 13bd 9e14 c33e
000003e0: 60ac 89be f16e 053f ee3a 5bbe 4666 ee3e
000003f0: f814 0d3f b6bc 4a3e cff1 8dbe d7af 45be

signal_classifier.stem.0.0.bias f4 [32]
0.24811901 0.027747879 -0.33773273 0.009305209 0.21747628 0.05839183 -0.32211873 -0.22594218
0.041140944 -0.23757774 0.05580392 -0.10545812 0.15912235 0.16736697 -0.20347576 0.13206728
-0.1872526 -0.23443924 -0.31850028 -0.11787161 0.13024025 0.027666725 0.24754408 0.06530246
-0.06624844 -0.18681875 -0.2586944 0.18053792 0.18882088 0.17635041 -0.28553513 0.0030834412
00000000: e912 7e3e 854f e33c 4eeb acbe e074 183c
00000010: 1ab2 5e3e 462c 6f3d bfec a4be 635d 67be
00000020: 6883 283d 9447 73be a792 643d 6dfa d7bd
00000030: f8f0 223e 3f62 2b3e f35b 50be a53c 073e
00000040: 25bf 3fbe d710 70be 7812 a3be ac66 f1bd
00000050: b35d 053e 54a5 e23c 327c 7d3e 4cbd 853d
00000060: 43ad 87bd 6a4d 3fbe 9873 84be efde 383e
00000070: 435a 413e 3495 343e a931 92be 8f13 4a3b

signal_classifier.stem.0.1.weight f4 [32]
0.985842 1.0821468 0.94657683 0.9069666 1.0130458 1.04412 0.93094105 0.9626022
1.0400723 1.0182675 1.0006983 0.9908989 0.9802815 1.0375854 1.0169435 1.0116161
1.0739675 1.023719 1.0627282 1.0425161 0.9600241 1.0064938 0.9440727 1.0294387
0.9879475 0.9673075 0.9748636 0.9596659 1.0360522 0.9871025 0.9715444 1.0645685
00000000: 2460 7c3f c983 8a3f dc52 723f f72e 683f
00000010: 7cab 813f b9a5 853f 2752 6e3f 196d 763f
00000020: 1721 853f 9756 823f e216 803f 8dab 7d3f
00000030: baf3 7a3f 99cf 843f 342b 823f a37c 813f
00000040: c477 893f 3909 833f 7a07 883f 2b71 853f
00000050: 24c4 753f cad4 803f c0ae 713f a6c4 833f
00000060: 21ea 7c3f 77a1 773f a990 793f aaac 753f
00000070: 5c9d 843f c0b2 7c3f 22b7 783f c843 883f

signal_classifier.stem.0.1.bias f4 [32]
0.037954025 0.0017143575 -0.0508091 0.049060095 0.0008592757 -0.0013731787 0.08454934 0.0016909139
-0.021145025 0.0002477657 -0.036769155 0.08216361 -0.045148566 0.10004526 -0.016008612 -0.004849037
-0.005025993 0.006960799 -0.0020432344 0.00036854725 0.088967554 -0.09415831 0.0017112505 0.0025090058
-0.00055835576 -0.03703095 -0.027058369 -0.04167358 0.0014931011 -0.07739351 0.045520768 0.00022977516
00000000: ae75 1b3d 4bb4 e03a 341d 50bd 3df3 483d
00000010: 0441 613a 3bfc b3ba 3428 ad3d a8a1 dd3a
00000020: 5538 adbc 8de6 8139 419b 16bd 6545 a83d
00000030: b4ed 38bd 87e4 cc3d 7e24 83bc ace4 9ebb
00000040: 16b1 a4bb 6a17 e43b c9e7 05bb 9339 c139
00000050: 9f34 b63d 12d6 c0bd 0a4c e03a 226e 243b
00000060: 9f5e 12ba c4ad 17bd 83a9 ddbc eab1 2abd
00000070: 29b4 c33a 7d80 9ebd fc73 3a3d cdef 7039

signal_classifier.stem.0.1.running_mean f4 [32]
0.24758218 0.027401567 -0.33741477 0.009006388 0.21802689 0.058140546 -0.32079038 -0.2272487
0.041149102 -0.23691557 0.056231752 -0.10489952 0.15937974 0.16674134 -0.2046661 0.13225955
-0.18703711 -0.23440254 -0.31862953 -0.1179375 0.13049418 0.027725674 0.24821043 0.06435217
-0.06469811 -0.18724628 -0.2590347 0.17934316 0.19035773 0.17721798 -0.28523672 0.003004071
00000000: 2f86 7d3e 4079 e03c a1c1 acbe 878f 133c
00000010: 7142 5f3e c824 6e3d a33e a4be e2b3 68be
00000020: f68b 283d ff99 72be 4453 663d 8fd5 d6bd
00000030: 7134 233e 3ebe 2a3e fd93 51be 0c6f 073e
00000040: a886 3fbe 3807 70be 6923 a3be 3789 f1bd
00000050: 44a0 053e f420 e33c e02a 7e3e 12cb 833d
00000060: 7180 84bd 7dbd 3fbe 32a0 84be bca5 373e
00000070: 23ed 423e a178 353e 8c0a 92be f3df 443b

signal_classifier.stem.0.1.running_var f4 [32]
0.24086702 0.201924 0.30069312 0.23016146 0.19776136 0.16192427 0.2804352 0.34561318
0.29452437 0.20612851 0.16112451 0.3475238 0.3263526 0.32279596 0.4150449 0.25300542
0.13877638 0.19920644 0.13180849 0.088776745 0.102766536 0.11236779 0.35219896 0.36749023
0.18384528 0.07549488 0.2679514 0.58892095 0.36289376 0.1464245 0.6852636 0.26284835
00000000: d8a5 763e 2ac5 4e3e 73f4 993e 72af 6b3e
00000010: f481 4a3e 7acf 253e 3495 8f3e 36f4 b03e
00000020: e6cb 963e 5a13 533e d3fd 243e a4ee b13e
00000030: b017 a73e 8345 a53e c480 d43e ed89 813e
00000040: 651b 0e3e c6fc 4b3e cef8 063e 95d0 b53d
00000050: 4377 d23d 1521 e63d 6c53 b43e ae27 bc3e
00000060: f041 3c3e 0f9d 9a3d ed30 893e 86c3 163f
00000070: 36cd b93e 4ef0 153e 6f6d 2f3f 0f94 863e

signal_classifier.stem.1.0.weight f4 [32, 32, 3]
-0.04727848 0.14720026 0.122544676 0.03431214 -0.044106912 -0.07014995 -0.07966854 0.19417684
0.12040527 -0.285813 0.0010502071 0.02817932 0.13391946 -0.101691164 0.14328156 0.01385003
0.0018931406 0.064995885 0.1448771 -0.07250529 -0.1585387 -0.12549622 0.09586606 0.1794022
0.099966556 0.097477235 -0.07302219 0.20842512 -0.16269186 -0.04522649 -0.036657527 -0.095554
0.095009014 0.20490402 -0.049672503 -0.0724681 -0.27779922 0.13166529 -0.15848511 0.098638125
0.06358852 0.065535985 -0.18328556 -0.061111607 -0.07652959 0.2673378 0.3531164 0.18385424
0.017115628 -0.122709915 0.102973916 0.22735016 0.014346196 -0.1537361 -0.3195891 -0.13307604
0.17381708 0.1734248 0.15830259 -0.020855993 -0.10712813 -0.23704329 -0.39835876 -0.14500566
0.20478489 0.048941776 0.1399089 0.09397862 0.017549424 0.1830455 0.22102724 0.11579087
-0.34409195 0.3116846 -0.008130656 0.055795852 0.17858012 -0.19261703 -0.07417973 0.004791538
0.013420195 -0.0455981 0.12721178 -0.1165509 -0.06570657 -0.016055923 -0.07621335 0.1914444
0.19631353 -0.2024171 -0.06556554 0.14846046 -0.07789252 0.024413591 0.17550945 -0.101946704
-0.12236079 0.19881491 0.062641054 -0.2104779 -0.041759025 0.16796602 -0.016426288 -0.16031455
0.06830656 -0.21364217 0.09007805 0.11332827 -0.06588856 -0.11847089 0.01140918 0.088336796
-0.12582721 -0.06576835 -0.08981457 0.068383746 0.037829258 0.43010417 -0.07440967 -0.20069692
-0.10040919 -0.23401886 0.27974266 0.09504839 -0.029812071 0.11156056 0.07437285 -0.22157907
0.061078638 -0.27223417 0.046859164 -0.10977228 0.030156745 0.07548021 0.050870493 0.08012507
-0.12047805 0.25201246 0.13035749 -0.10808909 0.048332963 0.009267193 -0.001278394 -0.16921422
-0.21966048 0.024430428 0.027927903 -0.037107255 -0.07834031 0.46426982 -0.121938355 -0.35915154
0.17496014 0.2141993 -0.13646969 -0.1638456 -0.02212255 0.09060144 -0.047604494 0.058283884
-0.05666225 -0.13787204 0.06755903 0.05998983 -0.051770203 0.15580255 -0.06867038 0.087817326
-0.05084974 -0.004954564 0.22809851 0.16919549 -0.21616152 -0.22092146 0.14412837 -0.018851336
-0.004318679 0.07833059 -0.13763998 0.2096862 -0.12186195 0.063221 0.19221005 -0.24630158
-0.0030938704 -0.061875626 -0.21175456 -0.091268875 -0.21348977 0.14993003 0.12355866 0.031150056
-0.22427452 -0.049975608 0.06648665 0.08475642 -0.07542392 -0.05707777 -0.014657911 -0.05960903
0.12352554 -0.029680554 -0.22133845 -0.19910683 0.09438238 0.028013723 -0.057154257 -0.13787967
0.16543481 0.16098858 -0.3434984 0.14274548 -0.086785294 0.07288882 0.049100515 -0.18012789
0.14630195 0.13192326 -0.24863128 0.11187748 0.27359822 0.25926504 -0.20953046 -0.4173635
-0.020531487 0.054322217 -0.13992813 0.15892242 0.11879501 0.032746766 -0.12590536 -0.028565625
-0.11440147 0.25250098 -0.14013718 -0.13507253 0.16716993 -0.18147454 -0.15507042 0.1286323
-0.17574972 0.05864427 0.009090043 0.004855722 0.04397107 -0.31763718 0.04418353 -0.09089504
0.02002846 0.15696268 -0.077728964 0.13088879 -0.06431752 -0.0749671 -0.065979056 -0.10201725
00000000: 14a7 41bd aabb 163e b4f8 fa3d e38a 0c3d
00000010: 73a9 34bd c7aa 8fbd 4229 a3bd 4bd6 463e
00000020: 0a97 f63d 1556 92be 1aa7 893a 51d8 e63c
00000030: 2f22 093e 7543 d0bd 67b8 123e 3ceb 623c
00000040: 4223 f83a 901c 853d aa5a 143e a77d 94bd
00000050: f857 22be 1582 00be 6d55 c43d 36b5 373e
00000060: 44bb cc3d 25a2 c73d a88c 95bd 656d 553e
00000070: b298 26be 693f 39bd 3426 16bd d1b1 c3bd
00000080: 1694 c23d 5cd2 513e 6575 4bbd 286a 94bd
00000090: b33b 8ebe 44d3 063e ec49 22be c902 ca3d
000000a0: b33a 823d bb37 863d 36af 3bbe 2a50 7abd
000000b0: 8cbb 9cbd 80e0 883e accb b43e 4944 3c3e
000000c0: 1336 8c3c 564f fbbd fde3 d23d 7bce 683e
000000d0: 4f0c 6b3c ff6c 1dbe 2fa1 a3be 1645 08be
000000e0: 1bfd 313e 4596 313e 131a 223e 30da aabc
000000f0: fe65 dbbd 7abb 72be aef5 cbbe 5d7c 14be
00000100: 21b3 513e 2c77 483d 4744 0f3e dd77 c03d
00000110: cfc3 8f3c 4870 3b3e f754 623e c323 ed3d
00000120: d22c b0be 2095 9f3e 7136 05bc 318a 643d
00000130: b5dd 363e 663d 45be 8beb 97bd 5602 9d3b
00000140: 61e0 5b3c 13c5 3abd ce43 023e 3db2 eebd
00000150: 2b91 86bd b687 83bc bf15 9cbd 000a 443e
00000160: 6a06 493e 6e46 4fbe 3a47 86bd 0506 183e
00000170: 1d86 9fbd 03ff c73c c0b8 333e 6fc9 d0bd
00000180: 4b98 fabd 2396 4b3e f449 803d 8587 57be
00000190: 830b 2bbd 49ff 2b3e 6c90 86bc 7f29 24be
000001a0: 4fe4 8b3d 03c5 5abe d77a b83d a718 e83d
000001b0: 95f0 86bd dea0 f2bd 92ed 3a3c ece9 b43d
000001c0: d9d8 00be 8fb1 86bd b4f0 b7bd c70c 8c3d
000001d0: daf2 1a3d 9d36 dc3e 1964 98bd 7e83 4dbe
000001e0: 55a3 cdbd a4a2 6fbe 6e3a 8f3e bba8 c23d
000001f0: 7238 f4bc dd79 e43d cb50 983d a0e5 62be
00000200: 982d 7a3d 4762 8bbe 65ef 3f3d 4ad0 e0bd
00000210: 470b f73c 5e95 9a3d 945d 503d 9d18 a43d
00000220: 32bd f6bd c707 813e 6f7c 053e d05d ddbd
00000230: c9f8 453d 6dd5 173c c98f a7ba 7e46 2dbe
00000240: adee 60be 5222 c83c 0fc9 e43c c7fd 17bd
00000250: e270 a0bd c6b4 ed3e d1ba f9bd b6e2 b7be
00000260: c028 333e 1057 5b3e b6be 0bbe 24c7 27be
00000270: 5a3a b5bc 3f8d b93d eefc 42bd 15bb 6e3d
00000280: ad16 68bd 542e 0dbe 645c 8a3d e5b7 753d
00000290: fe0c 54bd b48a 1f3e 0ea3 8cbd 92d9 b33d
000002a0: d147 50bd e559 a2bb a892 693e 9541 2d3e
000002b0: 7259 5dbe 3c39 62be 6396 133e 1e6e 9abc
000002c0: b583 8dbb ca6b a03d 7ff1 0cbe fbb7 563e
000002d0: c292 f9bd 037a 813d b6d2 443e 7b36 7cbe
000002e0: 88c2 4abb 4c71 7dbd 30d6 58be 2deb babd
000002f0: 109d 5abe 4287 193e 530c fd3d 672e ff3c
00000300: 38a8 65be 39b3 4cbd 272a 883d c694 ad3d
00000310: db77 9abd 61ca 69bd bc27 70bc 9928 74bd
00000320: f5fa fc3d a224 f3bc 8ca6 62be a9e2 4bbe
00000330: 8d4b c13d 097d e53c 951a 6abd 5430 0dbe
00000340: be67 293e 31da 243e 06df afbe df2b 123e
00000350: 7dbc b1bd bc46 953d 9f1d 493d 7273 38be
00000360: 2ed0 153e e416 073e 3399 7ebe 0520 e53d
00000370: 1115 8c3e 63be 843e 278f 56be abb0 d5be
00000380: a631 a8bc f980 5e3d 5249 0fbe 8fbc 223e
00000390: cc4a f33d 7921 063d 56ed 00be 7502 eabc
000003a0: 514b eabd cf47 813e 1f80 0fbe 7450 0abe
000003b0: 982e 2b3e 76d4 39be c8ca 1ebe 30b8 033e
000003c0: bcf7 33be f934 703d 67ee 143c c01c 9f3b
000003d0: 021b 343d 57a1 a2be caf9 343d 2e27 babd
000003e0: ba12 a43c d3ba 203e 5d30 9fbd b607 063e
000003f0: e7b8 83bd 5a88 99bd 0720 87bd 6cee d0bd

signal_classifier.stem.1.0.bias f4 [32]
0.020592693 0.1289249 -0.04728925 -0.09752218 -0.023231307 0.10594854 0.05315303 -0.10758523
-0.08255196 -0.025584448 -0.045277253 -0.015111809 0.083209105 0.0022548938 0.10462473 0.077304624
0.10183524 -0.08251181 0.0063171852 0.020914914 0.078978375 -0.1553524 -0.1283479 0.082905106
0.08355681 -0.028360726 -0.08749015 -0.08080614 -0.04250227 -0.07100156 0.05804343 0.0011834055
00000000: 02b2 a83c e404 043e 5fb2 41bd b5b9 c7bd
00000010: 954f bebc 8cfb d83d feb6 593d a555 dcbd
00000020: 0111 a9bd 7a96 d1bc a474 39bd 8597 77bc
00000030: 8969 aa3d d7c6 133b 7e45 d63d e351 9e3d
00000040: ff8e d03d f4fb a8bd 6400 cf3b c155 ab3c
00000050: 6abf a13d b314 1fbe a26d 03be 27ca a93d
00000060: d51f ab3d c154 e8bc 092e b3bd b17d a5bd
00000070: dc16 2ebd 4469 91bd f3be 6d3d 801c 9b3a

signal_classifier.stem.1.1.weight f4 [32]
1.0073003 0.95057195 0.9492501 1.0815665 0.99576634 0.9852593 1.0012025 0.9106902
0.9821124 1.0550007 1.0000783 1.1030002 0.943953 1.0394963 1.0192862 0.9840995
1.0305672 0.9689216 0.9807294 0.9782411 0.98301595 1.0844377 1.0471812 1.0816721
1.0523012 0.97281647 1.0189067 0.973722 0.9334316 1.0156103 0.97311854 0.97462004
00000000: 37ef 803f af58 733f 0e02 733f c570 8a3f
00000010: 8bea 7e3f f439 7c3f 6727 803f fe22 693f
00000020: b86b 7b3f 430a 873f 9102 803f 1c2f 8d3f
00000030: e7a6 713f 370e 853f f877 823f f2ed 7b3f
00000040: a0e9 833f 3f0b 783f 1511 7b3f 026e 7a3f
00000050: efa6 7b3f dbce 8a3f 090a 863f 3b74 8a3f
00000060: ceb1 863f 800a 793f 896b 823f d845 793f
00000070: 60f5 6e3f 85ff 813f 4c1e 793f b380 793f

signal_classifier.stem.1.1.bias f4 [32]
-0.0072601545 -0.0056123612 -0.0046662805 0.060644783 -0.012243837 -0.015754748 0.027562665 -0.054643538
0.0084622 0.025964335 0.121046804 0.0041000266 0.019730283 0.018489683 -0.054717872 0.0045484174
0.005346687 0.091755725 0.006350086 -0.0036107232 0.015401886 0.030402914 0.034550413 0.039857667
0.04278725 -0.0069711674 0.0036347879 0.024070729 0.01726023 0.01752499 0.0038200128 -0.011056502
00000000: 97e6 edbb e6e7 b7bb 99e7 98bb aa66 783d
00000010: 609a 48bc 1a10 81bc 19cb e13c e7d1 5fbd
00000020: 0aa5 0a3c 28b3 d43c 63e7 f73d 8459 863b
00000030: 67a1 a13c ad77 973c d91f 60bd e40a 953b
00000040: 4333 af3b 6dea bb3d 6214 d03b e2a1 6cbb
00000050: 3158 7c3c 880f f93c bc84 0d3d cb41 233d
00000060: af41 2f3d 646e e4bb 9f35 6e3b fa2f c53c
00000070: 5365 8d3c 9190 8f3c 2e59 7a3b 5526 35bc

signal_classifier.stem.1.1.running_mean f4 [32]
0.11311759 0.08062287 -0.27439347 -0.40538934 -0.40161714 0.20515196 0.1965551 -0.25606868
-0.15673393 0.056428123 0.17325017 -0.16248885 0.1895769 0.108113885 0.16812547 0.14121218
0.010175883 0.15571797 0.021993194 0.176974 -0.03355679 -0.25906336 -0.28517744 0.28865334
-0.18879014 -0.117686056 0.046659566 -0.18052673 -0.17019683 0.0010028485 -0.088528626 0.027238816
00000000: 32aa e73d 9a1d a53d 4d7d 8cbe 318f cfbe
00000010: c3a0 cdbe 5b13 523e bd45 493e 6f1b 83be
00000020: dc7e 20be 2d21 673d 7e68 313e 7a63 26be
00000030: 7220 423e d06a dd3d 1529 2c3e ed99 103e
00000040: bfb8 263c 8874 1f3e 122b b43c ac38 353e
00000050: d872 09bd f4a3 84be c702 92be 5fca 933e
00000060: 3452 41be 6305 f1bd 1a1e 3f3d 00dc 38be
00000070: 1448 2ebe 0372 833a 7f4e b5bd f023 df3c

signal_classifier.stem.1.1.running_var f4 [32]
1.0541315 0.8844413 1.260736 2.340395 2.3888667 1.0956745 0.886182 1.1388444
1.1149359 1.2853764 1.4521258 0.6499664 1.0975254 1.437961 1.1864282 1.0934287
0.85895187 1.7656081 0.68621397 1.5523547 0.96347815 1.1379076 1.1536573 1.2242293
2.1475255 0.75623286 1.3255016 1.1355636 1.0014201 1.208066 0.93082404 0.84263307
00000000: c8ed 863f bf6a 623f cc5f a13f 08c9 1540
00000010: 31e3 1840 103f 8c3f d3dc 623f a7c5 913f
00000020: 38b6 8e3f 3787 a43f 42df b93f 3364 263f
00000030: b67b 8c3f 1b0f b83f e1dc 973f 79f5 8b3f
00000040: 45e4 5b3f 72ff e13f b8ab 2f3f 8fb3 c63f
00000050: 81a6 763f f5a6 913f 0bab 933f 8cb3 9c3f
00000060: 0f71 0940 7a98 413f 09aa a93f 265a 913f
00000070: 892e 803f e8a1 9a3f 7c4a 6e3f cdb6 573f

signal_classifier.stem.2.0.weight f4 [32, 32, 3]
-0.15229635 -0.12129716 0.20735542 0.12660222 -0.009907959 0.021276461 0.07090968 -0.20622408
-0.028811853 -0.0063758916 -0.09366186 -0.025459753 -0.06457274 0.23040484 0.16057177 0.12172496
-0.110755004 -0.15072602 -0.046649035 0.0796516 -0.004202524 0.085564375 -1.9626106e-05 -0.07325323
-0.22390701 -0.15435497 0.21960771 0.09942228 0.2858129 0.26258335 0.14415051 -0.2348214
0.041618694 0.059933204 0.22632518 0.056432463 0.3038069 0.18119736 0.042880923 0.15179765
-0.065960504 -0.055178203 -0.21745309 0.07359644 0.08397689 0.14347401 -0.10339696 0.04153067
0.08251964 0.19237247 0.25373042 0.04759864 0.21148793 -0.14242135 -0.26648992 -0.21244092
-0.026496772 0.06389652 -0.11118924 -0.05342829 0.07730174 0.088884 -0.30045834 0.12287964
-0.15153873 0.016634313 -0.13178846 -0.14642398 -0.1308349 -0.06254796 0.10932639 0.2981244
0.04422618 -0.049739845 -0.038752306 0.046442796 0.028567523 0.056478497 -0.14211847 0.18307583
0.12661555 -0.08797691 -0.0009989127 0.18717536 -0.1786933 0.23994014 -0.037155475 -0.17731085
-0.02261394 0.124907404 0.08518223 0.037497547 -0.2255546 -0.1359838 -0.14197315 0.12149875
8.909568e-05 0.17862943 0.2995339 -0.038222607 -0.04665983 -0.03844106 -0.005400604 -0.09897535
-0.14807731 -0.08272202 0.28115577 0.21588224 -0.13845658 -0.04653095 0.10059235 -0.06498535
-0.05371664 -0.016345542 0.05398012 -0.019232236 -0.111773945 0.061452575 0.0021972174 -0.09514693
0.042666953 0.059587598 0.31044194 0.1143478 0.08386652 0.0221196 0.15381154 -0.025417002
-0.024337599 0.21014076 -0.11305236 0.045250513 0.039582025 -0.11555615 -0.07039024 0.21809413
-0.16967246 -0.10022022 0.10228815 -0.0694539 -0.09582653 0.22406311 -0.37382108 -0.021369148
-0.24391434 0.13625036 0.06948407 0.12805094 -0.0049390728 -0.016485054 0.16495381 0.11186839
0.06623372 0.10622349 0.007252048 -0.07123146 -0.060735058 0.16065605 0.07068725 0.09307651
0.023669345 -0.07874442 -0.14869463 0.03012334 -0.05233162 0.28200966 -0.16546914 -0.06439806
0.32450995 0.3534637 -0.22695702 0.08388893 -0.06474148 0.08793967 -0.04223546 -0.3169962
-0.098207936 0.13892831 -0.2542908 -0.016849777 0.15559386 0.24034087 0.17172815 0.23048991
0.06828358 -0.14872201 0.27332816 0.09647681 -0.011680065 -0.018466096 -0.042988148 -0.0311629
0.1400983 0.18561316 0.045695856 -0.19574863 -0.06603183 -0.00040094045 -0.045408726 -0.09263563
-0.11363296 -0.35140324 -0.11386006 -0.003773671 0.0009832368 0.12818363 -0.04602246 -0.10460066
-0.07926131 -0.022014271 -0.24383438 0.023199612 -0.12034423 -0.1415086 0.10462445 0.12718634
0.067213185 -0.038542595 0.2714883 0.18836355 -0.13868622 0.037238337 0.060985006 -0.045717128
-0.015546443 -0.31715754 0.10322035 -0.08948102 -0.32336727 0.054493733 0.14538303 0.4470143
-0.1900014 -0.06297315 -0.18364497 -0.034354594 -0.19554657 0.0018600213 0.07398471 0.05708539
0.15484393 0.056298967 0.19189377 -0.21301393 -0.16604418 -0.10390523 -0.012018617 -0.45033324
0.31290978 0.043074105 -0.25956932 -0.01927861 0.06482309 0.002150764 -0.007803668 0.10392194
00000000: 93f3 1bbe a56a f8bd fb54 543e 03a4 013e
00000010: fe54 22bc f94b ae3c 1839 913d 682c 53be
00000020: d606 ecbc dbec d0bb cad1 bfbd f990 d0bc
00000030: b63e 84bd 3fef 6b3e ed6c 243e f04a f93d
00000040: 85d3 e2bd ec57 1abe 0f13 3fbd 6120 a33d
00000050: 54b5 89bb 603c af3d bea2 a4b7 ca05 96bd
00000060: e147 65be 3b0f 1ebe d8e0 603e e99d cb3d
00000070: 1256 923e 5371 863e 319c 133e 0575 70be
00000080: 5d78 2a3d 857c 753d cac1 673e ba25 673d
00000090: 948c 9b3e cd8b 393e e8a3 2f3d d870 1b3e
000000a0: 4d16 87bd 8a02 62bd 06ac 5ebe bbb9 963d
000000b0: 13fc ab3d daea 123e c9c1 d3bd 101c 2a3d
000000c0: 0f00 a93d 4afd 443e f4e8 813e cbf6 423d
000000d0: 4b90 583e e7d6 11be 5e71 88be 1d8a 59be
000000e0: c20f d9bc 2edc 823d 2fb7 e3bd 9fd7 5abd
000000f0: 6050 9e3d d108 b63d add5 99be 52a8 fb3d
00000100: f82c 1bbe af44 883c 8ef3 06be 2bf0 15be
00000110: 96f9 05be 2519 80bd 84e6 df3d c3a3 983e
00000120: 8326 353d 02bc 4bbd bdba 1ebd cd3a 3e3d
00000130: 7006 ea3c ff55 673d 8187 11be 3b78 3b3e
00000140: 82a7 013e 3d2d b4bd f3ed 82ba e6aa 3f3e
00000150: 60fb 36be deb2 753e 5730 18bd fa90 35be
00000160: df40 b9bc 74cf ff3d 0574 ae3d 0797 193d
00000170: c9f7 66be 563f 0bbe 6961 11be 56d4 f83d
00000180: e1d8 ba38 a2ea 363e 825c 993e 4f8f 1cbd
00000190: 611e 3fbd 5f74 1dbd 8df7 b0bb 97b3 cabd
000001a0: 94a1 17be 2a6a a9bd a6f3 8f3e 3c10 5d3e
000001b0: 90c7 0dbe 3d97 3ebd 5d03 ce3d 0a17 85bd
000001c0: fb05 5cbd 16e7 85bc 421a 5d3d ec8c 9dbc
000001d0: bde9 e4bd b2b5 7b3d 31ff 0f3b 65dc c2bd
000001e0: 8bc3 2e3d 2012 743d 3ff2 9e3e 2e2f ea3d
000001f0: 36c2 ab3d 2a34 b53c c680 1d3e 5137 d0bc
00000200: a55f c7bc 242f 573e ff87 e7bd 9a58 393d
00000210: c320 223d b4a8 ecbd c228 90bd 1154 5f3e
00000220: 9ebe 2dbe 4240 cdbd 737c d13d d93d 8ebd
00000230: b340 c4bd cd70 653e 7a65 bfbe 5a0e afbc
00000240: aec4 79be 3785 0b3e aa4d 8e3d c91f 033e
00000250: f2d7 a1bb aa0b 87bc a7e9 283e 411b e53d
00000260: 8ba5 873d b38b d93d 96a2 ed3b cde1 91bd
00000270: 53c5 78bd 0583 243e 7ac4 903d e69e be3d
00000280: 37e6 c13c c144 a1bd 6843 18be 39c5 f63c
00000290: ae59 56bd 9263 903e be70 29be 21e3 83bd
000002a0: 2b26 a63e 32f9 b43e 6c67 68be f6cd ab3d
000002b0: 2e97 84bd b719 b43d 17ff 2cbd 534d a2be
000002c0: 3e21 c9bd 3943 0e3e 6732 82be 8b08 8abc
000002d0: ff53 1f3e eb1b 763e 81d9 2f3e 8c05 6c3e
000002e0: 43d8 8b3d 954a 18be abf1 8b3e a295 c53d
000002f0: be5d 3fbc 3646 97bc 5714 30bd 5749 ffbc
00000300: ee75 0f3e 6011 3e3e 942b 3b3d 5472 48be
00000310: b23b 87bd 5135 d2b9 80fe 39bd c0b7 bdbd
00000320: 66b8 e8bd 20eb b3be 772f e9bd b24f 77bb
00000330: f4df 803a 9242 033e 0c82 3cbd df38 d6bd
00000340: c153 a2bd 4657 b4bc b8af 79be 1d0d be3c
00000350: 0977 f6bd a1e7 10be 5845 d63d 233d 023e
00000360: 11a7 893d d7de 1dbd 8400 8b3e 60e2 403e
00000370: c303 0ebe 3a87 183d 6acb 793d e241 3bbd
00000380: 82b6 7ebc 7962 a2be 3165 d33d d341 b7bd
00000390: 6590 a5be d234 5f3d 4adf 143e 0fdf e43e
000003a0: ba8f 42be 11f8 80bd 6d0d 3cbe 67b7 0cbd
000003b0: 5c3d 48be f5cb f33a 4c85 973d 5fd2 693d
000003c0: 688f 1e3e bf99 663d cd7f 443e 5320 5abe
000003d0: 7c07 2abe 44cc d4bd bce9 44bc 1492 e6be
000003e0: b635 a03e 796e 303d 45e6 84be 2dee 9dbc
000003f0: f8c1 843d d5f3 0c3b e9b5 ffbb 07d5 d43d

signal_classifier.stem.2.0.bias f4 [32]
0.031565577 -0.019910011 -0.107889585 -0.008845622 -0.072558686 0.04166484 -0.035646435 -0.044168953
0.026156548 0.074233465 0.04034407 -0.06594334 -0.024635991 -0.05838614 0.06307392 0.06194891
-0.04099754 0.055399172 0.048778705 -0.029950738 0.06274668 -0.03880699 0.03331085 0.022144537
-0.07449077 -0.102072455 0.028914204 -0.10879548 0.029951526 0.07459388 -0.048435748 -0.08705185
00000000: e84a 013d 521a a3bc 37f5 dcbd 3aed 10bc
00000010: a699 94bd c0a8 2a3d ff01 12bd 81ea 34bd
00000020: 4246 d63c b707 983d d33f 253d 4d0d 87bd
00000030: 6bd1 c9bc 4e26 6fbd e62c 813d 24be 7d3d
00000040: 09ed 27bd 3eea 623d 2ecc 473d 405b f5bc
00000050: 5581 803d 14f4 1ebd f570 083d 7668 b53c
00000060: 9e8e 98bd 5d0b d1bd 7bdd ec3c 2ad0 debd
00000070: e75c f53c adc4 983d 9064 46bd 3e48 b2bd

signal_classifier.stem.2.1.weight f4 [32]
0.9742408 1.0495673 0.97356033 1.0261095 0.9918484 0.97636867 1.0814658 1.0337293
0.9638822 0.9017742 1.045697 1.0925546 1.0072069 0.99826926 1.0309346 1.0447496
0.97684526 0.95811903 1.0054455 0.99315894 1.0134375 1.0137936 0.9720815 0.990569
0.97990113 1.0260246 1.0081749 0.9402924 1.0671686 0.9712517 1.0671543 1.0776497
00000000: d867 793f 3958 863f 403b 793f 8e57 833f
00000010: c7e9 7d3f 4cf3 793f 796d 8a3f 3e51 843f
00000020: fcc0 763f adda 663f 66d9 853f d4d8 8b3f
00000030: 28ec 803f 938e 7f3f aaf5 833f 5bba 853f
00000040: 8812 7a3f 4a47 753f 70b2 803f aa3f 7e3f
00000050: 52b8 813f fdc3 813f 55da 783f ee95 7d3f
00000060: cdda 7a3f c654 833f e00b 813f 01b7 703f
00000070: fb98 883f f4a3 783f 8398 883f 6df0 893f

signal_classifier.stem.2.1.bias f4 [32]
-0.007988669 0.009750242 0.002148431 0.027800111 -0.00031471995 -0.045809947 0.015963605 0.015634913
0.0050946446 0.025717454 0.111184195 0.04944266 0.004204513 0.03683156 0.038086906 -0.021170937
0.07822716 -0.076534554 0.08466018 0.053182475 -0.05450479 -0.047464445 0.008168462 0.00021912006
-0.026377497 0.013151055 0.034321804 0.025772141 0.05850502 -0.068757206 0.031357653 0.028342213
00000000: e8e2 02bc 7bbf 1f3c b1cc 0c3b 0fbd e33c
00000010: ff00 a5b9 36a3 3bbd 1bc6 823c ca14 803c
00000020: faf0 a63b 69ad d23c 8ab4 e33d 6384 4a3d
00000030: 03c6 893b b1dc 163d 0401 1c3d ac6e adbc
00000040: 9035 a03d 26be 9cbd 5162 ad3d ded5 593d
00000050: 6a40 5fbd 146a 42bd 03d5 053c 98c3 6539
00000060: 9f15 d8bc 8677 573c 0595 0c3d 1920 d33c
00000070: f6a2 6f3d 94d0 8cbd e270 003d ee2d e83c

signal_classifier.stem.2.1.running_mean f4 [32]
0.1706271 0.3004058 -0.28751582 -0.4475864 -0.16571209 -0.37206328 -0.43059638 -0.15330155
-0.091500685 0.24614996 0.02596882 -0.52060276 -0.57110274 -0.04176992 0.22518337 0.21577111
0.18270871 0.19335756 0.26845524 0.14248636 0.5240316 0.108095534 0.15304226 -0.078564174
-0.28290874 -0.0060316483 0.27833548 -0.15619536 0.007285673 0.2645433 -0.1568003 -0.24997357
00000000: dfb8 2e3e cace 993e 4635 93be 0b2a e5be
00000010: 6eb0 29be 147f bebe 2177 dcbe 15fb 1cbe
00000020: b664 bbbd bc0e 7c3e 90bc d43c 3946 05bf
00000030: ca33 12bf f016 2bbd 7896 663e 1af3 5c3e
00000040: fe17 3b3e 86ff 453e f772 893e f2e7 113e
00000050: ef26 063f 3161 dd3d 1cb7 1c3e 41e6 a0bd
00000060: 6ad9 90be 22a5 c5bb fd81 8e3e adf1 1fbe
00000070: a8bc ee3b 3872 873e 4290 20be 12f9 7fbe

signal_classifier.stem.2.1.running_var f4 [32]
1.7016226 0.8884302 0.7275848 0.7617428 0.9909497 2.5679598 1.6891084 2.0642526
1.32809 1.6547954 1.5449749 4.625207 3.0504324 0.8174249 0.69205236 1.234831
2.1072352 0.63831556 1.446213 0.7460564 3.1010423 0.878951 2.4426558 0.9118263
1.0479728 0.943097 4.058227 0.7994999 1.9102393 2.0296755 3.4009733 3.6687787
00000000: c5ce d93f 2970 633f ff42 3a3f 9301 433f
00000010: e1ae 7d3f 7459 2440 b434 d83f b71c 0440
00000020: dafe a93f 56d0 d33f bdc1 c53f b201 9440
00000030: 493a 4340 c242 513f 582a 313f f10e 9e3f
00000040: f1dc 0640 a668 233f 821d b93f 8dfd 3e3f
00000050: 7a77 4640 ef02 613f 7954 1c40 736d 693f
00000060: f923 863f ce6e 713f ffdc 8140 07ac 4c3f
00000070: b982 f43f 34e6 0140 8ca9 5940 45cd 6a40

signal_classifier.body.0.layers1.0.weight f4 [16, 32, 1]
0.15727657 0.6719894 0.14099702 0.35689932 0.42320463 0.10066182 0.23217706 -0.18091454
0.14076328 0.13735546 -0.28384885 0.23851505 -0.2932575 0.33770242 -0.25446498 -0.19389518
0.13873821 -0.008058262 0.2140801 -0.14140067 0.1385555 -0.89639676 0.15479672 -0.13330401
0.03331262 -0.076210305 -0.043550223 0.1352041 0.092764676 -0.2170249 0.45126602 -0.15714638
0.028378487 0.38918564 -0.24520466 0.068410374 0.08945195 0.12392334 -0.015826946 0.11682841
-0.11391313 -0.11352094 0.010400582 -0.45124564 -0.08428152 -0.076342635 -0.19512238 -0.018701317
0.19494918 0.12689899 -0.2600646 0.0004913659 -0.27227134 0.2484727 0.2591528 0.011290766
0.27092156 -0.07105155 0.21566106 0.009176726 0.13985945 -0.15541714 0.47697988 -0.36394954
-0.06942155 -0.2417944 0.14896278 0.10877507 -0.10083516 0.08747534 0.024509583 0.12849216
0.02586286 0.1465838 -0.07945858 -0.15912658 -0.28072026 0.29022244 -0.22320177 -0.32150045
0.21787831 0.4094532 0.037263032 0.5072254 0.22608316 0.19992203 -0.031375375 0.42632028
-0.09547081 -0.1491452 -0.014522894 -0.0002563455 -0.2196124 0.4177527 0.095034264 -0.2974786
0.0955474 0.42594448 0.14912131 -0.034524944 0.38771752 0.13187437 -0.20841554 0.49967188
-0.072170876 -0.2439532 0.45524544 0.03889992 -0.027384417 0.18068524 0.11541228 0.2593294
0.22882964 -0.056536246 0.020140283 0.41530213 -0.030021876 0.05785492 -0.24952482 -0.051262848
0.13907816 -0.22180769 -0.27821824 -0.60997534 0.027410245 0.28184286 0.2614859 0.4486711
0.24953705 0.28730565 0.0889574 -0.053649474 0.4599973 -0.47296074 -0.4481824 -0.101534165
0.025403377 0.12542401 -0.50584257 -0.2790375 -0.18787234 0.050695386 0.08200387 -0.395297
-0.03920373 0.16324042 -0.0064682495 -0.125782 -0.46483988 0.43159562 -0.10404273 0.23829173
-0.23231308 -0.21225177 -0.3192019 0.13532233 -0.20275505 0.4675005 -0.16785172 -0.108579226
0.035149023 -0.091713496 0.17078395 0.18609652 0.036864787 0.4494015 0.17423165 -0.17924996
-0.20318201 0.12311797 0.47464442 -0.31587428 0.5434928 0.0718402 0.44544303 0.09561309
0.008087587 -0.2965121 0.023028653 -0.16255066 0.013640083 0.15564445 -0.11120486 -0.13054371
-0.22642006 -0.026523553 0.09799181 0.31222653 -0.46006104 0.013595166 -0.2570604 -0.30916315
-0.22741483 -0.18645912 0.16365574 0.27420127 0.071437806 -0.14722556 -0.35283366 0.1949458
-0.031500712 -0.15377404 0.111647695 -0.17942443 -0.027884297 0.35919723 0.11305936 -0.44461125
-0.11516247 -0.14393279 0.5764584 -0.06892977 -0.12529694 -0.12902841 -0.21356028 0.2120384
-0.19090176 -0.23718245 -0.07147439 0.02966259 -0.26286355 0.19779493 -0.18141969 0.2545493
0.19602513 -0.40273902 -0.31719857 -0.0635018 -0.33615515 0.1359467 0.3482731 0.25448677
0.04913692 -0.118065044 -0.0038529371 0.1596173 -0.013793715 -0.14113551 -0.27004033 -0.07864352
-0.42461053 0.15525013 -0.0033505815 -0.058006313 0.18638325 -0.17425743 -0.006868444 -0.078562245
0.15640752 -0.25789583 0.1381369 -0.27843177 0.10264046 -0.47201386 0.21894854 -0.21518518
00000000: 1c0d 213e 7f07 2c3f 8661 103e 82bb b63e
00000010: 47ae d83e c927 ce3d d3bf 6d3e a941 39be
00000020: 4024 103e e9a6 0c3e a354 91be 4a3d 743e
00000030: d925 96be 55e7 ac3e 3c49 82be 758c 46be
00000040: 6411 0e3e cd06 04bc d037 5b3e 56cb 10be
00000050: 7ee1 0d3e 427a 65bf 0883 1e3e d980 08be
00000060: d072 083d 2614 9cbd b861 32bd f272 0a3e
00000070: 68fb bd3d c63b 5ebe 570c e73e fbea 20be
00000080: 007a e83c 5743 c73e ee16 7bbe bd1a 8c3d
00000090: 9532 b73d 85cb fd3d 83a7 81bc bc43 ef3d
000000a0: 494b e9bd ab7d e8bd 3467 2a3c ab09 e7be
000000b0: ca9b acbd 8759 9cbd 29ce 47be 8133 99bc
000000c0: c2a0 473e cff1 013e 3027 85be 02cf 003a
000000d0: 2667 8bbe a16f 7e3e adaf 843e e8fc 383c
000000e0: 3bb6 8a3e 7a83 91bd 41d6 5c3e fb59 163c
000000f0: 5137 0f3e ac25 1fbe b536 f43e 9857 babe
00000100: e32c 8ebd f498 77be b389 183e 77c5 de3d
00000110: aa82 cebd 4526 b33d 52c8 c83c 7393 033e
00000120: 59de d33c 101a 163e 2ebb a2bd 14f2 22be
00000130: 91ba 8fbe 0998 943e 018f 64be b59b a4be
00000140: 7e1b 5f3e daa3 d13e 1fa1 183d 86d9 013f
00000150: 5882 673e 5cb8 4c3e 7783 00bd a746 da3e
00000160: 3386 c3bd 85b9 18be 6ff1 6dbc 1c66 86b9
00000170: 13e2 60be afe3 d53e 53a1 c23d 1d4f 98be
00000180: 5bae c33d 6515 da3e 42b3 183e 076a 0dbd
00000190: e982 c63e 130a 073e e26a 55be fed4 ff3e
000001a0: 53ce 93bd dece 79be ee15 e93e 8655 1f3d
000001b0: 4955 e0bc 8d05 393e 465d ec3d d3c6 843e
000001c0: 5152 6a3e 8d92 67bd 3cfd a43c 7ba2 d43e
000001d0: 70f0 f5bc 48f9 6c3d 6f83 7fbe fef8 51bd
000001e0: 816a 0e3e 8e21 63be 9f72 8ebe 5827 1cbf
000001f0: 738b e03c b54d 903e 7be1 853e 38b8 e53e
00000200: a486 7f3e ba19 933e 4c2f b63d 8dbf 5bbd
00000210: c484 eb3e e927 f2be 2a78 e5be 25f1 cfbd
00000220: be1a d03c 276f 003e e67e 01bf 01de 8ebe
00000230: 9b61 40be f7a5 4f3d a5f1 a73d 5e64 cabe
00000240: 1794 20bd 7f28 273e 9cf3 d3bb ffcc 00be
00000250: 7eff edbe 1afa dc3e 5b14 d5bd bf02 743e
00000260: 7be3 6dbe 8758 59be 6e6e a3be f091 0a3e
00000270: 059f 4fbe 3a5c ef3e 52e1 2bbe c95e debd
00000280: 6cf8 0f3d 49d4 bbbd fde1 2e3e 1690 3e3e
00000290: 88ff 163d f417 e63e c869 323e 4d8d 37be
000002a0: f20e 50be 4625 fc3d 9804 f33e 46ba a1be
000002b0: 5822 0b3f f420 933d 1c11 e43e ccd0 c33d
000002c0: cc81 043c 6fd0 97be 96a6 bc3c ae73 26be
000002d0: a87a 5f3c 4261 1f3e 60bf e3bd 40ad 05be
000002e0: a9da 67be ec47 d9bc eeaf c83d 28dc 9f3e
000002f0: 1f8d ebbe 42be 5e3c 6c9d 83be a24a 9ebe
00000300: 6fdf 68be 24ef 3ebe 5f95 273e 1c64 8c3e
00000310: fc4d 923d 4cc2 16be 9da6 b4be df9f 473e
00000320: e406 01bd f176 1dbe 8ca7 e43d 0abb 37be
00000330: 9c6d e4bc b3e8 b73e aa8b e73d 16a4 e3be
00000340: 4dda ebbd 1e63 13be c792 133f 0d2b 8dbd
00000350: d74d 00be 0620 04be 8caf 5abe 9820 593e
00000360: c07b 43be f5df 72be 2a61 92bd f6fe f23c
00000370: 0d96 86be c18a 4a3e 15c6 39be 4954 823e
00000380: d0ba 483e cf33 cebe da67 a2be 3b0d 82bd
00000390: 871c acbe 9d35 0b3e da50 b23e 174c 823e
000003a0: cc43 493d 16cc f1bd 8f81 7cbb b872 233e
000003b0: 09ff 61bc d485 10be ba42 8abe db0f a1bd
000003c0: 8d66 d9be e4f9 1e3e 6e95 5bbb 0798 6dbd
000003d0: 40db 3e3e 8a70 32be af10 e1bb 3ee5 a0bd
000003e0: 4b29 203e ec0a 84be c273 0d3e 9c8e 8ebe
000003f0: 2935 d23d cdab f1be 0c34 603e 8159 5cbe

signal_classifier.body.0.layers1.0.bias f4 [16]
0.1331646 -0.11945535 -0.037513316 0.1846107 -0.14872532 0.015143364 -0.052022465 -0.02417797
-0.02897377 -0.13195173 0.15769719 0.13540027 -0.15456866 -0.14045814 -0.12511064 -0.12148917
00000000: 4d5c 083e 02a5 f4bd 90a7 19bd 960a 3d3e
00000010: 734b 18be df1b 783c 8215 55bd e110 c6bc
00000020: 665a edbc 5b1e 07be 5f7b 213e 5ea6 0a3e
00000030: 3f47 1ebe 42d4 0fbe 011d 00be 50cf f8bd

signal_classifier.body.0.layers1.1.weight f4 [16]
1.0240316 1.0291773 0.92971545 0.9898381 0.95274115 0.9893046 0.9632195 1.0653172
1.0407803 1.0025777 0.98731697 0.91461504 0.9438123 1.0665091 0.9289858 0.9573768
00000000: 7813 833f 15bc 833f d501 6e3f 0866 7d3f
00000010: d8e6 733f 1143 7d3f 8e95 763f 505c 883f
00000020: 4a38 853f 7754 803f cec0 7c3f 3624 6a3f
00000030: af9d 713f 5f83 883f 03d2 6d3f a516 753f

signal_classifier.body.0.layers1.1.bias f4 [16]
0.07373312 0.058608707 0.030577805 0.013366587 0.09650375 0.120755725 -0.06409404 0.10662035
0.033402655 -0.0033164113 -0.07304792 -0.065174684 0.022988461 0.108991764 -0.003575394 0.060847223
00000000: 6401 973d af0f 703d 4e7e fa3c 88ff 5a3c
00000010: c2a3 c53d c74e f73d bc43 83bd c55b da3d
00000020: 39d1 083d 2658 59bb 269a 95bd 4e7a 85bd
00000030: 4c52 bc3c 1337 df3d 2851 6abb f03a 793d

signal_classifier.body.0.layers1.1.running_mean f4 [16]
0.2840685 -0.10767111 0.053620376 0.59962296 -0.49261075 0.07897635 -0.17327954 -0.20181352
0.010303421 -0.4005319 -0.04915989 0.19767658 -0.49699718 -0.050623234 0.32473677 -0.35033175
00000000: 6d71 913e ac82 dcbd 0aa1 5b3d e480 193f
00000010: 7a37 fcbe 5abe a13d 3170 31be 34a8 4ebe
00000020: aecf 283c 8412 cdbe e15b 49bd bb6b 4a3e
00000030: 6a76 febe 4f5a 4fbd e643 a63e af5e b3be

signal_classifier.body.0.layers1.1.running_var f4 [16]
1.1864014 0.3680583 1.1950653 0.6809675 0.55810744 0.36907753 0.7242898 2.1277428
0.31614512 0.85619235 0.46175137 0.9100626 0.40722045 0.8004791 0.52785325 0.5303423
00000000: 00dc 973f 2372 bc3e e6f7 983f e353 2e3f
00000010: 21e0 0e3f bbf7 bc3e 0e6b 393f f02c 0840
00000020: c6dd a13e 6c2f 5b3f ad6a ec3e ddf9 683f
00000030: 337f d03e 33ec 4c3f 6421 073f 83c4 073f

signal_classifier.body.0.layers2.0.0.weight f4 [16, 32, 1]
-0.19845949 0.3181732 -0.22356465 -0.58863145 -0.02690512 -0.13969782 0.6518454 0.076973915
0.38133144 -0.16051398 0.23471032 0.14513837 -0.21252298 -0.05458153 0.0557292 0.5802655
-0.065752886 0.20519336 0.16110367 -0.089819476 0.017927708 0.5243568 0.058427252 -0.34841472
-0.7029573 -0.16652697 -0.40674144 -0.0021971185 -0.20604518 0.115347385 0.17295343 0.16808644
-0.22556306 0.07577334 0.43920597 0.03974026 0.45959312 0.011460524 -0.112806745 0.067001514
-0.36664027 -0.27558315 0.19441335 0.108971946 -0.37275544 -0.23883925 -0.479576 0.1169817
0.23221713 -0.08675774 0.026896782 -0.0126013635 0.047269784 0.06010407 -0.0452823 -0.40751997
0.12921482 -0.51019204 0.3636702 0.03175877 0.0025480126 -0.3663355 -0.1462295 0.010017977
-0.10986707 -0.14880174 -0.24255754 0.2549817 0.0112563865 0.034786627 0.08504007 0.22101992
0.3009404 -0.60488594 -0.09386855 0.1726739 -0.057137266 0.092006266 -0.11943785 -0.112487264
-0.15944548 0.046309136 -0.20731339 -0.27355027 0.06457657 0.1372775 -0.3534607 0.38103473
-0.22841747 0.10491108 -0.07302547 0.05785463 -0.19198473 -0.29993168 -0.115805164 0.68896085
-0.53378844 -0.49646962 0.2347329 -0.32390445 -0.20397761 -0.1732761 -0.009825044 0.3536778
0.243155 0.23296697 -0.17767073 -0.13143946 0.23583218 -0.0011196157 0.0028650886 0.23222299
0.046648286 -0.18972723 -0.06584378 -0.35511285 0.2925328 -0.008270752 0.15922712 0.1584562
0.23136002 0.7236703 0.2053855 -0.23214526 -0.1831013 -0.04442772 -0.1882085 0.028955704
0.14845078 -0.12943241 0.09505431 -0.27073446 0.22823605 -0.4041559 -0.05697667 -0.2514936
0.186633 0.108017124 -0.03147318 0.0859863 -0.7147918 -0.19743478 -0.2881764 -0.0867408
0.1865004 0.038142916 0.19365819 0.20950808 -0.009649375 -0.295221 0.3665177 0.21121669
0.23227367 0.15798834 -0.13601011 0.010810201 -0.6691375 -0.009128951 0.14742559 0.33405212
0.082930125 -0.12173527 0.032190375 0.038218882 0.36636606 -0.116402544 -0.117693275 0.1099855
-0.04538497 0.21343532 -0.46590874 -0.517194 0.19305214 0.42998713 0.3781697 -0.6182236
-0.019758696 -0.004621811 0.02607255 0.45068803 -0.09278132 0.82227445 -0.30242038 0.28898314
0.25935847 -0.2566116 0.02630529 -0.30801126 -0.34950554 0.080246896 -0.31032908 0.25910965
-0.016261661 -0.09402398 -0.078191385 -0.41337135 -0.3331183 0.56981736 -0.2607851 0.28165683
0.011810506 0.040367797 -0.06629247 -0.32851285 0.19356322 0.21255237 0.5308689 0.44208828
-0.18596815 0.1514708 0.14430152 -0.1360058 0.096517414 0.3170719 0.013693448 0.036471482
-0.02416491 -0.0049056467 0.005732477 0.112408616 -0.18649231 0.489723 -0.25935856 0.021978678
-0.15864602 -0.028209139 -0.05344495 -0.4917832 0.10433607 -0.13036446 -0.6312952 -0.040861763
-0.35432377 0.18803658 0.089499846 -0.362926 -0.21718526 -0.6524755 -0.015820002 0.14804608
0.06275606 0.25540987 -0.193868 0.4725098 -0.011391475 -0.34778988 -0.054171365 -0.30644375
-0.0140489815 0.10896979 -0.15221319 0.14484686 0.26892933 0.03832498 -0.10565479 0.14045793
00000000: f738 4bbe 99e7 a23e 22ee 64be 8db0 16bf
00000010: 2068 dcbc f20c 0fbe 57df 263f 80a4 9d3d
00000020: e03d c33e c75d 24be e757 703e 279f 143e
00000030: a09f 59be e290 5fbd 4d44 643d 488c 143f
00000040: 73a9 86bd 351e 523e 5cf8 243e 46f3 b7bd
00000050: 21dd 923c 3f3c 063f 6a51 6f3d 6a63 b2be
00000060: 02f5 33bf 0c86 2abe 6a40 d0be 88fd 0fbb
00000070: 82fd 52be 403b ec3d b41a 313e da1e 2c3e
00000080: 01fa 66be 0e2f 9b3d 9bdf e03e afc6 223d
00000090: ca4f eb3e ecc4 3b3c 3907 e7bd 1738 893d
000000a0: 46b8 bbbe 3c19 8dbe 4b14 473e af2c df3d
000000b0: cdd9 bebe 4792 74be fc8a f5be 1a94 ef3d
000000c0: 54ca 6d3e 0bae b1bd a456 dc3c f375 4ebc
000000d0: f69d 413d af2f 763d ef79 39bd 75a6 d0be
000000e0: e450 043e f29b 02bf fb32 ba3e 7c15 023d
000000f0: 8ffc 263b 5490 bbbe 30bd 15be 7122 243c
00000100: fd01 e1bd 7c5f 18be 0161 78be f68c 823e
00000110: b56c 383c 6c7c 0e3d 7d29 ae3d 0c53 623e
00000120: dc14 9a3e ced9 1abf 283e c0bd 6dd1 303e
00000130: c408 6abd c86d bc3d d59b f4bd b95f e6bd
00000140: ad45 23be a6ae 3d3d f649 54be c80e 8cbe
00000150: b940 843d 7992 0c3e cdf8 b4be fc16 c33e
00000160: 45e6 69be 9fdb d63d 618e 95bd faf8 6c3d
00000170: a597 44be a590 99be 422b edbd bd5f 303f
00000180: 5ca6 08bf 4431 febe d25d 703e ced6 a5be
00000190: 82df 50be 4a6f 31be 39f9 20bc 4215 b53e
000001a0: a0fd 783e e58e 6e3e 51ef 35be 1198 06be
000001b0: fe7d 713e 12c0 92ba 36c4 3b3b ddcb 6d3e
000001c0: 4612 3f3d db47 42be 1bd9 86bd 5ad1 b5be
000001d0: dcc6 953e 0c82 07bc 6f0c 233e 5842 223e
000001e0: a4e9 6c3e 7542 393f 9450 523e 7db7 6dbe
000001f0: e87e 3bbe d7f9 35bd bbb9 40be 8334 ed3c
00000200: 7b03 183e ee89 04be d6ab c23d b59d 8abe
00000210: b6b6 693e 86ed cebe 5e60 69bd c5c3 80be
00000220: b91c 3f3e 1538 dd3d 05ea 00bd 9619 b03d
00000230: 98fc 36bf 582c 4abe db8b 93be 29a5 b1bd
00000240: f6f9 3e3e bf3b 1c3d 554e 463e 4989 563e
00000250: 6a18 1ebc 3527 97be 35a8 bb3e 3049 583e
00000260: 26d9 6d3e b2c7 213e 3c46 0bbe 451d 313c
00000270: 984c 2bbf 9891 15bc bcf6 163e e108 ab3e
00000280: 45d7 a93d 5750 f9bd 0eda 033d 678b 1c3d
00000290: 5594 bb3e 7564 eebd 2c09 f1bd 1440 e13d
000002a0: 97e5 39bd ca8e 5a3e 978b eebe d366 04bf
000002b0: 76af 453e 4627 dc3e 759f c13e e743 1ebf
000002c0: fddc a1bc 9072 97bb 1a96 d53c 95c0 e63e
000002d0: 2204 bebd 9480 523f d8d6 9abe 99f5 933e
000002e0: a2ca 843e 9862 83be 317e d73c a7b3 9dbe
000002f0: 64f2 b2be 7c58 a43d 74e3 9ebe 05aa 843e
00000300: 2d37 85bc a58f c0bd ce22 a0bd 69a5 d3be
00000310: 7b8e aabe 8ddf 113f a085 85be 5335 903e
00000320: da80 413c b458 253d 59c4 87bd d632 a8be
00000330: 7035 463e 54a7 593e 06e7 073f 6559 e23e
00000340: 6f6e 3ebe 291b 1b3e c7c3 133e 1b45 0bbe
00000350: ecaa c53d 4057 a23e 7c5a 603c 1f63 153d
00000360: 7df5 c5bc 8cbf a0bb 81d7 bb3b 7d36 e63d
00000370: d7f7 3ebe f9bc fa3e a5ca 84be a10c b43c
00000380: 1a74 22be da16 e7bc 18e9 5abd 02cb fbbe
00000390: 26ae d53d 437e 05be 909c 21bf aa5e 27bd
000003a0: ed69 b5be a98c 403e b24b b73d 70d1 b9be
000003b0: d065 5ebe a208 27bf f398 81bc 6499 173e
000003c0: 4086 803d 15c5 823e 5585 46be ceec f13e
000003d0: 4fa3 3abc 8411 b2be cbe2 5dbd 32e6 9cbe
000003e0: b32d 66bc 8e2b df3d c6dd 1bbe bc52 143e
000003f0: 1bb1 893e a7fa 1c3d 8a61 d8bd 34d4 0f3e

signal_classifier.body.0.layers2.0.0.bias f4 [16]
-0.035452034 0.10486605 0.17836048 -0.024737818 0.14284182 0.15475984 -0.007456941 0.14574967
0.03650202 0.0771556 -0.02619247 -0.21861333 -0.18349694 -0.12968294 -0.17587855 -0.008682031
00000000: 2736 11bd 03c4 d63d 21a4 363e f7a6 cabc
00000010: 2045 123e 5d79 1e3e 5b59 f4bb 673f 153e
00000020: 2483 153d c103 9e3d 9791 d6bc 2cdc 5fbe
00000030: 9fe6 3bbe 9bcb 04be 8219 34be 143f 0ebc

signal_classifier.body.0.layers2.0.1.weight f4 [16]
0.9979642 0.9575876 1.0198743 1.0006802 1.020399 0.95596564 0.9846636 1.0257617
0.96661425 0.95006627 1.0895725 1.0761843 0.9427449 1.0742205 0.99133486 1.0366166
00000000: 957a 7f3f 7624 753f 3e8b 823f 4a16 803f
00000010: 6f9c 823f 2aba 743f ea12 7c3f 294c 833f
00000020: 0874 773f 8b37 733f 1d77 8b3f 68c0 893f
00000030: bb57 713f 0f80 893f 1fc8 7d3f daaf 843f

signal_classifier.body.0.layers2.0.1.bias f4 [16]
0.042646483 -0.047169704 0.02133229 0.060220275 0.06754768 0.045972712 0.03233971 0.07372099
-0.06388454 0.013704896 0.10419581 0.00074476865 0.04811494 0.052498415 0.099032104 0.038376044
00000000: 14ae 2e3d 0535 41bd 0ec1 ae3c 89a9 763d
00000010: 7056 8a3d e24d 3c3d a576 043d 08fb 963d
00000020: e6d5 82bd 808a 603c 9d64 d53d 943c 433a
00000030: 2c14 453d 9408 573d 58d1 ca3d 3330 1d3d

signal_classifier.body.0.layers2.0.1.running_mean f4 [16]
0.06675292 -0.048392147 0.096907996 -0.05883209 0.027969886 0.09607608 0.090302326 -0.12564644
0.25254416 0.45718443 -0.18553327 -0.22779804 -0.22882497 0.099842 -0.076522835 -0.44302556
00000000: c1b5 883d d836 46bd b377 c63d ebf9 70bd
00000010: 1a21 e53c 89c3 c43d 6df0 b83d 76a9 00be
00000020: 784d 813e 1414 ea3e 6ffc 3dbe e443 69be
00000030: 1851 6abe f679 cc3d 01b8 9cbd 3fd4 e2be

signal_classifier.body.0.layers2.0.1.running_var f4 [16]
0.73468876 0.5614235 1.9896237 0.74227166 0.4970155 0.87814814 1.4530251 0.5343721
0.5054935 0.488899 2.9008749 2.500975 0.46848646 0.45587265 3.0901206 1.2183162
00000000: 9014 3c3f 73b9 0f3f fdab fe3f 8405 3e3f
00000010: d178 fe3e 51ce 603f bafc b93f 9ccc 083f
00000020: 0668 013f f850 fa3e efa7 3940 f90f 2040
00000030: 75dd ef3e 2468 e93e 89c4 4540 c9f1 9b3f
