experiments/weights/m202_MultiOutput_20230518_114418/epoch_300.pth (torch, 383813 bytes, 138 tensors)

signal_classifier.stem.0.0.weight f4 [32, 1, 11]
00000000: 5b93 183f 8d0f 543d da32 88bd a4a6 173e
00000010: fbdc 113f ea75 c2be 0b6a afbe 19c4 b9be
00000020: 0815 17bf 95e4 5bbe faa8 fd3e 6c7a 333f
00000030: 8084 b23d ca31 4c3e 724a 8b3c 9c00 87be
00000040: 20f1 433e 97a0 d1be 668b 08bf 99f1 d2be
00000050: bdfa 9ebd 2498 013f ff17 843f 32a8 3c3f
00000060: e949 2bbd 8ece 8fbe 54cd f83e 186b 5cbe
00000070: fc2e ebbe fcec dbbd 8781 cd3e 81ca 383d
00000080: ae40 4d3e 4637 5a3e 86ac a8be 0f9b 4b3f
00000090: e31d 0f3e aec2 1ebe e33a 263f fb79 dabe
000000a0: 9984 53be 1bd9 52be 4954 a1be 8e14 583e
000000b0: 935e 9cbe 1bb4 89be 4a3a 233e fa2d 593d
000000c0: cf72 65be 9ad4 3e3e c4c4 7abe 58e0 bbbe
000000d0: 43c3 6c3e 266e 84be 623a 733f ba04 12bf
000000e0: 04a9 cd3e 1143 debc 3724 043e d93a 13bf
000000f0: 098e afbd 41db 1b3e 8c3b d13e 2eb8 17be
00000100: c7a5 833e 641b fb3d 89da 1fbd 019a e1be
00000110: b6eb c6be 6ed6 08bf 6968 683f 47be 8fbe
00000120: 1f69 433e 50cb 503e 8777 81be 5237 a03e
00000130: ae91 263f 5576 debc 8b0a 873f 3c33 efbd
00000140: ef23 34bf 39d0 02bf 977f a93e 873d 953d
00000150: 3c20 f5bc 0659 9abc 48fe 3fbf 6021 b83e
00000160: 098f 5f3e 1c80 ee3e 3407 25bf 7d0e 5fbe
00000170: 05cb 4a3e 1f6c cfbe cecf 28be 9b63 3c3e
00000180: 647a 53bd 26a0 1bbf 8fe6 79bf 6d3d fd3c
00000190: d88a 543d bc93 edbd 1f0d b2be 8113 ae3d
000001a0: 5277 85be ec06 cfbe a1df 08bf c803 a03e
000001b0: b7a9 0d3f be31 483f 496b da3e 53b7 43be
000001c0: 785a d9be 0f4c d83b 0e97 32be 4bf7 83bd
000001d0: f103 35bf 2257 813d 655c 12be a132 043e
000001e0: c1a6 d9be dd5d b23e e621 03bf 7556 8d3e
000001f0: fd41 fdbc 1b93 0c3e ea14 633e 6d56 823e
00000200: 9645 62bf 045e 993e 97b1 843f 32cf c53e
00000210: 52ef 303f 9bca e93e 3741 213e 7e99 2f3f
00000220: 49a8 18bf b07e 3c3f 2f17 db3e 3a47 8b3e
00000230: 305b 4f3e 48b1 d7be 283c 15be 654b 523e
00000240: a47a 253e fc2f 253f 7401 a43e 755d 0fbf
00000250: a262 5a3c fd8d 35bd 6223 853f cfd7 fcbe
00000260: 4272 b03d 1907 a3be 450a b8bb 99c6 13bf
00000270: 8e31 b1be 8a3b 603e c31b ccbd 7576 a93f
00000280: 4353 71be 97cb ccbc 4d31 adbe 79ed 27bf
00000290: 0099 b5be 3965 d43e 066e aabe d221 873e
000002a0: 3eba 753f 966d 4abd 1690 723e cc6c 943e
000002b0: 03cf df3e aa0f 833e d01e 143f eba4 ef3a
000002c0: a7df 44be 9b18 75bd 866b 04bf f211 d8be
000002d0: d0e7 f1be 2cc2 073e e9b1 c2be 9731 a1be
000002e0: 190a 273e ec90 a7be 7564 e43d 9f51 3a3f
000002f0: 32e6 d5bd a55f 353f d111 cfbe aa96 063d
00000300: 78c9 21be fdd5 863e 3acd a03d de0f 6e3e
00000310: a960 88be 1c0d b13d 3b00 d73e 4503 a83e
00000320: d0d3 d03e 662e b93e 25c0 ff3e af6e 943e
00000330: 2058 c1bd 0df0 2bbd 5c39 a63e e56b 0b3e
00000340: 991a ac3c 22eb c2be dac8 bbbe ee0a 1dbe
00000350: f389 6cbd c3a1 c33d 3fb6 023e 3ff9 0a3f
00000360: fc14 9cbc 8119 983d d748 d63d 8b2f 403e
00000370: 5284 debd 141a 403e b1b0 e23d 1099 9a3e
00000380: d4fe 2fbe 8b15 063f 04b5 7a3e 0f13 bdbc
00000390: 6f19 9fbd f933 873e 560d 003f c4d9 b3be
000003a0: e717 a73d 0ffa ba3e f926 52be ab4d 5bbe
000003b0: d3e3 d0be ebcd 43be 73b0 34bd abc1 db3e
000003c0: 7810 493e 4926 cd3d da9d 063e c50e d5b9
000003d0: 6658 39bf 37db 83bf 5345 11bd 9925 b93e
000003e0: e235 83be 4ce4 0b3f 1d87 3ebe c7a2 fc3e
000003f0: 6739 0d3f e8b1 4e3e db32 8abe 1598 5abe
0.59599847 0.051772643 -0.06650324 0.14809662 0.56977814 -0.37980586 -0.34260592 -0.36282423
-0.59016466 -0.21473916 0.4954298 0.70108676 0.087166786 0.19940868 0.017003272 -0.26367652
0.1913495 -0.40942833 -0.53337705 -0.4119995 -0.07762668 0.50622773 1.0319823 0.73694146
-0.041818533 -0.28087276 0.48594153 -0.21525228 -0.45934284 -0.107385606 0.40137884 0.045114998
0.20044205 0.21310148 -0.32944125 0.79533476 0.13976245 -0.15503952 0.64933604 -0.4267119
-0.2065605 -0.20590632 -0.31509617 0.21101591 -0.30540904 -0.26895222 0.15940204 0.053022362
-0.22407077 0.18635789 -0.24489123 -0.36694598 0.23121361 -0.25865287 0.9501096 -0.5703846
0.4016801 -0.02713159 0.1290444 -0.5751167 -0.08572013 0.15220357 0.40865743 -0.14816353
0.25712416 0.12261084 -0.03902677 -0.44062808 -0.38851708 -0.53452194 0.9078432 -0.28074858
0.1908307 0.20390058 -0.25286505 0.31292206 0.6506604 -0.027156034 1.0550092 -0.11679694
-0.7036733 -0.5109897 0.33105156 0.07287126 -0.029922597 -0.018841278 -0.7499738 0.35962963
0.21831907 0.46582115 -0.64464116 -0.2178287 0.19804008 -0.40512177 -0.16485521 0.18397371
-0.051630393 -0.6079124 -0.9761743 0.03091308 0.051890224 -0.11600444 -0.34775636 0.08499814
-0.26067597 -0.40434968 -0.5346623 0.31252885 0.5533709 0.782009 0.42659977 -0.19112901
-0.42451835 0.0066008638 -0.17440435 -0.06443652 -0.7070914 0.063154474 -0.14293058 0.12909938
-0.42510036 0.34837237 -0.512236 0.27605024 -0.030915255 0.13727991 0.22175947 0.25456563
-0.8838743 0.2995454 1.0366696 0.3863464 0.69115174 0.45662388 0.15747534 0.68593585
-0.5963178 0.7363081 0.42791125 0.2720278 0.20249629 -0.42127442 -0.14573729 0.20536573
0.16160065 0.64526343 0.3203236 -0.5600198 0.01332918 -0.044324864 1.0401423 -0.493834
0.08615543 -0.31841353 -0.0056164586 -0.5772491 -0.3460812 0.21897712 -0.09966233 1.3239275
-0.23566918 -0.024999423 -0.33826676 -0.6559673 -0.35468292 0.41483477 -0.33287066 0.2639299
0.9598731 -0.049420916 0.23687777 0.28989255 0.43712625 0.25597888 0.57859516 0.0018283402
-0.19225942 -0.05983792 -0.5172657 -0.4220119 -0.4724717 0.13257664 -0.3802636 -0.31483147
0.16312446 -0.32727754 0.11151973 0.72780794 -0.10444297 0.70849067 -0.4044328 0.03285853
-0.1579951 0.26335135 0.07851644 0.2324824 -0.26636246 0.086450785 0.41992363 0.32814994
0.407866 0.36168212 0.49951282 0.28990695 -0.09440637 -0.041976977 0.32465637 0.13615377
0.021008777 -0.38070017 -0.36676675 -0.153362 -0.057748746 0.09552338 0.12764834 0.5428657
-0.019052975 0.074267395 0.10463112 0.18768136 -0.10865082 0.18759948 0.110688575 0.30194902
-0.17187053 0.5237662 0.24483114 -0.023080377 -0.07768523 0.2640684 0.5002035 -0.3512708
0.08158856 0.36518905 -0.2052268 -0.21416347 -0.40798816 -0.1912152 -0.044113588 0.42921194
0.19635189 0.10017068 0.13146153 -0.0004063753 -0.7240051 -1.0301274 -0.035466503 0.36161497
-0.25627047 0.5464523 -0.18606229 0.4934294 0.55165714 0.20185053 -0.26991925 -0.21347077

signal_classifier.stem.0.0.bias f4 [32]
00000000: 8c4a 933e 370d 3c3d 07ba a3be 93c5 48b9
00000010: 40ef 463e 0f45 a13d 281b 93be 4318 87be
00000020: 0c39 013d b0f3 6dbe cbe5 8c3d 4202 c8bd
00000030: 822f 363e d691 443e 586d 65be 3804 0b3e
00000040: cd7d 34be 300f 5bbe eac9 adbe fce6 d7bd
00000050: 87f0 0d3e e799 633c 85b4 833e 63ca 6d3d
00000060: 9ac7 96bd 6a50 5fbe ce9b 81be 40fd 223e
00000070: f5b6 4f3e 3896 293e bc91 84be bbaf dfbb
0.28767812 0.04591104 -0.31977865 -0.00019147088 0.19427204 0.078745 -0.28731656 -0.26385698
0.031548545 -0.2323749 0.06879767 -0.09766056 0.1779156 0.19196257 -0.22404993 0.13575828
-0.17626114 -0.21392512 -0.3394311 -0.10542104 0.13861285 0.013891674 0.25723663 0.05805434
-0.0736229 -0.2180802 -0.25314182 0.1591692 0.20284636 0.1656121 -0.25892437 -0.0068263686

signal_classifier.stem.0.1.weight f4 [32]
00000000: c6b1 7c3f 086b 8c3f db84 783f a916 613f
00000010: 9da0 833f df0b 873f 42f9 6a3f ad54 773f
00000020: d345 833f 866e 853f b9f2 7d3f 16c2 783f
00000030: 26ec 7a3f 8355 833f daf4 823f 0d03 833f
00000040: 42a3 8a3f 53fe 803f 49f6 893f d5db 883f
00000050: 6c85 703f efd3 793f e88b 6e3f 24e5 813f
00000060: ebe7 803f c4c8 743f 1fba 7e3f 1fa9 723f
00000070: 93a3 843f 65f7 7c3f 4e13 7c3f 48d8 8b3f
0.9870876 1.0970163 0.9707772 0.879252 1.028339 1.0550498 0.9178659 0.9661358
1.0255684 1.0424354 0.9919849 0.9717115 0.98016584 1.0260471 1.0230973 1.0235306
1.0831072 1.0077614 1.0778285 1.0692087 0.93953586 0.9758901 0.9318223 1.0148053
1.0070776 0.95618844 0.9950275 0.9478931 1.0362419 0.98814994 0.98466957 1.0925379

signal_classifier.stem.0.1.bias f4 [32]
00000000: fe14 073d c78d 57bb e2c0 69bd a5a8 833d
00000010: c833 e2ba a125 b13b 0dcb bc3d 66ae a7bb
00000020: c438 85bc 547a a8bb fccc d0bc b2d6 b23d
00000030: 6fce 58bd 9e93 e23d e1ea d2bb 45dc 9bbb
00000040: 1158 99bb d634 d8bb 3d12 0dbb 5740 73bb
00000050: a8aa 9c3d b673 f9bd ac6f 1bbb da86 2f3b
00000060: 24f4 ad3a cf45 1dbd 3468 b2bc d7bf 03bd
00000070: 78de dc3a 8fea 9ebd e210 193d 08c7 373b
0.032979004 -0.0032890902 -0.057068713 0.06428651 -0.0017257864 0.005406097 0.09218416 -0.0051172255
-0.01626242 -0.005141536 -0.02548837 0.08732356 -0.052931245 0.11063312 -0.006436691 -0.004756483
-0.004679688 -0.0065980954 -0.0021525763 -0.0037117207 0.076497376 -0.12180273 -0.0023717685 0.0026783259
0.0013271612 -0.038396653 -0.021778204 -0.032165375 0.0016850969 -0.07759582 0.037369616 0.0028042216

signal_classifier.stem.0.1.running_mean f4 [32]
00000000: aab3 923e 8c17 3b3d be96 a3be 1dd9 2d39
00000010: 0e66 463e 5dbf a13d a6bb 92be b58c 87be
00000020: 4f54 023d 4caa 6ebe 5e29 8f3d 4f67 c8bd
00000030: ef98 353e f93a 443e a67a 65be 331a 0b3e
00000040: 5e7e 34be 9215 5bbe f28d adbe 980a d8bd
00000050: e395 0e3e 516d 643c e022 833e 2335 713d
00000060: 9ad5 97bd 756e 5fbe 8986 81be d77e 243e
00000070: eac0 4f3e 3388 293e e48a 83be 3262 e6bb
0.28652698 0.045676753 -0.31950945 0.00016579447 0.19374868 0.07897828 -0.2865879 -0.26474538
0.031818684 -0.2330715 0.06990312 -0.097853296 0.17734121 0.19163121 -0.22410068 0.13584213
-0.1762633 -0.21394947 -0.33897358 -0.105488956 0.13924365 0.013942079 0.25612545 0.058888566
-0.07413788 -0.2181948 -0.25297955 0.1606401 0.20288435 0.16555862 -0.25691903 -0.0070307488

signal_classifier.stem.0.1.running_var f4 [32]
00000000: 2cba 8b3e f393 7b3e 93c1 b33e d54c 863e
00000010: 00e0 643e 2dba 2a3e 6ac6 ae3e d3ea cb3e
00000020: af80 ae3e 6627 7a3e fc4c 293e c9ba c33e
00000030: 0eec cb3e ee30 ab3e e00e ec3e 7b49 923e
00000040: 406e 263e 5b14 4d3e b7ea 1b3e cda5 cc3d
00000050: 7b3e 013e adcf eb3d 020e cc3e 4e3f cf3e
00000060: e668 503e 88e1 a83d 8548 8d3e 7f15 1a3f
00000070: 999e c93e 4f96 243e 0900 293f f90e 9c3e
0.27290475 0.24568157 0.35108623 0.26230493 0.22351074 0.16672583 0.34135753 0.39827594
0.34082553 0.24429092 0.16533273 0.38228443 0.39828533 0.33435768 0.461051 0.28571686
0.16252995 0.20027296 0.15226255 0.099925615 0.1262149 0.115142204 0.39854437 0.40477985
0.20352516 0.08246142 0.2759439 0.6018905 0.39378813 0.16072963 0.6601568 0.30480173

signal_classifier.stem.1.0.weight f4 [32, 32, 3]
00000000: 9841 94bd 5608 283e 43c7 013e 5dc6 c2ba
00000010: 641c 2cbd 4b32 80bd 069a b9bd 3201 533e
00000020: 79c3 d73d 2b71 99be cc8e 013b 04b0 d83c
00000030: 8501 c13d 23c6 e0bd 3181 0d3e a641 323d
00000040: 1def 29bc 45f4 563d 8b27 2d3e d8cd cbbd
00000050: 8022 15be f6ad 05be 8f3f 9b3d 0c7a 303e
00000060: 145d c43d 9658 b63d 3f09 5abd 7f40 443e
00000070: 5de2 36be 07b2 52bd 3ccd 3fbd c795 c8bd
00000080: 429d e83d 5419 6f3e 3cb6 84bd d531 89bd
00000090: d730 96be 9522 1d3e 6232 25be 8521 d03d
000000a0: 3277 ac3d 91f5 923d e603 74be 7f04 8cbd
000000b0: 4ba0 84bd 1a5f 863e d7f8 bc3e a280 273e
000000c0: be60 c5bc 178d 09be 9af5 ad3d 7ea2 603e
000000d0: 667a b83b d3cd 24be e819 b3be 6c22 0abe
000000e0: 7165 133e 7175 393e 791a 0f3e b602 09bd
000000f0: e77f e3bd 6809 70be 2e16 d2be 882f 17be
00000100: c9e7 3d3e cea6 453d a383 123e d392 9b3d
00000110: 585e 353d bf51 3a3e 4aec 6a3e c60c 053e
00000120: 8931 a0be 4b75 943e ba7f 173b eb76 193d
00000130: cdd3 223e 0505 4abe 3bed 8ebd fbcb ba3c
00000140: a751 5abc b4f0 33bd ab52 fd3d 40ac d9bd
00000150: 53b2 60bd 8371 83bc 0d51 87bd 2d02 3f3e
00000160: c282 423e 653a 50be b7af 93bd 4c5e 2a3e
00000170: d01f 95bd 2f50 1d3c 64e1 4a3e 8a06 cabd
00000180: dfdb fabd f059 213e 4dcb d03c 34f4 61be
00000190: d53c 81bd c818 183e 90a9 56bd 3664 3ebe
000001a0: cafe 973d a61a 7cbe 2df6 a03d 61ae b03d
000001b0: 7196 a7bd 6bf4 09be 2a09 acbb 2e3c b13d
000001c0: 93d5 febd 2430 94bd 6088 e1bd 51f4 603d
000001d0: 0d25 c6bb d082 d93e 3f9c b4bd 6f6c 63be
000001e0: d0e6 b4bd 35a7 78be bb94 903e 366c b13d
000001f0: 6087 67bd 77e9 b33d a099 873d 0713 70be
00000200: 0c84 523d f7cd 93be 7c9c 103d 9b64 e7bd
00000210: 449b 0eba 2fbb 983d b91d 523d fa15 993d
00000220: 80d1 dabd 5411 713e ee02 e93d a389 08be
00000230: 9366 503d fd39 65bc 06a1 d7bb 6958 36be
00000240: 8715 79be 19e5 963c e0d0 d03b 78a6 70bd
00000250: d5d9 bebd 8db4 e23e fa1b 21be 6336 c2be
00000260: 9010 303e 0723 453e e956 0ebe 8494 2dbe
00000270: 1eb0 28bd af32 ab3d 8764 7cbd b25e a23d
00000280: eacf 6abd 45f2 05be 2b0f 3b3d f334 6b3d
00000290: 514c a3bd 2810 223e 595f a6bd cec0 763d
000002a0: f659 4dbd af46 74bb af05 6f3e 15c2 263e
000002b0: ef43 6abe f1fd 64be add1 263e a55b f0bc
000002c0: 5139 ecbc ceee 993d 8fb0 28be bba7 323e
000002d0: 966f 10be 5fae 813d 909a 2b3e f941 7cbe
000002e0: 174c 1ebc 737e 42bd b5de 61be 2d4d c9bd
000002f0: 9e16 6cbe 5c0b 173e b45d ed3d 48ee 293d
00000300: a293 75be 402b 53bd 959d 793d bde7 7f3d
00000310: 5480 43bd ebbf 39bd 3798 ef3b ee35 eabc
00000320: 6120 d03d f5d0 91bd 6dca 4cbe 319c 48be
00000330: 3074 af3d 8b78 d53c 6b23 28bd bd7c f2bd
00000340: 31d5 213e 7ce8 363e e882 aabe 1204 da3d
00000350: a68b d4bd 5ec7 733d 8da5 2e3d 7a4d 42be
00000360: e772 143e 2120 ff3d 53fb 8cbe eebf 2c3e
00000370: a581 953e fd83 773e df15 70be 36a0 d3be
00000380: 8d74 b2bd 40a3 793d 3d06 03be b9df 173e
00000390: f600 003e 9881 c33c 59c0 24be c708 14bd
000003a0: 3105 dbbd 6f01 863e 5be7 13be 077c 05be
000003b0: 5954 2f3e 271e 31be ca22 17be ec72 033e
000003c0: a4dd 3fbe 9543 e63c 9c6f a5bc ffd6 693a
000003d0: 9b28 4c3d c955 9fbe fbd9 743d 4d7e 85bd
000003e0: 9510 a93c 934f 463e b44f 93bd 0b09 343e
000003f0: 4c2a 8ebd 3b10 98bd af13 4fbd 6cfa 3fbd
-0.072390735 0.1640943 0.12673669 -0.0014860142 -0.042019263 -0.062595926 -0.09062581 0.20605925
0.1053533 -0.29969153 0.0019768951 0.026451118 0.09424118 -0.109752916 0.13818814 0.04351964
-0.01037195 0.052479047 0.16909616 -0.09951371 -0.14563942 -0.13054642 0.07580482 0.17234057
0.09588066 0.08903615 -0.053231474 0.19165228 -0.17859788 -0.05143931 -0.046826586 -0.09794193
0.113581195 0.23349506 -0.06480071 -0.06698958 -0.29334137 0.15345223 -0.16132501 0.10162643
0.08421172 0.07175744 -0.23829612 -0.06836795 -0.06475886 0.26244432 0.369086 0.16357663
-0.024093982 -0.13432728 0.084941104 0.21936986 0.0056298254 -0.1609414 -0.34980702 -0.13489693
0.14394166 0.18111207 0.13974942 -0.03344985 -0.1110838 -0.23441088 -0.41032547 -0.14764225
0.1854545 0.04825478 0.14308028 0.07596364 0.044279426 0.18195246 0.229417 0.12993154
-0.31287792 0.28995737 0.0023116902 0.037466925 0.15901108 -0.19728477 -0.06978842 0.022802344
-0.0133251315 -0.043930724 0.12369283 -0.10628557 -0.054857563 -0.016045338 -0.06607256 0.18653174
0.18995193 -0.20334776 -0.07211249 0.16637534 -0.072814584 0.009601637 0.19812542 -0.098645285
-0.12248968 0.15756965 0.025487566 -0.22065812 -0.06310431 0.14853203 -0.0524078 -0.18592915
0.07421644 -0.2461954 0.07859454 0.0862701 -0.08182991 -0.13472144 -0.005250116 0.086540565
-0.1244308 -0.072357446 -0.110123396 0.0549205 -0.0060468973 0.42482615 -0.08818864 -0.22209333
-0.088330865 -0.24282534 0.28238472 0.08663218 -0.056525588 0.08784764 0.066210985 -0.23444758
0.05139546 -0.28868076 0.035305485 -0.11298486 -0.00054400065 0.074575774 0.051297877 0.07474895
-0.1068449 0.23541766 0.11377512 -0.13333754 0.050879072 -0.013990876 -0.006580475 -0.17807163
-0.24324618 0.01841979 0.006372556 -0.058752507 -0.09318892 0.44278374 -0.15733328 -0.3793212
0.17193818 0.19251643 -0.13900341 -0.16951185 -0.041183583 0.083592765 -0.061619308 0.07928218
-0.05732719 -0.130807 0.045668762 0.057423543 -0.079735406 0.15826476 -0.08123655 0.060242467
-0.05013462 -0.0037273576 0.23342012 0.16284974 -0.22877477 -0.22362496 0.16290922 -0.029340575
-0.028835924 0.075162515 -0.16473602 0.17446797 -0.14105067 0.06332087 0.1675818 -0.24634542
-0.009661696 -0.047483873 -0.22057612 -0.09829173 -0.23055503 0.14750427 0.11590138 0.04148701
-0.23982099 -0.05155492 0.060941298 0.062476862 -0.047729805 -0.045349043 0.0073118466 -0.028590169
0.10162426 -0.071199335 -0.19999094 -0.19590832 0.08567083 0.026058456 -0.041049402 -0.11840198
0.15803982 0.17862123 -0.33303 0.106453076 -0.10378198 0.059516303 0.04263835 -0.18974867
0.14496957 0.124573 -0.27535495 0.1687009 0.29200473 0.24171443 -0.23445843 -0.4133317
-0.087136365 0.060946703 -0.12795348 0.14831437 0.12500367 0.023865506 -0.16089 -0.036141183
-0.106943496 0.2617297 -0.14443724 -0.13035594 0.1712202 -0.17296658 -0.14759365 0.12836808
-0.18736893 0.028108397 -0.020194821 0.00089202815 0.049843412 -0.31120136 0.059778195 -0.065182306
0.02063779 0.19366293 -0.071929365 0.17581575 -0.06941661 -0.07424971 -0.05055588 -0.04686968

signal_classifier.stem.1.0.bias f4 [32]
00000000: 64eb 7e3a 8561 873d 1906 13bd 9ed1 03be
00000010: 71cf 93bc 8b70 063e 6f1e 303d 9dba cabd
00000020: a41b a4bd 5e28 fcbc 4777 8abc a5aa d5bb
00000030: a232 a63d 724e f13a c5fa d33d 4d86 963d
00000040: 75fa ea3d 14f8 b7bd 6a0f 023d 4ecb 963a
00000050: 8870 af3d 91ff 0fbe eedb 1fbe 4b69 923d
00000060: 2150 f03d 70fc da3c 4043 73bd ca35 86bd
00000070: 10a7 04bd bd36 9dbd 780c 8d3c 4f50 e8bc
0.0009724407 0.06610397 -0.035894487 -0.12872931 -0.018043252 0.13128869 0.042997774 -0.09898875
-0.080130845 -0.030780967 -0.016902579 -0.0065205866 0.08115126 0.0018410219 0.10350565 0.073498346
0.11473552 -0.08982864 0.03175298 0.0011504681 0.085663855 -0.14062335 -0.1561124 0.07148989
0.117340334 0.0267317 -0.059390306 -0.06553228 -0.032385886 -0.07676456 0.01721786 -0.028358607

signal_classifier.stem.1.1.weight f4 [32]
00000000: c3b6 843f 4117 713f cb97 783f 3f48 8d3f
00000010: 899b 7f3f f5b8 763f bcb3 7c3f 884d 653f
00000020: 370d 783f 72a7 853f 02e4 803f 1e78 8d3f
00000030: 8740 6c3f 7107 873f 00fb 813f efd4 773f
00000040: 3288 843f 78f2 773f 7fff 773f 9fe9 783f
00000050: 8cf4 793f f169 8e3f 9bec 863f 1400 883f
00000060: b25a 873f 5c11 773f 21ff 833f 0eff 7b3f
00000070: dac4 673f c75a 843f 8931 7d3f 0dce 733f
1.0368274 0.9417611 0.9710662 1.1037673 0.998467 0.9637597 0.9871175 0.8957143
0.96895164 1.0441725 1.0069582 1.1052282 0.9228596 1.0549146 1.0154724 0.96809286
1.0354064 0.9685435 0.9687423 0.9723148 0.97638774 1.1126081 1.0540956 1.0625024
1.0574553 0.96510863 1.0312234 0.9843606 0.90534747 1.0340203 0.9890371 0.95236284

signal_classifier.stem.1.1.bias f4 [32]
00000000: 8743 413b 2caa c33c 0b18 5b3c 33c6 753d
00000010: e469 c5bc e638 26bd 83f9 bf3c 1fb5 38bd
00000020: b61e 47bb 7a97 d9bc 10ce 043e f1b6 983b
00000030: 3d69 8a3c c657 1c3d 86ca 3dbd 4bc5 5bbc
00000040: 138e 763c 3608 c83d 6710 b93c cbd9 d138
00000050: 548b 313a 1b98 7e3d 7103 c73c b956 273d
00000060: 78c7 213d 4140 7fbb d45a a139 97cb 163d
00000070: 4a0b ab3c ee26 383c fa56 d43c de5a b6bc
0.0029489712 0.023884855 0.0133724315 0.06000347 -0.024098344 -0.040581606 0.023434406 -0.045094606
-0.0030383295 -0.026561487 0.12969232 0.00466048 0.016895885 0.038169645 -0.04633572 -0.0134137375
0.015048522 0.09767191 0.022590829 0.00010006464 0.00067727757 0.062156778 0.024293633 0.04085419
0.03949687 -0.003894821 0.00030775985 0.036815252 0.020879406 0.01123975 0.02592038 -0.022260126

signal_classifier.stem.1.1.running_mean f4 [32]
00000000: 7a03 983d 777a c9bd 244f 82be f2ac d3be
00000010: d972 c4be 8616 523e bf8e 683e 43a3 abbe
00000020: fcee 20be d04a bb3d 0770 463e 76f9 0dbe
00000030: 4966 713e 249b b23d ec2a 543e a654 7a3e
00000040: dba6 273c eebd d93d 70f8 42bc d65f 3a3e
00000050: a282 91bd 554a 87be 6671 acbe 43cc a13e
00000060: d253 27be fae9 c6bd f43e adbb 6cab 34be
00000070: 89cc 1fbe 92de 32bb 4d31 d8bd 5283 c3bd
0.07422538 -0.098378114 -0.25451005 -0.41342884 -0.38368872 0.20516405 0.22710703 -0.33522996
-0.15716165 0.09145129 0.19378673 -0.13864693 0.23574175 0.08720997 0.20719498 0.24446353
0.010232653 0.10631929 -0.011900052 0.18200621 -0.07104994 -0.26423898 -0.33680266 0.31601152
-0.16340569 -0.09712596 -0.0052870456 -0.17643517 -0.15605368 -0.0027293307 -0.105562784 -0.09546532

signal_classifier.stem.1.1.running_var f4 [32]
00000000: 4278 9c3f 360b 9f3f 4ddb a13f 9391 1f40
00000010: f3f8 2840 2525 8f3f 030d 8e3f 9541 e33f
00000020: 2a76 853f c6a5 d03f 8099 ca3f f0b5 2c3f
00000030: c9d5 b33f 175c a63f 4523 c93f eb29 b93f
00000040: 3ad1 473f ec9f c73f 1c6e 613f 3907 e73f
00000050: 943a aa3f a055 823f cd24 ab3f 191b c13f
00000060: ad30 2d40 569b 5c3f 74fe 993f 37cc 903f
00000070: f9c3 7d3f 62a0 b93f 1a58 693f 6fcd 733f
1.22242 1.2425296 1.264505 2.4932601 2.6401947 1.1183211 1.1097721 1.7754389
1.0426686 1.630059 1.5828094 0.67465115 1.4049617 1.2996854 1.5713888 1.4465917
0.7805363 1.5595679 0.8805864 1.8049079 1.3299127 1.0182381 1.3370606 1.5086395
2.706096 0.86174524 1.2030778 1.1312321 0.99127156 1.450207 0.9115006 0.9523534

signal_classifier.stem.2.0.weight f4 [32, 32, 3]
00000000: d02e 23be 5e91 e3bd 9d33 663e 81df d73d
00000010: 2bfd 8bbc b2de 4a3d 7c71 b03d 2a63 6abe
00000020: f3a3 b8bc 5652 56bc 7f7f dabd 1f23 50bc
00000030: eace a3bd 5877 733e 2112 1a3e d88f 033e
00000040: 73c9 bcbd 3a71 24be d07b 34bd 6c45 723d
00000050: 7cc0 2c3d a5b1 9a3d 5683 843c c08c b3bd
00000060: 89b8 61be cdce 13be f0eb 493e 36c8 b93d
00000070: fa72 983e ca08 8a3e 7468 043e abab 7abe
00000080: ec6e ed3c 2f57 893a 407d 4a3e 2f12 8f3d
00000090: a494 ab3e 058a 4a3e 10c9 453d b626 223e
000000a0: 9506 6fbd 3030 54bd 2e31 44be c21f b03d
000000b0: 766c 983d 33a4 ee3d 4907 19be 970f 603d
000000c0: 758f c43d cb53 4c3e 2a62 6e3e a4a3 093d
000000d0: c0cb 553e 607f 08be 1163 83be 1468 5ebe
000000e0: 06a7 e73a 171a d13c 4ce7 dabd d02f 92bd
000000f0: 699e b03d dbaa ba3d 8995 9ebe 1a86 cb3d
00000100: f8db 30be 35c0 303c 7897 08be 7df0 1abe
00000110: 2f6e 02be d8e5 dbbd d3ec b33d 6829 a23e
00000120: 1aa1 023d d41f 3ebd c9d8 8bbd 6c08 7a3c
00000130: a4d6 38bc 3944 e13c 201a 23be d2db 3f3e
00000140: 07ea ca3d e1db 93bd e37a 8abb c72d 5b3e
00000150: 6fd2 22be 0e27 813e a11d a9bc 81c0 3cbe
00000160: cdd5 e73a b32c c43d 5cb5 ca3d 0bf8 503d
00000170: 5e6e 44be f90a 0ebe 15ed 1fbe 8258 f63d
00000180: 5b9c 0c3d fbf8 2f3e 53da 9b3e 71d4 01bd
00000190: c753 32bd c0eb 34bd ce5d 4f3c 3ea9 cfbd
000001a0: 4338 34be 16c3 e9bd 1387 8f3e 61c1 573e
000001b0: 6baf 07be 262b 5abd 4494 b83d f30d 72bd
000001c0: c6cb 07bd 7454 63bc 35fd 8e3d a76f eebc
000001d0: e635 aebd 2364 a73d 8a1f 85bc a312 09be
000001e0: 3908 a43d c613 8f3d 9234 983e 5ab7 063e
000001f0: 99cf b23d da5a ac3c c164 4f3e 84a9 98bc
00000200: dc25 06bd c142 573e dcfa c2bd a31d 503c
00000210: e15a 243d 4c6f 06be be1c a1bd dde9 743e
00000220: 699f 28be f445 83bd 4621 ec3d 0cb8 80bd
00000230: 5856 d9bd 7cb9 823e 32d8 b3be 67dd 4739
00000240: 20a5 82be 9dde 093e 7693 593d 70f7 fd3d
00000250: cbcd c63b 4810 243c 6e1a 423e 71cd c33d
00000260: 7ec1 9d3d 5de7 f93d 108e 323b fa56 b1bd
00000270: 771f 7fbd da52 303e 75dc 803d cd92 ed3d
00000280: 81a6 f93b 887d a1bd 90e2 0dbe 2f95 193d
00000290: e823 e4bc 3ce1 973e aa29 32be fcd6 65bd
000002a0: a906 a63e 6f1d b33e c998 81be 8cea b83d
000002b0: 0876 62bd 8ca7 d23d cfc5 a1bc 0484 95be
000002c0: 3215 b6bd 47a4 f03d 4f7a 7dbe 3c77 ee37
000002d0: 21ae ed3d b7c2 6a3e 93ec 1b3e bae0 843e
000002e0: f5e0 9b3d 3e97 efbd 9f61 813e 1edf b63d
000002f0: 84b1 98bc 41c2 d23a a3a6 eabc f827 f6bc
00000300: 79fe 293e 9424 453e 5616 183d e72f 3abe
00000310: bf04 8cbd 9ca3 6c3c 3ab7 2abd 1159 cabd
00000320: 18f3 e8bd 7885 bbbe 41ae f4bd b1f0 d03c
00000330: 1c5d a83c f7a4 1f3e ce4b 33bd 214a bcbd
00000340: 276b febd 1f0d 1dbd b463 5cbe 819f 2c3c
00000350: 9b25 d5bd 8065 d2bd 5f90 d83d 99d0 0a3e
00000360: 810d 8f3d 5a23 a8bb 18fd 9d3e 3452 3c3e
00000370: 8d48 f7bd 30f2 923d ad70 ab3d a757 3cbd
00000380: df5f 7e3c 4b79 a1be ad0a eb3d 7bb4 8bbd
00000390: e8d8 a1be a0fc 433d 89dd 243e d97c ec3e
000003a0: c3e2 45be df6b 2abd ba8a 33be d3bf 01bd
000003b0: 0c45 3fbe 9d02 443c bc76 da3d 3e8b 443d
000003c0: be38 173e fa46 793d 8533 643e a8fa 48be
000003d0: 31e7 31be 0e3e bfbd 1de6 3e3c e395 e0be
000003e0: fda4 a33e 56d4 163d bcf1 7ebe 9643 99bb
000003f0: 00af b23d d57e 023d 10e7 c2ba 3897 ce3d
-0.15935826 -0.11111711 0.22480626 0.10540677 -0.017088493 0.049528785 0.086153954 -0.2288939
-0.022539115 -0.013081154 -0.10668849 -0.012703686 -0.0799845 0.23775995 0.15045978 0.12847841
-0.09218111 -0.16058818 -0.04406339 0.059148237 0.042175755 0.07553414 0.016175907 -0.0876708
-0.22043051 -0.14434357 0.1971891 0.0907139 0.2977522 0.2695983 0.1293047 -0.24479549
0.028983556 0.0010478253 0.19774342 0.0698589 0.3351184 0.19779213 0.04828745 0.1583508
-0.058355886 -0.051803768 -0.19159386 0.08599807 0.07442562 0.11652412 -0.14944185 0.054702368
0.09597675 0.1995384 0.23279634 0.033603325 0.20878506 -0.1332984 -0.2566152 -0.2171939
0.0017673678 0.025525136 -0.10688648 -0.07138026 0.08623964 0.09114619 -0.3097346 0.09937687
-0.17271411 0.010788013 -0.1333903 -0.15130801 -0.12737344 -0.107371986 0.08785405 0.31672215
0.03189192 -0.046417072 -0.06828458 0.015260797 -0.011281643 0.027498351 -0.15927935 0.18736199
0.099079184 -0.07219673 -0.004226075 0.21404181 -0.15900587 0.2522511 -0.020644011 -0.1843281
0.0017687619 0.09578838 0.09897873 0.051017802 -0.19182727 -0.13871373 -0.15617783 0.120286
0.0343288 0.17184822 0.30440006 -0.03169674 -0.043536928 -0.04417014 0.012656642 -0.10139702
-0.17599587 -0.11414163 0.2803274 0.21069862 -0.1325051 -0.053263806 0.090126544 -0.059095334
-0.033153318 -0.013875116 0.06981889 -0.029105974 -0.08506374 0.081733964 -0.01625039 -0.13386016
0.08009381 0.06986193 0.29727608 0.1315588 0.08731002 0.021039415 0.20253278 -0.018635519
-0.03275095 0.21021558 -0.09520504 0.012702378 0.04012573 -0.13128394 -0.0786681 0.23917337
-0.1646706 -0.06409827 0.11529784 -0.06285104 -0.10612172 0.25532138 -0.3512588 0.00019060598
-0.25516605 0.13463826 0.053119145 0.124007106 0.006067013 0.010013647 0.18955395 0.09560669
0.07702921 0.12202332 0.002724532 -0.086591676 -0.062285867 0.17219105 0.06292049 0.11600266
0.0076187258 -0.07885271 -0.13855958 0.03749579 -0.027849153 0.29664028 -0.17398706 -0.05611323
0.32426956 0.34983394 -0.25311878 0.09029111 -0.055288345 0.10285863 -0.019747643 -0.29202282
-0.088907614 0.117500834 -0.24753688 2.8427334e-05 0.11605478 0.2292584 0.15226965 0.25952703
0.076112665 -0.11698769 0.2526979 0.08929275 -0.018639334 0.0016079621 -0.028643912 -0.030048355
0.1660098 0.19252235 0.037130676 -0.18182336 -0.06836843 0.014443304 -0.041678645 -0.09880269
-0.113744915 -0.36625266 -0.11947299 0.025505396 0.02055221 0.15590273 -0.043773465 -0.091938265
-0.124227814 -0.03834259 -0.21522409 0.010536076 -0.10407563 -0.10273266 0.105744116 0.13556136
0.069849975 -0.0051311674 0.30857158 0.18390733 -0.12074385 0.071751 0.083711006 -0.04598203
0.015525787 -0.31537852 0.114766456 -0.06821533 -0.316108 0.047848344 0.16100134 0.46189
-0.19324784 -0.04160678 -0.17533389 -0.03167708 -0.18678683 0.011963514 0.10667178 0.047984354
0.14767739 0.060858704 0.22285278 -0.19626868 -0.17373349 -0.09338008 0.011651543 -0.43864354
0.31961814 0.036823593 -0.24896902 -0.0046772463 0.08724785 0.031859238 -0.0014869887 0.100874364

signal_classifier.stem.2.0.bias f4 [32]
00000000: ca11 343d c359 0abd 4cc4 05be 46c8 bb3c
00000010: d8a7 c5bd ab8a 993c 84d5 1cbd c9d5 f3bc
00000020: 4d9e 833c cbb4 af3d 75e8 7a3d 731b 8ebd
00000030: 093a 34bd bf4e 84bc 3d02 973d fc2c 583d
00000040: 8502 6bbd f252 a93d 744f 7c3d f65c 62bd
00000050: a2cf 653d a347 f5bc 09ab 283d 00fd 163b
00000060: cec9 78bd 9a17 e7bd 2825 aa3c 7f7a 05be
00000070: 9277 c93c 5503 753d 7377 9ebd 93f4 a5bd
0.043962277 -0.03377701 -0.13063163 0.022922646 -0.09651154 0.01874288 -0.038289562 -0.029765027
0.016066695 0.085794054 0.061256845 -0.06938829 -0.04400066 -0.01615083 0.07373474 0.052777275
-0.05737545 0.08267774 0.06159921 -0.055264436 0.056106217 -0.029941386 0.041178737 0.0023038983
-0.06073933 -0.112837985 0.02076967 -0.1303501 0.024593148 0.05981763 -0.07737627 -0.081032895

signal_classifier.stem.2.1.weight f4 [32]
00000000: fd4f 783f d481 873f 7888 763f 9758 7f3f
00000010: 788d 7b3f c7b9 7c3f 6ccf 8b3f 60a3 833f
00000020: 0439 763f 10c2 653f 41ac 883f 86c4 8b3f
00000030: 1ba5 803f 403e 7c3f be45 833f a235 843f
00000040: 71fe 793f cb8f 783f a2aa 843f ea2e 813f
00000050: c6ab 813f 07b0 823f 07e5 7a3f 8aab 773f
00000060: 768a 763f 0819 7f3f 45dc 803f 9dba 6d3f
00000070: ea9c 893f 7f3f 7a3f cac4 8a3f 7398 8c3f
0.9699705 1.0586495 0.96301985 0.9974455 0.9826274 0.98720974 1.0922675 1.0284233
0.9618075 0.8974924 1.0677568 1.0919349 1.0050386 0.98532486 1.0255659 1.0328867
0.9765387 0.9709441 1.0364573 1.0092442 1.0130546 1.0209969 0.9800572 0.9674612
0.96305025 0.9964757 1.0067221 0.92862874 1.0751011 0.9775314 1.0841305 1.0984024

signal_classifier.stem.2.1.bias f4 [32]
00000000: b8aa 83bc 9cc2 9bba b23a bdbc 3194 d13c
00000010: ca95 5336 5320 64bd 8bf7 1d3d 3d04 463c
00000020: 27af d93b f75c 213c 22e0 0c3e 97d6 573d
00000030: 5303 bd3b 7932 733d 8376 4c3d c69e 89bb
00000040: 7a66 d63d 1cbc 1abd e859 dd3d 1088 a83d
00000050: 6713 81bd 0e8b dfbc 0c83 3e3c 728b 663b
00000060: c560 49bd 552a 093d 1fa9 2a3d a667 f93c
00000070: a43e 8d3d d432 a9bd 5d5d 753d 3db5 063d
-0.016072616 -0.001188356 -0.023099277 0.025583358 3.1528639e-06 -0.05569489 0.038566153 0.012085971
0.0066431942 0.009848825 0.13757375 0.052694883 0.0057682185 0.059374306 0.04991771 -0.0041998355
0.104687646 -0.03777705 0.10808164 0.08229077 -0.06302529 -0.027287986 0.011627924 0.003517833
-0.049164552 0.033487637 0.041665193 0.030444931 0.068967134 -0.08261648 0.05990349 0.032887686

signal_classifier.stem.2.1.running_mean f4 [32]
00000000: 6d33 103e e494 a03e 485b 46be f95c bebe
00000010: d0f9 2fbe 0638 e5be 5521 d0be 2dee 47be
00000020: e3b3 cebd f4a6 8a3e 48ef 623a d70c 07bf
00000030: 8c49 34bf 35d4 eebc 602f 233e c789 e63d
00000040: 603f 1c3e c58b 2a3e e043 573e 9395 a93d
00000050: 2338 f13e 81d9 193e c073 033e 47c2 10be
00000060: d631 85be 1985 26be d808 913e a7f0 5cbe
00000070: 21d2 6d3c 397a 4e3e 4849 2cbe 4366 30be
0.14082117 0.31363595 -0.19370759 -0.37180308 -0.1718514 -0.44769305 -0.4065043 -0.1952445
-0.100929044 0.270805 0.00086568715 -0.5275397 -0.70424724 -0.029153923 0.15936041 0.11256748
0.1525855 0.1665488 0.21021986 0.08280482 0.4711314 0.15024377 0.12837124 -0.14136611
-0.26014584 -0.1626171 0.2832706 -0.21576177 0.014515431 0.20163812 -0.1682483 -0.1722651

signal_classifier.stem.2.1.running_var f4 [32]
00000000: 01a0 e23f 7384 9e3f bb91 0a3f f769 753f
00000010: dfcf 713f 44fd 5c40 6990 c03f 22f8 2a40
00000020: c9d8 913f bbf3 d53f 0d0c ed3f 42ed 8540
00000030: bec4 7c40 6e62 6e3f 980a 4c3f ef76 963f
00000040: f9af 1440 0754 353f 85ca 693f 2f5f 3e3f
00000050: 04b6 0b40 dfe1 ac3f ebd6 de3f 719f 953f
00000060: 6ce6 873f 97da 703f 801b 7540 1f24 443f
00000070: fda8 d03f 5379 c63f ce5f 7640 ab82 1e40
1.7705079 1.238417 0.5412862 0.95864815 0.9445781 3.452958 1.504407 2.6713948
1.1394283 1.6715006 1.8519303 4.185212 3.9495082 0.9311894 0.79703665 1.1755046
2.3232405 0.7083134 0.91324645 0.7436399 2.1829844 1.350643 1.7409338 1.1689283
1.0617194 0.9408354 3.8298035 0.76617616 1.6301571 1.5505775 3.8495975 2.4767253

signal_classifier.body.0.layers1.0.weight f4 [16, 32, 1]
00000000: 81ae 223e 6d4a 283f 58e5 133e 1061 ab3e
00000010: ab1d de3e 1e2c ec3d c616 673e c143 22be
00000020: fddd ff3d b989 1d3e 6666 87be fa5f 703e
00000030: c28f a1be 4755 c23e 92b4 7dbe 933a 3cbe
00000040: f2f5 103e 5180 21bc 6ce7 793e 1190 17be
00000050: 8dbb 173e 31ef 67bf f46f 123e e45d 23be
00000060: a40e ff3c 6698 68bd 114c 78bd 453a e23d
00000070: 7dcf bf3d 9089 51be 8e5b e93e 70f1 25be
00000080: 4c46 293d c78f d43e e558 87be 5b49 a03d
00000090: 723b bf3d fbea 093e 7492 b7bc f7f7 153e
000000a0: c82a dabd c5e3 98bd d986 a83c 4764 e1be
000000b0: 82dd d0bd e0a4 97bd 3a9a 33be e2a9 823c
000000c0: 00b2 6b3e 45b7 c63d c31a 74be a870 37bc
000000d0: 6462 75be db4c 853e a7d8 923e 15aa 89bc
000000e0: 77e0 863e a6dd 7abd 31ea 6d3e 5d75 073d
000000f0: 805e 1a3e 9c21 05be 7d1d f23e 74ba b5be
00000100: 2dfe 8fbd 70ba 6dbe c0e9 343e e6ec 773d
00000110: a65b c8bd e248 ba3d 71cf 90bb e2bf 033e
00000120: 049a 0d3d 4493 293e 6542 93bd 0eab 24be
00000130: cef1 a0be 812a 8a3e 95c8 72be 80ba 92be
00000140: 211f 613e e0c0 e43e 8aab 103d c524 073f
00000150: 8001 793e 6bf6 3c3e d0f5 13bd 7354 cd3e
00000160: aeb6 cebd 76ec 1ebe b49e e7bc 0f15 ffbc
00000170: d201 5bbe f026 d63e 7f17 cf3d f8b9 98be
00000180: 89c8 f73d 0e57 cb3e 3eb6 273e 6984 43bd
00000190: a6ea c73e dfd1 123e f6fd 49be 1b97 013f
000001a0: e2b7 5abd aa66 83be ce30 fb3e 47c8 893d
000001b0: 32b2 7cbc b62f 0d3e 8cb9 0a3e ec7e 733e
000001c0: 71a9 583e 70e4 81bd 6963 123d 1840 d53e
000001d0: 2e46 07bd 5d67 593d 7662 7bbe 473b 8bbc
000001e0: 7855 013e 5bfe 49be a2ad 8dbe 9a6b 1ebf
000001f0: 2c5a 333d 8fa1 9b3e ff1a 913e 4818 fb3e
00000200: 2331 873e 429f ab3e a97f f73d e864 02bd
00000210: aa0b eb3e 6574 e5be 2961 d9be 79fb b0bd
00000220: 64cd 4a3d 5827 1d3e de28 03bf ffca 8fbe
00000230: 0801 47be 9467 903d b695 af3d 2b27 bebe
00000240: bd15 89bc 19c5 243e 58ec 313b ea23 febd
00000250: a1ac e5be 6845 e83e 6f8e a4bd d696 653e
00000260: f4f6 62be 7921 54be c439 98be d7ed 353e
00000270: 3d6b 49be 8942 fb3e 6683 2ebe 29bc d6bd
00000280: c1c2 413d 46a4 85bd 952a 4f3e d870 483e
00000290: e20c 013d fca4 e93e c923 323e 61d0 22be
000002a0: 0a1f 55be 9507 113e 053e ff3e 5e79 a0be
000002b0: 7a64 033f 3cfc 5a3d 1302 ec3e a816 db3d
000002c0: b859 aabb 9c6f 9cbe 3069 c53c dfa1 1abe
000002d0: c820 923a 7773 183e 3530 d2bd ca1f 17be
000002e0: bb12 7dbe a95c dfbc d134 d13d 42d0 873e
000002f0: abc6 ebbe 4a4a 9c3c ed31 8dbe 0872 9fbe
00000300: e3aa 4cbe b7bc 42be d5bb 223e 93f5 8d3e
00000310: 02ae 9e3d 43f4 15be 51a5 b1be e8ff 4f3e
00000320: 8cb5 b8bc c23f f1bd 8ff3 033e d84a 2abe
00000330: 7bd0 6abd 999f ca3e 6e5b 183e 7410 dcbe
00000340: 334d b7bd 0c6d 20be 6d04 193f f5b8 5abd
00000350: 9f1d d5bd 8474 b3bd 8584 52be f4cb 433e
00000360: a791 5dbe 3e9f 67be 44ef 7bbd 8201 653b
00000370: ebb6 7bbe 5087 5e3e 21e3 1ebe c7d1 883e
00000380: b5cb 243e 1406 d7be 8f0b a4be c48f 47bd
00000390: 311b 92be 1338 123e f9ec b43e a677 883e
000003a0: 8443 863d 10d6 04be a3e5 893c 6fcf 463e
000003b0: c8b8 a73c 3175 24be e281 8bbe 8291 01be
000003c0: b48f d5be a7b8 023e 38b2 2d3c 5690 acbd
000003d0: 5e7c 3a3e 9635 43be c3d5 86bc 2434 97bd
000003e0: 6aa8 293e a2a9 86be 900b f83d b340 9abe
000003f0: 9397 e33d 238c ebbe b94e 7f3e 69dc 3abe
0.1588688 0.65738565 0.14442956 0.3347249 0.4338201 0.11531852 0.22567281 -0.15846159
0.12493513 0.15384568 -0.2644531 0.23474112 -0.3155499 0.37955686 -0.24775913 -0.1838172
0.1415632 -0.009857253 0.24404687 -0.1480105 0.14817639 -0.9059935 0.14300519 -0.15953785
0.03113491 -0.056785963 -0.060619418 0.1104627 0.09365747 -0.20462632 0.45577663 -0.16205382
0.041326806 0.41515943 -0.2643501 0.078264914 0.0933751 0.13468544 -0.022408701 0.14645372
-0.10652691 -0.074653186 0.020572113 -0.44021818 -0.10198499 -0.07404494 -0.17539302 0.015950147
0.2301712 0.09702925 -0.23838334 -0.011196293 -0.23963314 0.260352 0.28680918 -0.016804734
0.26343128 -0.061246537 0.23233868 0.03307091 0.15075111 -0.13001102 0.47288123 -0.35493815
-0.07030902 -0.23215652 0.17667294 0.06052866 -0.097831056 0.090959325 -0.00441926 0.12866166
0.03457071 0.16560084 -0.07190398 -0.16080877 -0.31434482 0.26985553 -0.23709328 -0.28657913
0.21984531 0.44678402 0.035319842 0.5279048 0.24316978 0.18453376 -0.036123097 0.40103492
-0.10093437 -0.1551989 -0.028273918 -0.031137971 -0.21387413 0.41826582 0.101119034 -0.29829383
0.12098796 0.39714855 0.16378114 -0.047733698 0.3904621 0.14337872 -0.19725785 0.50621194
-0.05339802 -0.25664264 0.49060673 0.06727653 -0.015423344 0.13787732 0.13547343 0.23778886
0.21158387 -0.06342399 0.035739336 0.41650462 -0.033025913 0.05307709 -0.24549279 -0.01699604
0.1263026 -0.19725935 -0.27671534 -0.61882937 0.043787166 0.30396697 0.2834091 0.49041963
0.26404676 0.33519942 0.12084896 -0.031834513 0.45907336 -0.44815364 -0.4245694 -0.086417146
0.049512282 0.1534704 -0.51234233 -0.2808456 -0.19433987 0.07051006 0.08573477 -0.37139258
-0.016733998 0.16090812 0.0027148928 -0.12409194 -0.44858268 0.45365453 -0.080349796 0.2242082
-0.22164518 -0.20715894 -0.29731572 0.1776651 -0.19669814 0.490742 -0.17042312 -0.104851075
0.047304872 -0.06525473 0.20231088 0.19574296 0.031506427 0.45633686 0.17396463 -0.15899803
-0.20812622 0.14163049 0.49852005 -0.31342596 0.5132519 0.053463206 0.46095333 0.10697681
-0.0051986836 -0.305539 0.024098009 -0.15100811 0.0011148686 0.14887796 -0.10263101 -0.1475822
-0.24714176 -0.027265863 0.10215152 0.26526076 -0.4605001 0.019078393 -0.27577153 -0.31141686
-0.19987063 -0.19017301 0.15891965 0.2772642 0.07748033 -0.1464396 -0.3469644 0.20312464
-0.022547506 -0.11779739 0.12885879 -0.16630113 -0.05732773 0.39574888 0.14878628 -0.42981303
-0.089502715 -0.15666598 0.5977238 -0.053399045 -0.104060404 -0.08762458 -0.20558365 0.1912077
-0.21637593 -0.2261934 -0.06150748 0.0034943526 -0.24581496 0.21731305 -0.1551633 0.26722547
0.16093333 -0.41996825 -0.32040069 -0.04872109 -0.2853637 0.14279203 0.35337046 0.26653785
0.06555846 -0.12972283 0.016833132 0.19415067 0.020473853 -0.1606033 -0.2724753 -0.12653163
-0.417112 0.12765752 0.010601573 -0.084259674 0.18211505 -0.1906341 -0.016459351 -0.07382992
0.16568151 -0.26301295 0.1211158 -0.30127487 0.11112895 -0.46005353 0.24932374 -0.18248142

signal_classifier.body.0.layers1.0.bias f4 [16]
00000000: eb7c ff3d 8245 f8bd 37d6 b4bc 8231 303e
00000010: a5a8 ecbd b1e9 073c 7659 0bbd 20e8 10bd
00000020: 8220 1438 1207 c8bd a94e 343e 08ba 1d3e
00000030: bce9 0ebe 46bd eabd 16f1 00be 42d8 e7bd
0.12474998 -0.121226326 -0.022074802 0.17206386 -0.11555604 0.0082954625 -0.034020863 -0.03537762
3.5316225e-05 -0.097669736 0.17608131 0.15402997 -0.1395635 -0.11461882 -0.12591967 -0.11320545

signal_classifier.body.0.layers1.1.weight f4 [16]
00000000: 068f 853f 573f 843f 653a 663f 6323 803f
00000010: 0d57 733f 6b39 813f 5ce3 7d3f 8177 8a3f
00000020: 2078 843f c4e6 7c3f 0384 773f 575c 6d3f
00000030: aaa1 6d3f 7147 873f 169c 6a3f 711a 793f
1.0434272 1.033183 0.89932853 1.0010799 0.95054704 1.0095648 0.9917505 1.081772
1.0349159 0.9878962 0.9668581 0.92719024 0.92824805 1.0568677 0.9164442 0.9730597

signal_classifier.body.0.layers1.1.bias f4 [16]
00000000: 6811 8f3d ed5a 483d 38b3 3b3d 691d f43c
00000010: 0e44 8c3d 2746 e33d b26b 4dbd 3f32 f73d
00000020: 595d 503d 3db0 013d 3651 91bd 21fb 7dbd
00000030: b9e6 633d 5f07 db3d 1f18 f63a 6c4d ab3d
0.06985742 0.04891484 0.045825213 0.02979918 0.06848918 0.11097365 -0.050151534 0.120701306
0.050870273 0.031662215 -0.07095568 -0.062007073 0.055639956 0.10694765 0.0018775499 0.083643764

signal_classifier.body.0.layers1.1.running_mean f4 [16]
00000000: cc3d 8e3e 2649 87bd f5d9 a83d d8df 263f
00000010: 886a d2be a31a 893d 19e3 abbd 31bd 3fbe
00000020: bfa1 013d 7b82 d6be 5dbb a4bd 1143 803e
00000030: 10fc 00bf f9d5 00bd bdd9 a23e b9dd a6be
0.27781522 -0.06605749 0.08244697 0.6518531 -0.41096902 0.06694534 -0.08392925 -0.18724515
0.031648394 -0.41896424 -0.08043549 0.25051168 -0.50384617 -0.03145406 0.31806746 -0.32591036

signal_classifier.body.0.layers1.1.running_var f4 [16]
00000000: 02be a23f ac59 173f 7faa 813f c6eb 373f
00000010: d584 583f 387f e13e 8973 f63e ff48 3540
00000020: f62c 8e3e 5891 4f3f b2e3 d53e 39b4 593f
00000030: d63f f13e 51ba 3c3f e938 1a3f c149 083f
1.2714236 0.59121203 1.0130156 0.71844137 0.84577686 0.44042373 0.4813502 2.8325803
0.27768677 0.8108115 0.4177528 0.8504062 0.47119015 0.73721796 0.6024309 0.5323754

signal_classifier.body.0.layers2.0.0.weight f4 [16, 32, 1]
00000000: 3194 58be ce3a 983e c20a 5dbe 81ac 18bf
00000010: 4bac 03bd 1cda 03be e8e6 2d3f ac93 5c3d
00000020: 81ea da3e cca6 22be d906 6d3e f37f 123e
00000030: b4f9 4dbe b227 52bd 8624 533d a549 123f
00000040: b879 5bbd 19b6 423e b214 1a3e 7ea8 08be
00000050: 39be 323c 7ae4 043f b89a 4a3d 80d6 acbe
00000060: fc76 35bf 1e44 1ebe fc08 cdbe 7d24 a0bc
00000070: 9b63 51be 034c f43d c3a9 3d3e 4077 3d3e
00000080: c60a 7dbe c63c d83d 0d25 d33e 32d8 1c3d
00000090: e8fa ec3e e2f3 ae3c f050 eabd 5521 9e3d
000000a0: 38cd bcbe a0fe 87be d3ab 393e 0402 bb3d
000000b0: 2744 cfbe 4025 8abe e354 f6be 6565 303e
000000c0: 2d22 743e 30bd a3bd dbcf f63c fcdb 00bd
000000d0: cb68 903d 95df 3e3d 077a ddbc 7faa d7be
000000e0: b279 f63d 0813 f2be 437a bc3e 2e52 123d
000000f0: aabc 7bbc 8a3f bcbe 2557 20be 745a f43b
00000100: f44b ccbd 5a23 21be 2dd3 4fbe 8cb0 843e
00000110: 1c05 873d b8bd 383d 56cc bf3d f0ed 603e
00000120: 3955 9f3e 3e6f 13bf af62 a3bd 0bfa 3b3e
00000130: 0f96 0abd bd17 ed3d 3194 07be 01ec c0bd
00000140: fa1b 08be 1445 1b3d 87f7 34be d5a1 96be
00000150: 48b7 c03d 85ff 253e a824 a8be 1d59 c63e
00000160: 5d13 67be 78e0 243e 99fd 78bd b9b8 223d
00000170: 18be 5abe 4cbc 90be 9b42 f9bd deae 343f
00000180: b9db 00bf c9f2 02bf 1038 7d3e d3d2 a0be
00000190: 7db6 5abe 7a45 16be a351 cf39 5ddb bf3e
000001a0: c687 873e cd43 823e 0877 34be 29e4 ffbd
000001b0: 61e5 313e 17b9 af3a 0739 873c 495f 833e
000001c0: 54c7 ac3d 9ee7 47be 87a1 0abd 22b0 bdbe
000001d0: 0eeb a13e 7bbe 983b 5afe 3b3e 23cb 143e
000001e0: 3352 6a3e a7c9 2e3f 1005 643e a1be 81be
000001f0: 1cad 3cbe 79cd 27bd dd1c 37be 48ce 0c3d
00000200: 0208 203e e9dc 0bbe 1fee 993d eb95 77be
00000210: 26ee 833e 1348 cebe d95b 83bd 94a8 80be
00000220: 2afd 403e dd8c f13d 4ce7 16bd ec90 963d
00000230: 0138 3ebf 5e2c 37be fe0b 92be 5c21 4dbd
00000240: 7c0d 413e 936e 8a3d 4880 603e 4357 223e
00000250: 117b fd3b 8d10 93be 4721 c23e 4329 553e
00000260: a08a 793e 2005 133e a891 08be 8ea7 c93b
00000270: bf4a 2ebf 0e33 10bc dd2b 153e 25a5 a43e
00000280: e35b fd3d 5023 b0bd 8d71 3c3d 3eb9 2b3d
00000290: 635f b23e cbbe 02be 4b2f 03be 71c3 bc3d
000002a0: 042d 0bbd 7724 633e 9bd9 f6be 4f92 05bf
000002b0: 1290 433e 6c11 dd3e 2ff6 c33e 8689 1cbf
000002c0: 63ab cbbc 56ed 93bb c046 0c3d ad1b e53e
000002d0: 7b07 bbbd 2413 573f 9aaf 94be ac7c 8d3e
000002e0: dc2c 773e db19 89be b2c5 463d b957 92be
000002f0: c4f6 a9be b656 c13d fcb8 a7be 01b8 853e
00000300: ca09 8bbb 9fb4 35bd bb07 8bbd 4c36 d0be
00000310: 38af a5be fe2d 0d3f 0238 87be e31d 943e
00000320: a878 773c 6bb1 a03c 265f cebd 4515 a7be
00000330: 7cbe 293e 7263 603e f7ba 083f 7914 e93e
00000340: e858 26be d1fe 013e 233b 163e 699f 1dbe
00000350: 1c3d ba3d 35cc a63e c57b d43b 4d1f 4cbc
00000360: 721f 27bd c5cd 083d 0e28 593c abee f93d
00000370: a51e 53be 3ecc 023f 98fd 8dbe 5db9 193c
00000380: a561 2bbe 86eb 43bd d661 4abd ab6b fbbe
00000390: 0146 a23d 0cdf 06be aec4 22bf f86a 34bd
000003a0: bf1a b5be 6bf5 2a3e f477 bf3d c0c9 bcbe
000003b0: a1c3 6cbe 9cd9 21bf 9776 aabb 84c4 013e
000003c0: 3457 493d ded0 763e 608c 56be 18a0 fa3e
000003d0: 25b2 c4bc d64a b9be 59b6 92bd d26a 9cbe
000003e0: 8fc9 8abc 8b31 d33d 8b75 28be 7003 063e
000003f0: 06ce 8d3e 7d2b c73c 9c51 d5bd b1db 0f3e
-0.2115028 0.29732364 -0.21586135 -0.5963822 -0.032146733 -0.12876171 0.6793046 0.05385177
0.42757037 -0.1588394 0.23147143 0.14306621 -0.20114785 -0.051307388 0.051548503 0.5714362
-0.053582877 0.19014777 0.15046957 -0.13345525 0.01090961 0.5191113 0.049463958 -0.337574
-0.7088468 -0.15455672 -0.40045917 -0.019548649 -0.20448153 0.119285606 0.1852179 0.18502522
-0.24711141 0.105584666 0.41239205 0.038292117 0.46285176 0.021356527 -0.11441219 0.07721201
-0.3687532 -0.2656145 0.18131952 0.09131244 -0.40481684 -0.26981544 -0.48111638 0.17226179
0.23841162 -0.07995069 0.03012841 -0.031459793 0.07051238 0.046599943 -0.027035726 -0.42122266
0.1203493 -0.47280145 0.36812028 0.035722904 -0.015364805 -0.36767226 -0.15658243 0.007457072
-0.099754244 -0.15736142 -0.20295401 0.25915945 0.065927714 0.045102805 0.09365146 0.21965766
0.31119707 -0.5759162 -0.07977807 0.18357103 -0.033834513 0.11576793 -0.13240124 -0.09420014
-0.13291922 0.037907675 -0.17672549 -0.29420343 0.09409958 0.16210754 -0.32840466 0.38739863
-0.2256598 0.16101253 -0.060788725 0.039726947 -0.21361578 -0.2826866 -0.12170907 0.70579326
-0.5033527 -0.5115171 0.24728417 -0.31410846 -0.21358676 -0.1467494 0.0003954294 0.37472048
0.26470774 0.25442353 -0.17623532 -0.1249469 0.17372657 0.0013406602 0.016506685 0.25658634
0.08436456 -0.19521949 -0.03384545 -0.3704844 0.31624645 0.004661379 0.18358746 0.14530616
0.22882919 0.6827645 0.22267556 -0.2534075 -0.18425411 -0.04096744 -0.17882104 0.034376413
0.15628055 -0.1365849 0.07516121 -0.24178283 0.2576763 -0.40289363 -0.06414003 -0.25128615
0.18846574 0.11794446 -0.036841676 0.073518604 -0.74304205 -0.17888018 -0.28524774 -0.050080642
0.188528 0.067593716 0.21923935 0.158536 0.007735618 -0.28723565 0.37916014 0.20816521
0.24369287 0.14357424 -0.13336813 0.0061540073 -0.68082803 -0.008801235 0.14567514 0.32157245
0.123710416 -0.08600485 0.046006728 0.041924708 0.348384 -0.12768094 -0.1281101 0.09216965
-0.033978477 0.22181879 -0.48212895 -0.52176374 0.19097927 0.43177354 0.3827376 -0.61147344
-0.024861997 -0.0045143766 0.03424716 0.44747677 -0.09132286 0.8401358 -0.29040223 0.2763418
0.24138206 -0.2677754 0.04852838 -0.28582552 -0.3319608 0.09440367 -0.3275832 0.26116946
-0.0042431103 -0.044361707 -0.06788584 -0.40666425 -0.32360244 0.55148304 -0.26409918 0.28929052
0.01510445 0.01961585 -0.10076742 -0.32633415 0.1657657 0.21912935 0.53410286 0.45523432
-0.16244853 0.12694861 0.14670996 -0.15392841 0.09093687 0.32577673 0.006484481 -0.012458635
-0.040801473 0.033399362 0.013254179 0.122037254 -0.20617159 0.510929 -0.2773254 0.009382573
-0.16736467 -0.047832035 -0.04940971 -0.49105582 0.079235084 -0.13171023 -0.6358136 -0.044047326
-0.35371968 0.16695182 0.09349051 -0.36872673 -0.23121502 -0.6322267 -0.0052021253 0.12672621
0.04915543 0.24103114 -0.20951986 0.48950267 -0.024010727 -0.36189908 -0.07163686 -0.30550247
-0.016941814 0.10312184 -0.16451089 0.13087249 0.27696246 0.024312729 -0.104159564 0.1404865

signal_classifier.body.0.layers2.0.0.bias f4 [16]
00000000: 1ca1 35bd 5db8 9c3d ebba 543e e9b9 32bd
00000010: 31cf 063e 6270 013e 3754 463b ec7d 0e3e
00000020: 4fbd d03c 6a93 983d e031 163c 2626 68be
00000030: d276 33be 31a6 07be 0bbb 32be bafb 5ebc
-0.0443431 0.07652352 0.20774429 -0.04363433 0.13164975 0.12640527 0.0030262598 0.13915223
0.025480894 0.07449992 0.009167165 -0.22670802 -0.17525795 -0.1324699 -0.17454164 -0.013609821

signal_classifier.body.0.layers2.0.1.weight f4 [16]
00000000: 463d 793f 03a0 753f f732 863f 5506 7e3f
00000010: 070c 843f dc6c 7a3f d7ee 7d3f d7f5 823f
00000020: 79b8 743f ba14 6f3f 1d89 8e3f 62aa 873f
00000030: 4b26 6a3f 9f3f 8a3f 9365 7c3f f01d 853f
0.9735912 0.95947284 1.0484303 0.9922841 1.031617 0.97822356 0.99192566 1.0231274
0.9559398 0.93391 1.1135594 1.0598872 0.9146468 1.0800666 0.9859249 1.0399761

signal_classifier.body.0.layers2.0.1.bias f4 [16]
00000000: 4774 1e3d 458a 2cbd 48bc 3b3d 16c0 653d
00000010: e2f0 8f3d db5e 2a3d efae 0c3d ba03 af3d
00000020: 9f72 63bd c53d 993c 42ca f93d df21 b0bc
00000030: e541 0c3d 6dfb 6a3d 8425 cb3d 2a30 4e3d
0.03868511 -0.04212405 0.045833856 0.05609139 0.070283666 0.041594367 0.034346517 0.08545633
-0.055529233 0.018706212 0.12196781 -0.021500526 0.03424253 0.057368685 0.09919265 0.0503389

signal_classifier.body.0.layers2.0.1.running_mean f4 [16]
00000000: a1b1 d73d 984c abbd 72c8 2f3e d4c9 95bd
00000010: 857c f63c ef00 a63d 7218 a33d 2473 1bbe
00000020: 190c 6b3e 4bfb f83e 9010 8abd c97c 6dbe
00000030: fe19 75be a73a 0a3e 44cc 80bd 98ef edbe
0.10531927 -0.083642185 0.17166308 -0.07313886 0.030088672 0.08105647 0.07963647 -0.15180641
0.22953834 0.4862922 -0.0674144 -0.23192133 -0.23935696 0.13498937 -0.062889606 -0.46471858

signal_classifier.body.0.layers2.0.1.running_var f4 [16]
00000000: f101 193f de22 173f 5d02 c53f a5eb 533f
00000010: cab2 0f3f e8ae 853f 8ec1 9f3f 4662 823f
00000020: fbd4 153f 40c9 2c3f b454 4640 fce6 4340
00000030: 90f9 013f 4502 0b3f 2b56 6740 d089 443f
0.5976859 0.5903758 1.5391346 0.8278144 0.56132185 1.0444002 1.2480943 1.0186241
0.5852811 0.67494583 3.0989199 3.0609732 0.5077143 0.5430034 3.6146343 0.76772785
