experiments/weights/m202_MultiOutput_20230518_114418/epoch_100.pth (torch, 383813 bytes, 138 tensors)

signal_classifier.stem.0.0.weight f4 [32, 1, 11]
0.58945316 0.040786907 -0.07639982 0.15450443 0.56040174 -0.4126155 -0.3256795 -0.3773322
-0.5981921 -0.17875353 0.47450382 0.7158206 0.048374612 0.17719245 0.0101024 -0.25827324
0.19729662 -0.3749199 -0.551244 -0.3619571 -0.06397321 0.5371254 0.9975854 0.7055916
-0.028192595 -0.28347865 0.54956144 -0.19514057 -0.48101848 -0.13408224 0.39531586 0.060330257
0.21332592 0.18737254 -0.34011886 0.78300536 0.17249912 -0.17183654 0.639605 -0.4170314
-0.19237754 -0.2582851 -0.2817924 0.23787165 -0.29101992 -0.2668876 0.18403824 0.04633876
-0.23629025 0.18720654 -0.20732713 -0.35821864 0.25952438 -0.2821665 0.93712324 -0.50217056
0.38832992 -0.018232519 0.15804596 -0.65153146 -0.09095861 0.13277274 0.39063245 -0.18035309
0.23623794 0.1170911 0.0061017233 -0.44157088 -0.33506238 -0.55158883 0.908571 -0.29501665
0.21693262 0.21588302 -0.29102924 0.3084322 0.6227502 -0.053092014 1.0268778 -0.12805288
-0.72205704 -0.5112121 0.35591522 0.08991742 -0.06418459 -0.031511497 -0.7585868 0.3379956
0.28158873 0.49971396 -0.60694706 -0.26263192 0.23935895 -0.3865889 -0.19477394 0.2361238
-0.058949832 -0.6130835 -0.90828604 0.075370386 0.10062624 -0.07132693 -0.34478155 0.18077439
-0.210061 -0.33576578 -0.539239 0.3278925 0.5704501 0.78746563 0.44675806 -0.18722062
-0.4142965 0.0036560022 -0.17416713 -0.023422511 -0.67598796 0.11219334 -0.116962835 0.18442619
-0.4224534 0.38115263 -0.49592084 0.32382897 -0.02567819 0.16680054 0.22187476 0.3037824
-0.86389434 0.3119984 0.9902854 0.42196584 0.66093236 0.48884472 0.1577936 0.6599594
-0.6947637 0.6956571 0.39538392 0.28675413 0.16183211 -0.4106731 -0.06560991 0.23375592
0.16860713 0.62987953 0.31307122 -0.548704 0.007565251 -0.065818585 1.0656227 -0.46782684
0.07424227 -0.31684673 -0.025954872 -0.60135895 -0.34227857 0.18893792 -0.12973855 1.2733352
-0.2839103 -0.078112766 -0.35177967 -0.68353426 -0.35851142 0.40723726 -0.39177847 0.23661146
0.9557597 -0.10044105 0.19629796 0.20341897 0.40398696 0.29420188 0.5557366 -0.08574054
-0.11169739 0.017903062 -0.47871864 -0.37586227 -0.39675626 0.22069746 -0.3718273 -0.2893597
0.24828686 -0.32427546 0.24628282 0.7441081 -0.08008958 0.68772644 -0.43257883 -0.03300196
-0.15361635 0.23216748 0.084302306 0.19715235 -0.24645557 0.147793 0.42094016 0.30872515
0.4450514 0.38247797 0.47965443 0.23446241 -0.15628336 -0.123878695 0.21953751 0.11383967
-0.09063811 -0.3163862 -0.30496678 -0.10374238 -0.031756867 0.11211898 0.15726331 0.6105138
-0.020522023 0.08384148 0.11235398 0.2531796 -0.09015346 0.21294661 0.10606362 0.30770442
-0.20649315 0.4940818 0.25077492 0.02468971 -0.06635278 0.2671495 0.4744194 -0.30454293
-0.012773905 0.37518966 -0.26986837 -0.21014182 -0.30323747 -0.20594677 -0.048585344 0.49630272
0.20146893 0.06506935 0.10350618 -0.006074777 -0.74147904 -1.0674038 -0.057696335 0.3685148
-0.31602672 0.45835656 -0.28608724 0.44876316 0.5118429 0.23778313 -0.24385487 -0.18365411
00000000: 67e6 163f 2c10 273d 8277 9cbd 6936 1e3e
00000010: 7d76 0f3f 5742 d3be 77bf a6be b031 c1be
00000020: 1e23 19bf 2a0b 37be 2af2 f23e 0540 373f
00000030: 7524 463d f071 353e 8984 253c 643c 84be
00000040: 2008 4a3e 80f5 bfbe 541e 0dbf 7152 b9be
00000050: 6304 83bd 0d81 093f c261 7f3f a7a1 343f
00000060: 28f4 e6bc 1d24 91be 0fb0 0c3f eed2 47be
00000070: 0e48 f6be db4c 09be d766 ca3e dc1c 773d
00000080: 1c72 5a3e 96de 3f3e 0f24 aebe 0a73 483f
00000090: 9ca3 303e ebf5 2fbe 27bd 233f 2485 d5be
000000a0: 9efe 44be f23d 84be 1847 90be a094 733e
000000b0: 9000 95be 7ea5 88be 8574 3c3e b6cd 3d3d
000000c0: 12f6 71be 12b3 3f3e 904d 54be 6f68 b7be
000000d0: 61e0 843e 2178 90be 4fe7 6f3f 408e 00bf
000000e0: 2ed3 c63e 5d5c 95bc cdd6 213e c4ca 26bf
000000f0: 8248 babd 94f5 073e fa00 c83e 7bae 38be
00000100: 5ce8 713e 75cd ef3d f7f0 c73b 9415 e2be
00000110: 4c8d abbe ed34 0dbf 1c98 683f 6c0c 97be
00000120: 9623 5e3e 7010 5d3e c901 95be d3ea 9d3e
00000130: 8f6c 1f3f 0377 59bd bb70 833f 4b20 03be
00000140: bbd8 38bf ccde 02bf 853a b63e a026 b83d
00000150: 3673 83bd 3312 01bd bf32 42bf c20d ad3e
00000160: 662c 903e 82da ff3e e260 1bbf b177 86be
00000170: 831a 753e fbee c5be d272 47be 70ca 713e
00000180: 6175 71bd 0af3 1cbf 6f85 68bf ca5b 9a3d
00000190: 2115 ce3d da13 92bd 3587 b0be ec1c 393e
000001a0: 3b1a 57be 7ee9 abbe 910b 0abf 87e1 a73e
000001b0: 0509 123f 5997 493f 79bd e43e c3b6 3fbe
000001c0: ac1e d4be 8a99 6f3b de58 32be 91e0 bfbc
000001d0: 8c0d 2dbf 9fc5 e53d 368a efbd 38da 3c3e
000001e0: d04b d8be 7026 c33e 56e9 fdbe e9cc a53e
000001f0: 115b d2bc c3cd 2a3e 2333 633e 5e89 9b3e
00000200: 2e28 5dbf 41be 9f3e 5883 7d3f e80b d83e
00000210: dd32 293f db49 fa3e a594 213e 19f3 283f
00000220: 09dc 31bf 9516 323f c36f ca3e 70d1 923e
00000230: 51b7 253e bf43 d2be 7d5e 86bd b65d 6f3e
00000240: 59a7 2c3e c93f 213f df4a a03e de77 0cbf
00000250: ede5 f73b e5cb 86bd 5366 883f 0087 efbe
00000260: 550c 983d bc39 a2be 509f d4bc a9f2 19bf
00000270: 233f afbe f178 413e 2fda 04be a6fc a23f
00000280: b15c 91be 96f9 9fbd 771c b4be 1afc 2ebf
00000290: cf8e b7be 6781 d03e 3097 c8be 464a 723e
000002a0: abac 743f 0ab4 cdbd 5502 493e 104d 503e
000002b0: 61d7 ce3e a1a1 963e c144 0e3f bc98 afbd
000002c0: 9ac1 e4bd 71a9 923c 9c1a f5be 0571 c0be
000002d0: a323 cbbe 84fe 613e 2660 bebe f426 94be
000002e0: e93e 7e3e 6f07 a6be 9031 7c3e de7d 3e3f
000002f0: 0106 a4bd d70e 303f f97a ddbe 102d 07bd
00000300: 9b4d 1dbe 50bd 6d3e b0a6 ac3d 4ee2 493e
00000310: d95e 7cbe 0c57 173e 7885 d73e 3911 9e3e
00000320: c7dd e33e 27d4 c33e 4495 f53e ea16 703e
00000330: bf08 20be 1db4 fdbd 71ce 603e c624 e93d
00000340: 79a0 b9bd 5ffd a1be 9b24 9cbe e376 d4bd
00000350: 7d13 02bd a39e e53d a209 213e a24a 1c3f
00000360: cd1d a8bc 15b5 ab3d d819 e63d c2a0 813e
00000370: 61a2 b8bd ad0e 5a3e e237 d93d 6f8b 9d3e
00000380: f172 53be 4af8 fc3e 9265 803e 1342 ca3c
00000390: f7e3 87bd d2c7 883e 19e7 f23e 0ded 9bbe
000003a0: a449 51bc dc18 c03e 302c 8abe 6b2f 57be
000003b0: f141 9bbe b6e3 52be 6d01 47bd 641b fe3e
000003c0: df4d 4e3e 1443 853d 0cfb d33d ec0e c7bb
000003d0: 92d1 3dbf b0a0 88bf fe52 6cbd f9ad bc3e
000003e0: 41ce a1be b6ad ea3e 077a 92be 49c4 e53e
000003f0: 2308 033f 6c7d 733e 17b5 79be d30f 3cbe

signal_classifier.stem.0.0.bias f4 [32]
0.25144407 0.00068928936 -0.3099722 0.003436523 0.19862817 0.011017311 -0.28972712 -0.18363963
0.0068753096 -0.24837278 0.029032825 -0.106024034 0.16560638 0.18107006 -0.19626607 0.1690582
-0.21011767 -0.22846775 -0.29383358 -0.14985794 0.13543035 0.046362933 0.28471816 0.07449588
-0.100403056 -0.15571748 -0.24746566 0.20243295 0.20014597 0.2061789 -0.23250532 -0.011253602
00000000: 47bd 803e 6db1 343a adb4 9ebe 4a37 613b
00000010: 2f65 4b3e f481 343c 1d57 94be 070c 3cbe
00000020: 474a e13b 6f55 7ebe 3fd6 ed3c 2123 d9bd
00000030: b894 293e 6e6a 393e f9f9 48be 981d 2d3e
00000040: 1629 57be 73f3 69be 5b71 96be 5c74 19be
00000050: 41ae 0a3e 0fe7 3d3d 94c6 913e 4c91 983d
00000060: 1ea0 cdbd 6774 1fbe a367 7dbe 954a 4f3e
00000070: 11f3 4c3e 9020 533e e015 6ebe 0761 38bc

signal_classifier.stem.0.1.weight f4 [32]
1.0291725 1.027116 0.9448095 0.9122698 1.0044788 1.0400113 0.92908984 0.96496934
1.0199552 1.0028738 0.98692757 1.017695 0.9992991 1.0497175 1.0288429 0.99373
1.0498585 1.0449958 1.0337088 1.0231577 0.99156094 1.0062402 0.94352967 1.0337046
0.96996677 0.99727154 0.9665475 0.9837691 1.017035 0.9931676 0.9830315 1.0570422
00000000: edbb 833f 8978 833f 09df 713f 838a 693f
00000010: c392 803f 171f 853f d5d8 6d3f 3b08 773f
00000020: e48d 823f 2b5e 803f 49a7 7c3f d443 823f
00000030: 11d2 7f3f 255d 863f 20b1 833f 1765 7e3f
00000040: c361 863f 6cc2 853f 9250 843f d5f6 823f
00000050: f0d6 7d3f 7bcc 803f 298b 713f 6f50 843f
00000060: be4f 783f 304d 7f3f a86f 773f 4bd8 7b3f
00000070: 342e 823f 3b40 7e3f f4a7 7b3f 294d 873f

signal_classifier.stem.0.1.bias f4 [32]
0.016397601 -0.0013024512 -0.06272601 0.040379245 -2.7855389e-05 -0.0048158285 0.070696965 -0.0075494368
-0.0077819712 0.0048250174 -0.05862814 0.04908924 -0.052403778 0.054411396 -0.010333674 -0.0068496563
0.0018018895 0.008690318 -0.004106143 0.018779073 0.07456092 -0.06409893 -0.0051433826 0.0042159567
-0.0073883217 -0.015741818 -0.023884295 -0.011099889 0.00060857035 -0.06534923 0.05219347 0.005634958
00000000: 4354 863c 03b7 aaba 7f76 80bd b564 253d
00000010: feaa e9b7 19ce 9dbb 92c9 903d 4461 f7bb
00000020: e8ff febb 2e1b 9e3b 0f24 70bd cd11 493d
00000030: 58a5 56bd 7cde 5e3d 924e 29bc 1573 e0bb
00000040: 612d ec3a d661 0e3c d38c 86bb 92d6 993c
00000050: 65b3 983d 4d46 83bd d289 a8bb 0226 8a3b
00000060: bc19 f2bb fcf4 80bc ffa8 c3bc 4fdc 35bc
00000070: 7788 1f3a d1d5 85bd d2c8 553d 74a5 b83b

signal_classifier.stem.0.1.running_mean f4 [32]
0.25161952 0.0001349011 -0.30987245 0.0042204307 0.20092277 0.01507101 -0.29062772 -0.18390465
0.007898167 -0.24808434 0.03005591 -0.10680192 0.16558127 0.18255891 -0.19648592 0.16786729
-0.21031381 -0.22743435 -0.29355136 -0.15149175 0.13457024 0.046476193 0.28455588 0.07502075
-0.09736395 -0.1539196 -0.24731581 0.20242582 0.1992373 0.20676422 -0.23494095 -0.013225131
00000000: 46d4 803e 3d74 0d39 9aa7 9ebe 8a4b 8a3b
00000010: b3be 4d3e 66ec 763c 28cd 94be 8051 3cbe
00000020: 5067 013c d209 7ebe d037 f63c f7ba dabd
00000030: 238e 293e b9f0 3a3e 9b33 49be 67e5 2b3e
00000040: 815c 57be 8de4 68be 5d4c 96be a720 1bbe
00000050: c8cc 093e d25d 3e3d 4fb1 913e 7ba4 993d
00000060: c066 c7bd 1a9d 1dbe 5b40 7dbe b748 4f3e
00000070: dd04 4c3e 00ba 533e 5c94 70be 38ae 58bc

signal_classifier.stem.0.1.running_var f4 [32]
0.22768663 0.18789452 0.3348307 0.21170603 0.18675666 0.15225986 0.28559864 0.33334962
0.29417077 0.21667127 0.16029528 0.31413752 0.3222913 0.2865043 0.4133779 0.24804518
0.14473663 0.16305603 0.123027645 0.09413347 0.102074854 0.113895684 0.3468206 0.36246887
0.18300985 0.07249169 0.22811097 0.53541064 0.33285633 0.1452101 0.61164373 0.25665334
00000000: af26 693e 6c67 403e ee6e ab3e 77c9 583e
00000010: 233d 3f3e 02ea 1b3e fc39 923e cdac aa3e
00000020: 8d9d 963e 13df 5d3e 7224 243e a2d6 a03e
00000030: 5e03 a53e b1b0 923e 45a6 d33e 8eff 7d3e
00000040: d735 143e 29f8 263e ebf5 fb3d 0cc9 c03d
00000050: 9f0c d13d 2442 e93d 7892 b13e 8595 b93e
00000060: ef66 3b3e 8676 943d ec95 693e ac10 093f
00000070: 256c aa3e f5b1 143e af94 1c3f 1168 833e

signal_classifier.stem.1.0.weight f4 [32, 32, 3]
-0.017686574 0.15948439 0.13946271 0.049496885 -0.010001123 -0.04440651 -0.09138217 0.16229784
0.13159537 -0.2891467 0.029496634 0.04868305 0.119330935 -0.11019573 0.1388992 0.002874699
-0.015271202 0.012134142 0.12464101 -0.099367574 -0.171149 -0.15150677 0.074072674 0.14183022
0.062682785 0.045399424 -0.06462652 0.22365354 -0.18055506 -0.037735797 -0.03589661 -0.097578734
0.14463964 0.21406864 -0.045662746 -0.08142362 -0.27784654 0.1518255 -0.16602479 0.089416936
0.03834006 0.06119043 -0.19756185 -0.018074969 -0.028110541 0.2854273 0.35113356 0.19011614
0.0010239653 -0.15007658 0.119957745 0.23997413 0.03127219 -0.13916858 -0.31418782 -0.11259159
0.18507512 0.16662993 0.17177151 -0.04673431 -0.13431318 -0.1880326 -0.43435866 -0.14829294
0.15372817 -0.006915846 0.13102768 0.08802584 0.013065674 0.16016476 0.19898479 0.104254834
-0.32768232 0.28479975 -0.033377934 0.043630626 0.17523009 -0.16588654 -0.043874837 0.00016252295
0.0056073247 -0.021424782 0.1190316 -0.114333466 -0.04976559 -0.0028047664 -0.057414953 0.19103678
0.17969605 -0.21709542 -0.08765816 0.12930988 -0.08944723 0.0018544871 0.14544563 -0.13787922
-0.13361916 0.22248383 0.05743146 -0.21098928 -0.015702464 0.14375952 -0.01589726 -0.1356994
0.06138702 -0.2003087 0.10080281 0.11644258 -0.06555415 -0.10309021 0.019919518 0.09399196
-0.12452711 -0.046169102 -0.09824663 0.05744935 0.036574315 0.42515907 -0.07597232 -0.1977065
-0.0950492 -0.2210516 0.28023216 0.095221266 -0.007730079 0.10786285 0.108401455 -0.15159619
0.06385912 -0.2511808 0.07740332 -0.095422015 0.029520236 0.08536926 0.06858247 0.09538789
-0.11506892 0.26435435 0.14881067 -0.08575545 0.059475854 0.042944252 0.027985279 -0.14784007
-0.20121717 0.0733566 0.045096297 -0.038737476 -0.07874245 0.4504274 -0.096744634 -0.34030434
0.19675437 0.25219944 -0.14386052 -0.14213233 -0.01346867 0.09670699 -0.029714605 0.086386696
-0.057424627 -0.13556626 0.063974194 0.06976068 -0.04993583 0.16462709 -0.046019036 0.1168139
-0.053671885 0.018130112 0.22703405 0.20270833 -0.19784938 -0.21623135 0.16881981 0.001778438
0.016904064 0.10081958 -0.14896329 0.19555148 -0.11909621 0.10434111 0.18001181 -0.21471074
0.008253661 -0.05146177 -0.21588889 -0.0661543 -0.21711922 0.13088219 0.12928352 0.020256305
-0.23200618 -0.048709564 0.04417152 0.03852955 -0.0956346 -0.082585156 -0.034939554 -0.06898762
0.120159246 -0.011999091 -0.23402335 -0.22221379 0.09557837 0.041856017 -0.08824275 -0.14080407
0.17191806 0.1430684 -0.33228728 0.16019613 -0.08015141 0.07956347 0.072671026 -0.18881944
0.15185682 0.14612646 -0.22194897 0.089279875 0.25664842 0.24293184 -0.17599037 -0.41902274
0.021231243 0.057599977 -0.14188156 0.17618932 0.102218434 0.028014379 -0.11891208 -0.03279998
-0.13442072 0.26158553 -0.1329944 -0.11681275 0.17241952 -0.16434361 -0.15203446 0.14370611
-0.1598905 0.08531878 0.030329237 -0.0031263412 0.051073678 -0.29982626 0.04483275 -0.07454093
0.05033005 0.15935393 -0.0636716 0.12792273 -0.059360623 -0.061343595 -0.07183565 -0.09040292
00000000: 6fe3 90bc e04f 233e 50cf 0e3e 3fbd 4a3d
00000010: c0db 23bc 9ae3 35bd 9326 bbbd 6831 263e
00000020: f0c0 063e 090b 94be eda2 f13c e167 473d
00000030: c763 f43d 4dae e1bd 983b 0e3e 7265 3c3b
00000040: 1034 7abc 48ce 463c c943 ff3d 3a81 cbbd
00000050: af41 2fbe 9724 1bbe 6ab3 973d f13b 113e
00000060: d55f 803d bff4 393d e95a 84bd 6f05 653e
00000070: 6de3 38be da90 1abd 5308 13bd 5cd7 c7bd
00000080: 6a1c 143e cf34 5b3e dc08 3bbd 6dc1 a6bd
00000090: e741 8ebe 2578 1b3e 6702 2abe 3a20 b73d
000000a0: 770a 1d3d d1a2 7a3d a74d 4abe f511 94bc
000000b0: 1448 e6bc 8723 923e c7c7 b33e cead 423e
000000c0: 9336 863a adad 19be 68ac f53d c7bb 753e
000000d0: 4517 003d 3582 0ebe 3add a0be 6b96 e6bd
000000e0: 5584 3d3e 09a1 2a3e dfe4 2f3e 7a6c 3fbd
000000f0: 6589 09be 9e8b 40be 4264 debe 1bda 17be
00000100: eb6a 1d3e 529e e2bb 1f2c 063e e446 b43d
00000110: 6911 563c 3b02 243e abc2 4b3e 8f83 d53d
00000120: fac5 a7be 46d1 913e 4db7 08bd 07b6 323d
00000130: 846f 333e 29de 29be 1ab6 33bd ec6a 2a39
00000140: a6bd b73b 0683 afbc d7c6 f33d aa27 eabd
00000150: 01d7 4bbd 2cd0 37bb f12b 6bbd 259f 433e
00000160: 3e02 383e 434e 5ebe 1f86 b3bd cf69 043e
00000170: 1c30 b7bd 4312 f33a b3ef 143e 3630 0dbe
00000180: 76d3 08be cdd2 633e 403d 6b3d 930d 58be
00000190: 74a2 80bc b235 133e f83a 82bc c9f4 0abe
000001a0: f570 7b3d b91d 4dbe b471 ce3d 7379 ee3d
000001b0: 4141 86bd f620 d3bd 422e a33c db7e c03d
000001c0: 1208 ffbd d01b 3dbd 8735 c9bd 0250 6b3d
000001d0: f3ce 153d 73ae d93e 6097 9bbd 9373 4abe
000001e0: 28a9 c2bd 5a5b 62be 977a 8f3e 5e03 c33d
000001f0: 9a4c fdbb 33e7 dc3d 9501 de3d 083c 1bbe
00000200: 92c8 823d c59a 80be a285 9e3d 9e6c c3bd
00000210: 6cd4 f13c 14d6 ae3d f774 8c3d ba5a c33d
00000220: 41a9 ebbd 7459 873e d361 183e 8ea0 afbd
00000230: f49c 733d 50e6 2f3d 6241 e53c 6363 17be
00000240: e00b 4ebe fc3b 963d e5b6 383d 30ab 1ebd
00000250: b943 a1bd 6c9e e63e 0d22 c6bd 5f3c aebe
00000260: fa79 493e 4920 813e 2c50 13be 238b 11be
00000270: b2ab 5cbc 500e c63d 0b6c f3bc 82eb b03d
00000280: 1636 6bbd e2d1 0abe e704 833d b0de 8e3d
00000290: 8389 4cbd 0194 283e 757e 3cbd 203c ef3d
000002a0: 0dd7 5bbd 9a85 943c 9d7b 683e c692 4f3e
000002b0: 0799 4abe c06b 5dbe 1adf 2c3e 7a1a e93a
000002c0: 647a 8a3c 7f7a ce3d d589 18be a63e 483e
000002d0: b7e8 f3bd cbb0 d53d 0455 383e 22dd 5bbe
000002e0: 5d3a 073c 94c9 52bd fa11 5dbe e87b 87bd
000002f0: 8054 5ebe fb05 063e e662 043e 8df0 a53c
00000300: 0793 6dbe ae83 47bd 32ed 343d 29d1 1d3d
00000310: 13dc c3bd 6822 a9bd c71c 0fbd 6249 8dbd
00000320: 0d16 f63d d697 44bc d1a3 6fbe 038c 63be
00000330: 98be c33d 3771 2b3d 9db8 b4bd f12e 10be
00000340: 4a0b 303e 8680 123e 8f21 aabe 740a 243e
00000350: 6c26 a4bd 2cf2 a23d 8cd4 943d e259 41be
00000360: 5b80 1b3e 2da2 153e 9746 63be 5ed8 b63d
00000370: 6c67 833e 20c3 783e d236 34be 268a d6be
00000380: 25ed ad3c f4ed 6b3d 6649 11be f96a 343e
00000390: e657 d13d 697e e53c 2d88 f3bd 4659 06bd
000003a0: 96a5 09be 8aee 853e af2f 08be 863b efbd
000003b0: be8e 303e b149 28be ecae 1bbe b227 133e
000003c0: 56ba 23be 9dbb ae3d 0575 f83c 4de3 4cbb
000003d0: a232 513d d482 99be 8ca2 373d eaa8 98bd
000003e0: e226 4e3d ad2d 233e 4166 82bd 2dfe 023e
000003f0: 2024 73bd 6c43 7bbd 921e 93bd 2b25 b9bd

signal_classifier.stem.1.0.bias f4 [32]
0.033019014 0.0782063 -0.07275105 -0.094807975 -0.031448234 0.10250479 0.07487697 -0.12657037
-0.048060697 -0.010627939 -0.09742125 -0.05883706 0.06678059 -0.0007947855 0.09785845 0.062344983
0.08356374 -0.075871006 -0.00040412883 0.026691653 0.054789174 -0.11426186 -0.11807648 0.09679275
0.08924945 -0.0036872544 -0.08643775 -0.085805826 -0.035045628 -0.051411763 0.020378008 -0.002259066
00000000: f23e 073d a02a a03d 81fe 94bd af2a c2bd
00000010: ddcf 00bd 08ee d13d 1959 993d aa9b 01be
00000020: 4bdb 44bd cf20 2ebc cb84 c7bd 21ff 70bd
00000030: 43c4 883d 2759 50ba 036a c83d 745d 7f3d
00000040: 7723 ab3d 4262 9bbd 41e1 d3b9 74a8 da3c
00000050: 9d6a 603d 1f02 eabd 15d2 f1bd 473b c63d
00000060: 6ac8 b63d dda5 71bb 4606 b1bd f7ba afbd
00000070: 018c 0fbd 2495 52bd c8ef a63c d70c 14bb

signal_classifier.stem.1.1.weight f4 [32]
1.0138286 0.96012914 0.93582183 1.057367 0.9776186 1.0090098 1.0168407 0.944682
0.99960405 1.0258821 1.0318676 1.0657831 0.95443267 1.0379539 0.9844733 0.973336
1.0258362 0.98788023 1.0100425 0.9922217 0.9779765 1.044593 1.0210189 1.0384272
1.0371634 0.9772408 1.0124847 0.9902 0.94140875 0.9966209 0.9846059 1.0169016
00000000: 23c5 813f 06cb 753f 0592 6f3f cd57 873f
00000010: 3645 7a3f 3c27 813f d627 823f aed6 713f
00000020: 0de6 7f3f 1b50 833f 3d14 843f 956b 883f
00000030: b355 743f acdb 843f 7106 7c3f 8c2c 793f
00000040: 9a4e 833f b8e5 7c3f 1349 813f 3e02 7e3f
00000050: ab5c 7a3f 39b5 853f bfb0 823f 2feb 843f
00000060: c5c1 843f 742c 7a3f 1999 813f bf7d 7d3f
00000070: 2a00 713f 8c22 7f3f 220f 7c3f d529 823f

signal_classifier.stem.1.1.bias f4 [32]
-0.010318986 -0.017679092 -0.021563422 0.05761492 -0.028621191 -0.016123839 0.020580688 -0.029768934
0.013667638 -0.008026593 0.0957583 -0.006914288 0.03309197 0.007685947 -0.08702818 0.007237886
-0.011466694 0.104782656 0.014924003 -0.004297431 0.020165471 0.008753614 0.034624904 0.06502405
0.05796627 -0.018675478 -0.0025627036 0.009103669 0.01611811 -0.0056649963 -0.0009769247 -0.0045924424
00000000: f710 29bc bed3 90bc c6a5 b0bc 9ffd 6b3d
00000010: fd76 eabc 2416 84bc d598 a83c fbdd f3bc
00000020: 3bee 5f3c f981 03bc ed1c c43d 4091 e2bb
00000030: 728b 073d 66da fb3b d53b b2bd ca2b ed3b
00000040: cdde 3bbc 4a98 d63d ce83 743c 77d1 8cbb
00000050: 0f32 a53c 516b 0f3c d8d2 0d3d 542b 853d
00000060: 0a6e 6d3d 51fd 98bc 08f3 27bb 8e27 153c
00000070: 200a 843c 6fa1 b9bb 270c 80ba 337c 96bb

signal_classifier.stem.1.1.running_mean f4 [32]
0.095385425 0.12920122 -0.28542927 -0.33013946 -0.29759043 0.18894254 0.26032963 -0.28980651
-0.08516489 0.14192191 0.14603412 -0.21461746 0.14501178 0.16832548 0.03737624 0.23704529
0.06307468 0.1333614 -0.059921224 0.2219106 -0.065491445 -0.19566187 -0.27237752 0.27291024
-0.1913435 0.04330613 0.0032364686 -0.15013918 -0.089999974 0.08559659 -0.14050342 0.058466733
00000000: 6f59 c33d 534d 043e c923 92be 0a08 a9be
00000010: c65d 98be 277a 413e ed49 853e 8561 94be
00000020: ee6a aebd fa53 113e f889 153e aec4 5bbe
00000030: f87d 143e 845d 2c3e d417 193d 00bc 723e
00000040: 4c2d 813d e48f 083e f56f 75bd 883c 633e
00000050: 6120 86bd 965b 48be 1175 8bbe e4ba 8b3e
00000060: 8def 43be c561 313d ef1a 543b 16be 19be
00000070: e851 b8bd 444d af3d 21e0 0fbe d07a 6f3d

signal_classifier.stem.1.1.running_var f4 [32]
0.9746112 0.7643856 1.2808415 1.600501 1.7175331 0.9340526 1.0530611 1.2276031
0.94390017 1.4962813 1.4083514 0.6846858 0.7091377 1.4841533 0.70663035 1.39762
0.79821146 1.536936 0.62269384 1.5746332 0.89142203 0.9786932 1.052177 1.0813558
2.150995 0.7286355 1.1251807 0.90588963 0.9448679 1.3970288 0.95396787 0.81100667
00000000: 1f80 793f c6ae 433f 9df2 a33f 37dd cc3f
00000010: 20d8 db3f 121e 6f3f b5ca 863f 1922 9d3f
00000020: 71a3 713f 2586 bf3f dc44 b43f 9247 2f3f
00000030: 0c8a 353f bcf8 bd3f bae5 343f 36e5 b23f
00000040: 9657 4c3f 52ba c43f dd68 1f3f 958d c93f
00000050: 3c34 643f a38b 7a3f bcad 863f de69 8a3f
00000060: e7a9 0940 db87 3a3f ec05 903f 62e8 673f
00000070: dde2 713f d7d1 b23f 3d37 743f 229e 4f3f

signal_classifier.stem.2.0.weight f4 [32, 32, 3]
-0.1259251 -0.12813215 0.2254039 0.14851698 -0.041717455 0.026445094 0.06468434 -0.23064576
-0.016524933 -0.021591764 -0.09558122 -0.037949424 -0.07399241 0.20105267 0.1448566 0.103069454
-0.11192836 -0.16923717 -0.051968224 0.06685559 -0.03207148 0.071059115 -0.015144974 -0.07569138
-0.2389645 -0.15955655 0.20198645 0.09772958 0.22753908 0.22894914 0.13077807 -0.2509409
0.018235024 0.05732712 0.24317375 0.067968234 0.3256723 0.16413508 0.013656346 0.11806018
-0.097779706 -0.06341175 -0.23041917 0.072611265 0.07110344 0.12096689 -0.104447104 0.04581372
0.07173879 0.17382672 0.24406645 0.034740824 0.1806806 -0.1596335 -0.2437307 -0.2514325
-0.028692583 0.06065565 -0.14563623 -0.07740151 0.09047451 0.040175658 -0.32855576 0.10417946
-0.1579602 0.0050354335 -0.16745138 -0.10397166 -0.13355033 -0.06980778 0.08916197 0.2668272
0.004681443 -0.06097069 -0.047909245 0.056259226 0.04340098 0.05586125 -0.1681751 0.12958403
0.13607073 -0.10517724 -0.028576305 0.19232054 -0.15369977 0.20799424 -0.06489033 -0.21278615
-0.07637141 0.110773005 0.02400817 0.005095421 -0.26530755 -0.15370154 -0.15570772 0.09653567
0.025490293 0.2161468 0.30741373 -0.016893405 -0.07024068 -0.05764006 0.0021594546 -0.10029023
-0.13851365 -0.105048545 0.24769181 0.1979973 -0.15259157 -0.062507115 0.1268005 -0.049574543
-0.0337019 0.022402512 0.0508847 0.020341875 -0.09594038 0.06252522 -0.011857953 -0.11740424
0.020233266 0.07013987 0.29269347 0.12623303 0.1168982 0.0357181 0.15310243 -0.007165436
-0.034422345 0.1779428 -0.11997553 0.03581139 0.046665516 -0.07556926 -0.04851428 0.23102403
-0.15669303 -0.05498953 0.12664409 -0.074436516 -0.0688125 0.1945627 -0.37967762 -0.02025482
-0.22624081 0.1679085 0.059299737 0.13873291 0.034229755 -0.006237585 0.16941111 0.10708913
0.0836197 0.09811797 0.021487331 -0.07186032 -0.061167564 0.16810346 0.073710494 0.09133447
0.040001966 -0.09797159 -0.18668662 0.01899051 -0.090599984 0.27308854 -0.16464788 -0.052540977
0.31476408 0.34123126 -0.20177746 0.058261406 -0.062283102 0.08100364 -0.05288183 -0.30126902
-0.072271824 0.12659487 -0.24721928 0.010523642 0.16314678 0.24967973 0.16486049 0.21829997
0.071907714 -0.11274736 0.26171926 0.1126936 0.0037151442 -0.057780877 -0.045483377 -0.002192744
0.14541183 0.19613612 0.05283523 -0.1796454 -0.061889194 -0.02761516 -0.09329295 -0.041644644
-0.11759337 -0.35006672 -0.09449163 -0.012190951 -0.019572766 0.13369519 -0.03211934 -0.100720026
-0.11150815 -0.016113484 -0.22731441 0.028300889 -0.13424219 -0.15384108 0.105951004 0.13652351
0.053388808 -0.04113954 0.2609915 0.18055488 -0.14138299 0.015910646 0.02607452 -0.08305306
-0.051740877 -0.33243337 0.09325419 -0.12627529 -0.3465602 0.034140956 0.12910429 0.44344333
-0.16491018 -0.06445723 -0.17182843 -0.039290994 -0.19069761 -0.0035173213 0.08803438 0.03430556
0.16654657 0.046002787 0.17933163 -0.18804018 -0.16462411 -0.105302304 -0.00287182 -0.47431552
0.29817176 0.031448152 -0.26925337 -0.036439408 0.07266698 -0.008994777 -0.018455748 0.12245675
00000000: 82f2 00be 1335 03be 48d0 663e d614 183e
00000010: ecdf 2abd 62a3 d83c 3979 843d 672e 6cbe
00000020: 4c5f 87bc 36e1 b0bc 16c0 c3bd db70 1bbd
00000030: 5589 97bd c0e0 4d3e 4a55 143e 1416 d33d
00000040: b23a e5bd 824c 2dbe a2dc 54bd 95eb 883d
00000050: 625d 03bd 7187 913d a022 78bc 1504 9bbd
00000060: 1cb3 74be cb62 23be 89d5 4e3e 7226 c83d
00000070: 0100 693e a571 6a3e b0ea 053e 537b 80be
00000080: 9e61 953c d8cf 6a3d 8a02 793e ee32 8b3d
00000090: 85be a63e 0713 283e debe 5f3c 89c9 f13d
000000a0: ba40 c8bd 05de 81bd 01f3 6bbe 37b5 943d
000000b0: ae9e 913d 7dbd f73d 5de8 d5bd 2ba7 3b3d
000000c0: c9eb 923d a2ff 313e 8eec 793e 654c 0e3d
000000d0: 5604 393e f776 23be 8a94 79be c3bb 80be
000000e0: b50c ebbc 0f72 783d aa21 15be af84 9ebd
000000f0: b34a b93d 3b8f 243d 7638 a8be 0a5c d53d
00000100: 52c0 21be 4700 a53b 6078 2bbe 18ef d4bd
00000110: 6bc1 08be 62f7 8ebd 8d9a b63d 939d 883e
00000120: ca66 993b 67bc 79bd 7c3c 44bd 1370 663d
00000130: 3ac5 313d c4ce 643d 1836 2cbe adb1 043e
00000140: 2056 0b3e 2a67 d7bd db18 eabc adef 443e
00000150: 7963 1dbe 71fc 543e 39e5 84bd 9de4 59be
00000160: 9d68 9cbd f5dc e23d c8ac c43c 7df7 a63b
00000170: 64d6 87be f063 1dbe d871 1fbe 7eb4 c53d
00000180: 05d1 d03c 9655 5d3e 5565 9d3e 0a64 8abc
00000190: 58da 8fbd fc17 6cbd a385 0d3b f764 cdbd
000001a0: 86d6 0dbe b123 d7bd eca2 7d3e cebf 4a3e
000001b0: f740 1cbe bb03 80bd fed7 013e ad0e 4bbd
000001c0: 010b 0abd 7985 b73c 7a6c 503d 01a4 a63c
000001d0: 647c c4bd 390d 803d dc47 42bc a271 f0bd
000001e0: 3cc0 a53c 7ea5 8f3d ebdb 953e 3b43 013e
000001f0: 5368 ef3d 244d 123d e2c6 1c3e 09cc eabb
00000200: 72fe 0cbd a336 363e bbb5 f5bd f7ae 123d
00000210: 5724 3f3d 0ec4 9abd e9b6 46bd 9091 6c3e
00000220: 2374 20be b43c 61bd fdae 013e 2c72 98bd
00000230: 91ed 8cbd 723b 473e 1b65 c2be 70ed a5bc
00000240: acab 67be 35f0 2b3e 48e4 723d 0010 0e3e
00000250: 8034 0c3d a864 ccbb 1b7a 2d3e 8c51 db3d
00000260: ce40 ab3d 13f2 c83d 3306 b03c 812b 93bd
00000270: d78a 7abd 5023 2c3e 87f5 963d 910d bb3d
00000280: 1ad9 233d 54a5 c8bd c72a 3fbe fc91 9b3c
00000290: 7c8c b9bd 43d2 8b3e 7499 28be 3535 57bd
000002a0: c228 a13e ddb5 ae3e c09e 4ebe 83a3 6e3d
000002b0: 911c 7fbd 3de5 a53d 9e9a 58bd ef3f 9abe
000002c0: 4003 94bd 16a2 013e 0d27 7dbe 5b6b 2c3c
000002d0: f30f 273e 0bac 7f3e 30d1 283e 078a 5f3e
000002e0: 5a44 933d 16e8 e6bd 1100 863e e7cb e63d
000002f0: c779 733b a4ab 6cbd c74c 3abd 24b4 0fbb
00000300: d7e6 143e e8d7 483e c169 583d f7f4 37be
00000310: 867f 7dbd 3039 e2bc 6010 bfbd 9393 2abd
00000320: cbd4 f0bd f23b b3be d484 c1bd 8ebc 47bc
00000330: 1157 a0bc 64e7 083e 928f 03bd 4d46 cebd
00000340: 635e e4bd 6d00 84bc 1cc5 68be 44d7 e73c
00000350: c976 09be 8488 1dbe d7fc d83d d2cc 0b3e
00000360: 39ae 5a3d ef81 28bd aea0 853e 61e3 383e
00000370: b4c6 10be 0b57 823c 3b9a d53c b917 aabd
00000380: 3eee 53bd b534 aabe 0efc be3d 4f4e 01be
00000390: 5770 b1be 63d7 0b3d ea33 043e 010b e33e
000003a0: 37de 28be 2702 84bd cbf3 2fbe 98ef 20bd
000003b0: 3c46 43be dc82 66bb 5e4b b43d fd83 0c3d
000003c0: 2f8b 2a3e 6b6d 3c3d b6a2 373e 9b8d 40be
000003d0: 3993 28be bca8 d7bd 2535 3cbb 7cd9 f2be
000003e0: f8a9 983e c7cf 003d 94db 89be 7d41 15bd
000003f0: 6dd2 943d d45e 13bc 8230 97bc 9bca fa3d

signal_classifier.stem.2.0.bias f4 [32]
0.03748506 0.01232629 -0.06412093 0.015698012 -0.09261787 0.07566699 -0.056536887 -0.03849152
0.021893691 0.066149816 0.029252712 -0.07504898 -0.011517793 -0.024352573 0.021508818 0.054861985
-0.064639516 0.055399295 0.040644165 -0.014261761 0.06548639 -0.046658404 0.026055008 -0.025424961
-0.07104356 -0.099069946 0.03985141 -0.08270902 -0.0209133 0.07631763 -0.0020354167 -0.08448942
00000000: ef89 193d 35f4 493c d651 83bd 1e99 803c
00000010: 70ae bdbd 4bf7 9a3d 3993 67bd 49a9 1dbd
00000020: 665a b33c 8e79 873d 62a3 ef3c 48b3 99bd
00000030: 20b5 3cbc 0c7f c7bc 4333 b03c f6b6 603d
00000040: b961 84bd 5fea 623d 7f7a 263d 29aa 69bc
00000050: ba1d 863d e21c 3fbd 5071 d53c 0248 d0bc
00000060: 497f 91bd 2fe5 cabd 3b3b 233d 5963 a9bd
00000070: 5e52 abbc 6b4c 9c3d a064 05bb ca08 adbd

signal_classifier.stem.2.1.weight f4 [32]
0.9481637 1.028106 0.9924635 1.0369483 0.9987807 0.9765308 1.080796 1.012086
0.98095226 0.9304194 1.0344123 1.0951929 0.98354137 1.000945 1.0249215 1.0416769
0.96874857 0.97223806 1.0085456 0.98113376 1.0378944 0.9890664 0.962139 1.0067136
0.98058397 1.017599 0.9924853 1.0022798 1.0598869 0.95395756 1.0293417 1.071586
00000000: dbba 723f fa98 833f 1712 7e3f b9ba 843f
00000010: 18b0 7f3f ecfd 793f 8657 8a3f 098c 813f
00000020: b01f 7b3f f72f 6e3f 9f67 843f 482f 8c3f
00000030: 5ec9 7b3f f71e 803f a130 833f ab55 853f
00000040: e8ff 773f 98e4 783f 0618 813f 952b 7b3f
00000050: b9d9 843f 7533 7d3f be4e 763f fedb 803f
00000060: 8d07 7b3f af40 823f 8413 7e3f b44a 803f
00000070: 60aa 873f 9036 743f 78c1 833f bb29 893f

signal_classifier.stem.2.1.bias f4 [32]
0.019574597 0.023365492 0.04995515 0.035162184 -0.0027341833 -0.039685436 0.022348404 0.026965326
-0.017202653 0.06031336 0.085898176 0.044409964 0.00072263466 0.0064927028 0.04614981 -0.028982705
0.08083546 -0.081601724 0.05045738 0.06828122 -0.060893424 -0.062445063 0.0014376431 0.0035275018
-0.041139085 -0.012870999 0.027841669 0.037862435 0.048167583 -0.06377031 0.048039008 0.039126936
00000000: e85a a03c fd68 bf3c c59d 4c3d 3906 103d
00000010: fc2f 33bb 328d 22bd 0014 b73c 63e6 dc3c
00000020: 94ec 8cbc 240b 773d 62eb af3d 39e7 353d
00000030: 316f 3d3a bdc0 d43b 9507 3d3d 236d edbc
00000040: 108d a53d ce1e a7bd 66ac 4e3d 06d7 8b3d
00000050: 626b 79bd 65c6 7fbd 4c6f bc3a a92d 673b
00000060: 7581 28bd e2e0 52bc 3614 e43c a415 1b3d
00000070: 5f4b 453d 029a 82bd 8dc4 443d 9143 203d

signal_classifier.stem.2.1.running_mean f4 [32]
0.0064031 0.35909 -0.23675598 -0.41106135 -0.13798167 -0.20976 -0.42484564 -0.3161014
-0.0022798989 0.036027294 -0.049761552 -0.5572423 -0.47613698 0.09070627 0.01322965 0.14640184
0.08986054 0.0797054 0.30389315 0.052314118 0.47206077 0.096831396 0.218574 -0.031122774
-0.13400532 -0.004806731 0.32908532 -0.13522209 -0.09154084 0.16557352 -0.35959834 -0.42663515
00000000: 19d1 d13b a5da b73e 2970 72be a276 d2be
00000010: 114b 0dbe 53cb 56be 5e85 d9be 0bd8 a1be
00000020: 5b6a 15bb 5b91 133d c5d2 4bbd 6ea7 0ebf
00000030: 3ac8 f3be 35c4 b93d 2dc1 583c 5dea 153e
00000040: ce08 b83d 963c a33d e297 9b3e 5447 563d
00000050: f3b1 f13e 8a4f c63d ddd1 5f3e 30f5 febc
00000060: b138 09be c881 9dbb df7d a83e a977 0abe
00000070: c479 bbbd 1b8c 293e 461d b8be ec6f dabe

signal_classifier.stem.2.1.running_var f4 [32]
1.0536009 1.3207067 0.638279 1.310626 0.9145287 1.9195396 1.1249247 3.2069366
0.7241115 0.88864166 1.8381088 4.7049723 2.3254395 0.85304666 1.021353 0.8009521
1.711068 0.6324521 1.5795888 1.0235422 2.3651936 0.8139857 3.10291 0.67847306
1.1463226 0.9791238 5.0950623 0.6866069 2.7202997 1.7394686 5.079265 4.830299
00000000: 65dc 863f eb0c a93f 4166 233f 98c2 a73f
00000010: 8e1e 6a3f 79b3 f53f 88fd 8f3f 733e 4d40
00000020: 5f5f 393f 057e 633f 2647 eb3f 228f 9640
00000030: 00d4 1440 4461 5a3f b2bb 823f 320b 4d3f
00000040: 4704 db3f 61e8 213f f72f ca3f 6e03 833f
00000050: 555f 1740 5e61 503f 1496 4640 69b0 2d3f
00000060: b3ba 923f dba7 7a3f c00a a340 78c5 2f3f
00000070: 6419 2e40 e8a6 de3f 5789 a240 cf91 9a40

signal_classifier.body.0.layers1.0.weight f4 [16, 32, 1]
0.1884745 0.6611526 0.15967666 0.340823 0.43884727 0.09710662 0.24115172 -0.20155798
0.13759798 0.12135494 -0.3071624 0.25170878 -0.29351714 0.29742676 -0.2542013 -0.2072909
0.17570634 -0.021970216 0.22473635 -0.11575481 0.1453569 -0.8826337 0.1180021 -0.112346925
-0.013217616 -0.07472479 -0.024233013 0.12665337 0.075829 -0.21706352 0.45236456 -0.1878341
0.01740133 0.3788241 -0.25252742 0.038086087 0.08927375 0.14277539 0.00017751544 0.119710304
-0.1077977 -0.10660487 -0.004473222 -0.46485886 -0.07455051 -0.054576457 -0.2019113 -0.05147792
0.1801725 0.12258704 -0.26416382 -0.013737856 -0.2957192 0.22434035 0.25839698 0.042675253
0.25694904 -0.0734494 0.20587191 0.0136921825 0.120039135 -0.14171523 0.4756558 -0.3692862
-0.11059877 -0.27331847 0.14295392 0.16501535 -0.10644568 0.05671765 0.010464318 0.123196304
0.042466823 0.13395378 -0.09235928 -0.16026294 -0.29887277 0.2842313 -0.24152075 -0.3397749
0.21143608 0.40276212 -0.0030949311 0.48299056 0.21354927 0.14713606 -0.050158843 0.44611657
-0.09059168 -0.16974896 -0.03189711 -0.03174054 -0.2202183 0.36501047 0.08405045 -0.310024
0.12579855 0.42472368 0.15067683 -0.007883519 0.42422456 0.12716514 -0.22810371 0.4624929
-0.10591745 -0.23059529 0.42057443 -0.032240503 -0.028182115 0.19800335 0.12581196 0.23758295
0.22683409 -0.052880697 0.031513944 0.38733718 -0.034367353 0.07191269 -0.24709366 -0.08774858
0.11419297 -0.24466358 -0.28034684 -0.6263491 0.007684542 0.27529016 0.21221764 0.38883474
0.24424915 0.29719043 0.10105287 -0.06622848 0.45065665 -0.4284422 -0.48994416 -0.12820815
0.06584563 0.12568735 -0.5219785 -0.2769445 -0.20083354 0.08994059 0.071997285 -0.39349294
-0.02174612 0.1905409 -0.00208839 -0.16184932 -0.46558332 0.40126783 -0.09098603 0.24577594
-0.23734212 -0.18343522 -0.31664655 0.14188763 -0.20681754 0.45066735 -0.15370971 -0.10620335
0.030330028 -0.068120785 0.17690097 0.17511457 0.035543885 0.4784921 0.15457943 -0.21831666
-0.20777306 0.13028704 0.43469882 -0.31972373 0.50975335 0.11467581 0.43335232 0.11549357
0.035157852 -0.26691705 0.030085048 -0.15828028 0.031683154 0.15994158 -0.09437951 -0.11428005
-0.20958523 0.021308552 0.1504789 0.3561857 -0.43292198 0.023782892 -0.23015384 -0.3289374
-0.22204539 -0.15302923 0.17173679 0.27947816 0.081834555 -0.13602036 -0.37810442 0.1720998
-0.0089509385 -0.17596671 0.09643709 -0.18854362 -0.032867916 0.36350736 0.14305612 -0.44320023
-0.09163692 -0.123582095 0.58289486 -0.05975565 -0.10891799 -0.10948069 -0.20584282 0.21868557
-0.2009788 -0.21708973 -0.038357474 0.039148834 -0.23290186 0.20690098 -0.16801101 0.2543212
0.1808765 -0.37102976 -0.3459769 -0.066378154 -0.33685005 0.143704 0.3645771 0.2390595
0.021741215 -0.11670385 -0.023451649 0.117382735 -0.0092382645 -0.1006622 -0.25151747 -0.069233805
-0.4362452 0.13921864 -0.0142435385 -0.031507835 0.19613117 -0.10397369 -0.004103564 -0.09515066
0.1398746 -0.22761379 0.12760007 -0.2825492 0.09400471 -0.4925725 0.20034379 -0.25838178
00000000: 76ff 403e 4c41 293f 4782 233e 5a80 ae3e
00000010: 97b0 e03e d6df c63d 7af0 763e 3765 4ebe
00000020: 7ce6 0c3e f088 f83d 6444 9dbe f9df 803e
00000030: e147 96be 5248 983e ac26 82be 1144 54be
00000040: 5dec 333e e2fa b3bc 4921 663e dc10 edbd
00000050: 70d8 143e 48f4 61bf 16ab f13d 2516 e6bd
00000060: b38e 58bc 5009 99bd 5084 c6bc 6cb1 013e
00000070: 3c4c 9b3d e645 5ebe 549c e73e 9557 40be
00000080: 3c8d 8e3c 3cf5 c13e 464b 81be 2800 1c3d
00000090: 28d5 b63d b633 123e 7023 3a39 ad2a f53d
000000a0: 0ac5 dcbd a753 dabd 1b94 92bb fb01 eebe
000000b0: f0ad 98bd 908b 5fbd d6c1 4ebe 83da 52bd
000000c0: 247f 383e ea0e fb3d 7b40 87be bf14 61bc
000000d0: 8268 97be 7ab9 653e 9c4c 843e 3fcc 2e3d
000000e0: d38e 833e a46c 96bd 16d0 523e 2d55 603c
000000f0: 14d7 f53d cc1d 11be 2889 f33e 1513 bdbe
00000100: 9c81 e2bd 66f0 8bbe 8362 123e c9f9 283e
00000110: 3100 dabd c450 683d 8872 2b3c 584e fc3d
00000120: b1f1 2d3d 2e2b 093e dd26 bdbd f81b 24be
00000130: da05 99be c486 913e 3751 77be faf6 adbe
00000140: b382 583e d636 ce3e 54d4 4abb 8a4a f73e
00000150: a9ac 5a3e d6aa 163e 5c73 4dbd 6469 e43e
00000160: 2188 b9bd acd2 2dbe 8ba6 02bd 5e02 02bd
00000170: e880 61be a7e2 ba3e a422 ac3d 77bb 9ebe
00000180: 56d1 003e 6275 d93e 074b 1a3e e029 01bc
00000190: f633 d93e 9437 023e 0594 69be dfcb ec3e
000001a0: 3feb d8bd 2c21 6cbe 8855 d73e 9e0e 04bd
000001b0: 2ede e6bc 64c1 4a3e dad4 003e f248 733e
000001c0: 3247 683e 6e99 58bd c414 013d 0f51 c63e
000001d0: c8c4 0cbd f646 933d 1f06 7dbe 87b5 b3bd
000001e0: 01de e93d 1789 7abe 9f89 8fbe 6a58 20bf
000001f0: 9cce fb3b d5f2 8c3e 954f 593e 5915 c73e
00000200: 731c 7a3e 5829 983e cff4 ce3d cca2 87bd
00000210: 78bc e63e c75c dbbe f6d9 fabe ff48 03be
00000220: 13da 863d 2fb4 003e 62a0 05bf abcb 8dbe
00000230: 4fa7 4dbe c632 b83d 5073 933d e877 c9be
00000240: eb24 b2bc 271d 433e 5fdd 08bb d4bb 25be
00000250: f060 eebe fa72 cd3e e256 babd b0ac 7b3e
00000260: d009 73be 71d6 3bbe 7f1f a2be fe4a 113e
00000270: fac7 53be dfbd e63e 1466 1dbe 2481 d9bd
00000280: ae76 f83c e982 8bbd 8725 353e 3c51 333e
00000290: 7796 113d ebfc f43e 124a 1e3e 678e 5fbe
000002a0: 76c2 54be f769 053e d890 de3e d4b2 a3be
000002b0: 327f 023f 27db ea3d 5be0 dd3e e587 ec3d
000002c0: ae01 103d 5aa9 88be eb74 f63c 3a14 22be
000002d0: 32c6 013d bac7 233e 0b4a c1bd a90b eabd
000002e0: 839d 56be 468f ae3c 2417 1a3e f95d b63e
000002f0: f3a7 ddbe 57d4 c23c 73ad 6bbe 7c6a a8be
00000300: de5f 63be b2b3 1cbe c5db 2f3e c317 8f3e
00000310: e098 a73d ec48 0bbe e796 c1be ee3a 303e
00000320: f5a6 12bc 9e30 34be cf80 c53d 9411 41be
00000330: 82a0 06bd a31d ba3e 4e7d 123e 24eb e2be
00000340: 23ac bbbd 9c18 fdbd 9938 153f 57c2 74bd
00000350: 6510 dfbd 6937 e0bd 76c8 52be 1cef 5f3e
00000360: 63cd 4dbe c54c 5ebe ba1c 1dbd 875a 203d
00000370: d37d 6ebe dadd 533e 140b 2cbe 6336 823e
00000380: b037 393e 9df7 bdbe e223 b1be 45f1 87bd
00000390: 9c77 acbe 2427 133e daa9 ba3e 03cc 743e
000003a0: a21a b23c 6e02 efbd ac1d c0bc 5c66 f03d
000003b0: 175c 17bc fc27 cebd e6c6 80be 74ca 8dbd
000003c0: 885b dfbe 558f 0e3e bb5d 69bc 5c0e 01bd
000003d0: 9cd6 483e 28f0 d4bd 3177 86bb 59de c2bd
000003e0: 4a3b 0f3e 9713 69be 98a9 023e 4aaa 90be
000003f0: 8b85 c03d 7632 fcbe ec26 4d3e 9e4a 84be

signal_classifier.body.0.layers1.0.bias f4 [16]
0.10854032 -0.08245189 -0.024662413 0.17336676 -0.12189317 0.054540083 -0.048335485 -0.018779712
-0.0055833138 -0.11894594 0.17441328 0.13446844 -0.14513366 -0.13625455 -0.08716691 -0.117231674
00000000: 634a de3d 89dc a8bd d408 cabc 0e87 313e
00000010: 20a3 f9bd 6c65 5f3d 6efb 45bd e9d7 99bc
00000020: 3bf4 b6bb ee99 f3bd 6599 323e 18b2 093e
00000030: eb9d 14be 5086 0bbe 9184 b2bd 2917 f0bd

signal_classifier.body.0.layers1.1.weight f4 [16]
1.009373 1.0092227 0.9484673 0.9864702 0.952685 0.9822464 0.9888638 1.0700616
1.0056535 0.98610055 0.9873706 0.95121473 0.95957524 1.045489 0.9372426 0.98777604
00000000: 2233 813f 362e 813f c1ce 723f 5089 7c3f
00000010: 2ae3 733f 8074 7b3f 2e26 7d3f c7f7 883f
00000020: 41b9 803f 1671 7c3f 52c4 7c3f cf82 733f
00000030: b9a6 753f 95d2 853f 22ef 6f3f e4de 7c3f

signal_classifier.body.0.layers1.1.bias f4 [16]
0.05405129 0.057994805 0.041316107 0.012963683 0.07009921 0.09519045 -0.039837886 0.09722215
-0.0031524485 -0.0031852375 -0.0629548 -0.07256881 0.008146265 0.04413343 -0.0051201154 0.096667364
00000000: e364 5d3d f68b 6d3d 143b 293d a165 543c
00000010: 2d90 8f3d 36f3 c23d 0d2d 23bd 681c c73d
00000020: 4f99 4ebb 6bbf 50bb 72ee 80bd f59e 94bd
00000030: e977 053c 41c5 343d a4c6 a7bb 8af9 c53d

signal_classifier.body.0.layers1.1.running_mean f4 [16]
0.28764203 -0.09815863 0.028970947 0.5086073 -0.44880983 0.15855747 -0.13124175 -0.22774789
0.04089817 -0.35710326 -0.07599541 0.18043573 -0.47140718 -0.02075637 0.28681564 -0.26930952
00000000: d145 933e 6407 c9bd 7b54 ed3c 1734 023f
00000010: 67ca e5be e45c 223e 3d64 06be be36 69be
00000020: d784 273d 3dd6 b6be 7ba3 9bbd 25c4 383e
00000030: 485c f1be 4309 aabc 80d9 923e f0e2 89be

signal_classifier.body.0.layers1.1.running_var f4 [16]
1.2798231 0.383372 0.8460367 0.87663656 0.6163693 0.43681413 0.5158322 1.9501145
0.36671582 1.0403155 0.5416382 0.7530742 0.457746 1.0890237 0.39196518 0.5151753
00000000: 3ed1 a33f 5649 c43e dc95 583f 416b 603f
00000010: 61ca 1d3f 1aa6 df3e 940d 043f 5a9d f93f
00000020: 2dc2 bb3e 0f29 853f cda8 0a3f 79c9 403f
00000030: af5d ea3e 2165 8b3f a9af c83e 87e2 033f

signal_classifier.body.0.layers2.0.0.weight f4 [16, 32, 1]
-0.17350118 0.3114379 -0.19660927 -0.5807393 -0.029427685 -0.1242091 0.6541567 0.03872584
0.37366912 -0.15500574 0.22906382 0.12579715 -0.19027346 -0.058711614 0.028458994 0.5675201
-0.08092312 0.20995528 0.17215876 -0.08319341 0.0010216535 0.54454553 0.067115024 -0.3740347
-0.6999343 -0.17233719 -0.41192096 0.02645924 -0.24278678 0.12923989 0.13196798 0.14921103
-0.228542 0.08750176 0.4282487 0.015884332 0.45698696 0.037554756 -0.12308812 0.074883744
-0.3950258 -0.27583933 0.17351146 0.13843907 -0.35726863 -0.24005646 -0.46570167 0.11872519
0.24760772 -0.059889644 0.02097013 0.0074239145 0.0638686 0.08170574 -0.039805874 -0.42679343
0.12611815 -0.4865893 0.37031692 0.03190222 0.034960687 -0.354938 -0.10547719 0.026556633
-0.061435893 -0.14171539 -0.22441904 0.25510657 -0.0017373116 0.043907393 0.069397375 0.19938649
0.33051926 -0.6287723 -0.11771546 0.12905969 -0.04192319 0.08809368 -0.10290529 -0.11623708
-0.15993695 0.017787114 -0.213798 -0.24629356 0.065099984 0.18300846 -0.3763248 0.3797197
-0.24592958 0.11100973 -0.05734319 0.059169244 -0.20055689 -0.31522214 -0.116840854 0.6533195
-0.54718614 -0.47707972 0.27577698 -0.3332765 -0.24268314 -0.19635056 -0.035364706 0.35185295
0.23236553 0.21930286 -0.20219977 -0.10221884 0.19048268 -0.010546158 -0.032306913 0.24067557
0.034036607 -0.17310512 -0.103508756 -0.3193519 0.28178158 -0.017317072 0.16809195 0.14729108
0.22996883 0.7199649 0.19937222 -0.22949818 -0.14859082 -0.037380137 -0.16863444 0.047012318
0.12130405 -0.13558061 0.08415284 -0.26361918 0.2303161 -0.4108744 -0.0015818253 -0.2185877
0.15742747 0.11934626 -0.044155147 0.11221876 -0.70455647 -0.21621732 -0.3070937 -0.10337128
0.18322124 0.029916946 0.1840332 0.23697002 -0.012002605 -0.3022128 0.3325048 0.24476376
0.18796006 0.13905281 -0.1489997 -0.061485436 -0.6694682 -0.033119623 0.18224706 0.34598702
0.06314238 -0.09639837 0.012929646 0.015351606 0.34907606 -0.11235299 -0.092724115 0.07927178
-0.057060808 0.2317479 -0.4859778 -0.534131 0.14545573 0.44789767 0.36290094 -0.61886096
-0.01311851 0.04321453 0.03656448 0.4528559 -0.0892225 0.8011284 -0.30018008 0.28036183
0.3004898 -0.21615224 0.03749418 -0.29873475 -0.3790857 0.08337399 -0.34681004 0.25195462
-0.03734558 -0.07638239 -0.04627964 -0.42438617 -0.30184913 0.5373422 -0.29126796 0.28749767
0.011319753 0.042212877 -0.084925964 -0.30049625 0.16338168 0.2182278 0.54159975 0.46259072
-0.19276825 0.12698467 0.14329691 -0.11352136 0.0875777 0.27820906 0.018530125 0.015885502
-0.039104026 0.0018048054 -0.0124660265 0.0946402 -0.1715124 0.5121861 -0.25726697 0.0584829
-0.13875127 -0.023437241 -0.048976716 -0.50084096 0.111182705 -0.10488745 -0.6177331 -0.03672116
-0.3650559 0.19328842 0.065127395 -0.36575317 -0.18388082 -0.64595944 -0.0226104 0.15397377
0.066078976 0.27754322 -0.18026708 0.46604395 -0.0054815635 -0.34195024 -0.047500603 -0.30520123
-0.022055885 0.11275078 -0.14374304 0.17631596 0.27180234 0.052136507 -0.10376346 0.13649744
00000000: 4baa 31be ca74 9f3e f153 49be 55ab 14bf
00000010: 5412 f1bc 5761 febd d076 273f fd9e 1e3d
00000020: 8f51 bf3e d3b9 1ebe b58f 6a3e f8d0 003e
00000030: 0cd7 42be 977b 70bd d622 e93c ff48 113f
00000040: 05bb a5bd 84fe 563e 634a 303e 4e61 aabd
00000050: 01e9 853a 5667 0b3f 9a73 893d 7a81 bfbe
00000060: e52e 33bf 2979 30be 4ee7 d2be 0cc1 d83c
00000070: 199d 78be 7657 043e 9d22 073e c7ca 183e
00000080: ea06 6abe 1f34 b33d 6a43 db3e dc1f 823c
00000090: 32fa e93e 04d3 193d a015 fcbd a65c 993d
000000a0: d240 cabe d03a 8dbe fdac 313e f9c2 0d3e
000000b0: eaeb b6be 5cd1 75be 7370 eebe 3126 f33d
000000c0: e18c 7d3e d84e 75bd 8dc9 ab3c 4f44 f33b
000000d0: 8acd 823d 5755 a73d 7c0b 23bd ab84 dabe
000000e0: 1e25 013e 3c22 f9be 2e9a bd3e e7ab 023d
000000f0: f032 0f3d 6fba b5be 6d04 d8bd 4c8d d93c
00000100: 34a4 7bbd d71d 11be 1bce 65be 549d 823e
00000110: 81b6 e3ba 3dd8 333d 3620 8e3d f92b 4c3e
00000120: d239 a93e 39f7 20bf ce14 f1bd 3928 043e
00000130: a7b7 2bbd 766a b43d 02c0 d2bd b50d eebd
00000140: 83c6 23be 48b6 913c dded 5abe 6134 7cbe
00000150: 2453 853d 9266 3b3e a5ad c0be 9f6a c23e
00000160: f7d4 7bbe 1259 e33d b1e0 6abd 735b 723d
00000170: c95e 4dbe cc64 a1be 424a efbd f23f 273f
00000180: 6414 0cbf cb43 f4be a432 8d3e 38a3 aabe
00000190: ee81 78be 1f10 49be 95da 10bd 1226 b43e
000001a0: 3bf1 6d3e ee90 603e 750d 4fbe 1c58 d1bd
000001b0: e40d 433e cbc9 2cbc 4154 04bd a873 763e
000001c0: f869 0b3d 7842 31be 66fc d3bd 1882 a3be
000001d0: ad45 903e 88dc 8dbc 4c20 2c3e 79d3 163e
000001e0: f37c 6b3e 9f4f 383f 3b28 4c3e 9201 6bbe
000001f0: 3128 18be ea1b 19bd 82ae 2cbe fd8f 403d
00000200: 426e f83d a5d5 0abe 5358 ac3d 18f9 86be
00000210: fcd7 6b3e 215e d2be 4055 cfba 74d5 5fbe
00000220: ab34 213e d06b f43d 07dc 34bd f3d2 e53d
00000230: d05d 34bf 1368 5dbe 633b 9dbe 52b4 d3bd
00000240: 599e 3b3e 6214 f53c 3373 3c3e 45a8 723e
00000250: 93a6 44bc a3bb 9abe 123e aa3e 5aa3 7a3e
00000260: 9a78 403e dc63 0e3e 6193 18be 27d8 7bbd
00000270: 4562 2bbf 71a8 07bd f99e 3a3e 3625 b13e
00000280: cb50 813d 826c c5bd ded6 533c 4d85 7b3c
00000290: 19ba b23e 5319 e6bd 24e6 bdbd 3e59 a23d
000002a0: 98b8 69bd 524f 6d3e 15d2 f8be cfbc 08bf
000002b0: 59f2 143e d852 e53e 27ce b93e ac6d 1ebf
000002c0: 05ef 56bc b801 313d a3c4 153d bbdc e73e
000002d0: 49ba b6bd c016 4d3f 34b1 99be 968b 8f3e
000002e0: cdd9 993e 0357 5dbe 7f93 193d c3f3 98be
000002f0: 8517 c2be fcbf aa3d 1691 b1be 3200 813e
00000300: aef7 18bd 5f6e 9cbd b88f 3dbd 2549 d9be
00000310: f88b 9abe 428f 093f 1321 95be e532 933e
00000320: 7c76 393c 69e7 2c3d aaed adbd a5da 99be
00000330: 874d 273e 1c77 5f3e 48a6 0a3f b1d8 ec3e
00000340: 0a65 45be 4508 023e 6dbc 123e e37d e8bd
00000350: f05b b33d 6b71 8e3e 7dcc 973c 5022 823c
00000360: 8b2b 20bd 388f ec3a 4e3e 4cbc b9d2 c13d
00000370: f2a0 2fbe a11e 033f 7fb8 83be c48b 6f3d
00000380: d014 0ebe 75ff bfbc cf9b 48bd 1d37 00bf
00000390: c2b3 e33d 3bcf d6bd c223 1ebf ed68 16bd
000003a0: 9be8 babe 66ed 453e 8361 853d 0044 bbbe
000003b0: 414b 3cbe 995d 25bf 7239 b9bc 4dab 1d3e
000003c0: 6a54 873d 251a 8e3e ef97 38be 509d ee3e
000003d0: b09e b3bb 1a14 afbe fe8f 42bd 5643 9cbe
000003e0: 8bae b4bc e2e9 e63d 6031 13be 2c8c 343e
000003f0: ad29 8b3e 178d 553d f081 d4bd fcc5 0b3e

signal_classifier.body.0.layers2.0.0.bias f4 [16]
-0.061404325 0.08117631 0.1545544 -0.008977877 0.16041452 0.1622884 -0.02831439 0.11111384
0.014314297 0.06398419 -0.03746604 -0.18875904 -0.16498345 -0.13521403 -0.17260145 -0.019387102
00000000: 1a83 7bbd c43f a63d 8243 1e3e f217 13bc
00000010: b443 243e ee2e 263e 94f3 e7bc a78f e33d
00000020: 8386 6a3c 250a 833d fe75 19bd 0d4a 41be
00000030: 6cf1 28be 8c75 0abe 6fbe 30be b3d1 9ebc

signal_classifier.body.0.layers2.0.1.weight f4 [16]
0.98593444 0.96705925 1.0070586 1.0257722 1.0157022 0.9489488 1.0006906 1.0331368
0.9739001 0.9800036 1.1000993 1.0676799 0.9536726 1.0678794 0.9720503 1.0358039
00000000: 3366 7c3f 3291 773f 4ce7 803f 814c 833f
00000010: 8802 823f 4fee 723f a116 803f d43d 843f
00000020: 8451 793f 84e1 7a3f 0ed0 8c3f bca9 883f
00000030: e323 743f 46b0 883f 4ad8 783f 3995 843f

signal_classifier.body.0.layers2.0.1.bias f4 [16]
0.03096176 -0.05456199 0.015767056 0.020490997 0.05640514 0.03653157 0.02485897 0.06364605
-0.045634944 0.006057528 0.09369633 -0.0281779 0.05420118 0.076581754 0.10433024 0.03687527
00000000: 84a3 fd3c 657c 5fbd ea29 813c bcdc a73c
00000010: 1309 673d 21a2 153d 0aa5 cb3c dc58 823d
00000020: b5eb 3abd 3a7e c63b dde3 bf3d 57d5 e6bc
00000030: 0e02 5e3d e5d6 9c3d 18ab d53d 860a 173d

signal_classifier.body.0.layers2.0.1.running_mean f4 [16]
-0.034847125 -0.02555097 0.032837503 -0.0446826 0.05762282 0.10722796 0.06210191 -0.1381237
0.16477753 0.4239363 -0.22049098 -0.12741031 -0.21413574 0.071152866 -0.14940594 -0.3808585
00000000: dcbb 0ebd 4550 d1bc 9e80 063d 1a05 37bd
00000010: e805 6c3d 559a db3d 935e 7e3d 4d70 0dbe
00000020: 71bb 283e 2e0e d93e 63c8 61be d977 02be
00000030: 6646 5bbe 98b8 913d dffd 18be e3ff c2be

signal_classifier.body.0.layers2.0.1.running_var f4 [16]
0.7758316 0.5294453 1.5232831 0.8025508 0.46224526 0.9216886 1.2270387 0.7156455
0.4072932 0.47763914 2.4261522 3.1450748 0.75237125 0.9035988 2.5428064 0.9125946
00000000: e69c 463f ba89 073f f1fa c23f f873 4d3f
00000010: 69ab ec3e c9f3 6b3f 9b0f 9d3f 8b34 373f
00000020: bc88 d03e 1e8d f43e 1446 1b40 e848 4940
00000030: 679b 403f 4052 673f 57bd 2240 cd9f 693f
