experiments/weights/m202_MultiOutput_20230518_114418/epoch_400.pth (torch, 383813 bytes, 138 tensors)

signal_classifier.stem.0.0.weight f4 [32, 1, 11]
0.6086345 0.0537008 -0.0745947 0.13454157 0.5831257 -0.4094447 -0.30112025 -0.34687284
-0.56687677 -0.19460735 0.5224876 0.68031955 0.10752656 0.2252105 0.026207088 -0.2481978
0.21983479 -0.40312305 -0.53634447 -0.4422192 -0.07624979 0.4970696 1.0261353 0.72941256
-0.06485581 -0.3123401 0.46978667 -0.2425633 -0.46088386 -0.10560702 0.407055 0.023212535
0.20232247 0.21977092 -0.3508066 0.76630574 0.13851038 -0.12826952 0.66788673 -0.4196295
-0.18252127 -0.18430305 -0.34557 0.24340506 -0.29858652 -0.26680252 0.16858833 0.065878466
-0.22037475 0.21635327 -0.22746933 -0.35080224 0.24901105 -0.24277446 0.95880145 -0.5564791
0.3688862 0.008764667 0.12791231 -0.60096246 -0.09576337 0.18144073 0.43147087 -0.13389297
0.23911247 0.1225723 -0.039604865 -0.4254599 -0.37361807 -0.53180486 0.9346853 -0.28038174
0.16349263 0.23093066 -0.24701549 0.3181791 0.64003175 0.001301691 1.0561656 -0.0833455
-0.6936423 -0.5082332 0.3296129 0.080204085 -0.045957375 -0.039454922 -0.7695146 0.35655683
0.2069766 0.4765877 -0.62684685 -0.23360696 0.18654557 -0.44088578 -0.17968576 0.13922986
-0.11770857 -0.58533144 -0.98621947 0.014174687 0.06037048 -0.114422955 -0.33276036 0.080083415
-0.2812257 -0.42261544 -0.52273643 0.32987204 0.56382716 0.7672596 0.40983245 -0.20167002
-0.40087652 0.0038758023 -0.17348816 -0.108628035 -0.732733 0.03934784 -0.19238408 0.1117147
-0.4196007 0.35841513 -0.52434546 0.2577004 -0.014695315 0.14352669 0.22226034 0.24622765
-0.8844256 0.28547934 1.0360235 0.38891432 0.6892863 0.44251293 0.15928243 0.72701204
-0.5414893 0.7541341 0.43418363 0.32449782 0.19721688 -0.4095162 -0.14351983 0.21509854
0.14721295 0.6682191 0.32105666 -0.5714926 0.006052998 -0.064534806 1.0076964 -0.51666903
0.06909325 -0.29853797 0.025142321 -0.5460616 -0.28721645 0.22433907 -0.08649852 1.3707852
-0.21821438 -0.018310335 -0.31565562 -0.65840906 -0.34027827 0.44875076 -0.3044435 0.28748733
0.950211 -0.05916696 0.27132437 0.3361811 0.42375022 0.24102467 0.5560426 0.0018334743
-0.22951518 -0.11986209 -0.49249524 -0.44739196 -0.491906 0.06263375 -0.41389838 -0.30748165
0.11254341 -0.32560834 0.07817865 0.67513007 -0.123813726 0.76435727 -0.3951292 0.051867932
-0.16467679 0.24937667 0.042754505 0.2502753 -0.27149343 0.07765878 0.4254234 0.36656708
0.42975906 0.2919675 0.49786937 0.33289346 -0.029875534 0.0040421286 0.31263712 0.12043194
0.07948963 -0.39559886 -0.3999466 -0.16725653 -0.061659206 0.07044577 0.13191797 0.5107565
0.015640475 0.050211813 0.11437518 0.17840587 -0.12731124 0.1705124 0.14543045 0.31287456
-0.16225465 0.5085181 0.22214793 -0.027453298 -0.09027153 0.25814915 0.5231951 -0.3161819
0.0662263 0.36302733 -0.20455182 -0.17493284 -0.4277068 -0.19111188 -0.03584711 0.4696175
0.20245607 0.10035664 0.12517048 -0.033335127 -0.7273255 -1.0372281 -0.054654624 0.3611754
-0.24431951 0.5512667 -0.15299883 0.499271 0.54480743 0.2126371 -0.29266074 -0.2525461
00000000: 78cf 1b3f 5ff5 5b3d 1bc5 98bd 44c5 093e
00000010: ba47 153f bca2 d1be 6f2c 9abe 5199 b1be
00000020: d61e 11bf 2647 47be bfc1 053f 6c29 2e3f
00000030: e336 dc3d 959d 663e 3fb0 d63c 9027 7ebe
00000040: 5f1c 613e 2566 cebe df4d 09bf 8e6a e2be
00000050: da28 9cbd e87f fe3e 6758 833f c8ba 3a3f
00000060: 1fd3 84bd 0beb 9fbe e187 f03e 8462 78be
00000070: f8f8 ebbe 7e48 d8bd 8369 d03e 3728 be3c
00000080: 9f2d 4f3e a10b 613e ec9c b3be 9d2c 443f
00000090: aad5 0d3e 1659 03be a0fa 2a3f aed9 d6be
000000a0: dbe6 3abe f0b9 3cbe 8dee b0be 2d3f 793e
000000b0: 55e0 98be 579a 88be 6ba2 2c3e 4aeb 863d
000000c0: eba9 61be b68b 5d3e b8ed 68be 5a9c b3be
000000d0: c1fc 7e3e de99 78be 0374 753f 6a75 0ebf
000000e0: a7de bc3e ae99 0f3c 72fb 023e add8 19bf
000000f0: 961f c4bd 99cb 393e c0e9 dc3e 3d1b 09be
00000100: e6d9 743e 3007 fb3d b638 22bd e1d5 d9be
00000110: de4a bfbe 5d24 08bf 8947 6f3f 328e 8fbe
00000120: 9d6a 273e 1679 6c3e a1f1 7cbe 5fe8 a23e
00000130: 1fd9 233f 819d aa3a 6f30 873f 0cb1 aabd
00000140: 8b92 31bf 921b 02bf 06c3 a83e 0a42 a43d
00000150: cd3d 3cbd 7c9b 21bd e9fe 44bf 9e8e b63e
00000160: adf1 533e 4e03 f43e 0979 20bf aa36 6fbe
00000170: cd05 3f3e c8bb e1be 8bff 37be 4692 0e3e
00000180: 3111 f1bd 48d8 15bf e178 7cbf f23c 683c
00000190: 0947 773d 9556 eabd 915f aabe c602 a43d
000001a0: d1fc 8fbe 0d61 d8be 0ed2 05bf fde4 a83e
000001b0: fa56 103f 206b 443f 8fd5 d13e 9682 4ebe
000001c0: b03f cdbe 2c01 7e3b e1a6 31be 6078 debd
000001d0: 6494 3bbf 332b 213d 5500 45be adca e43d
000001e0: e7d5 d6be 3082 b73e 813b 06bf 4ff1 833e
000001f0: 9ec4 70bc a9f8 123e 3798 633e 1a23 7c3e
00000200: b769 62bf 592a 923e 6b9c 843f c71f c73e
00000210: 1175 303f 0e91 e23e ef1a 233e 761d 3a3f
00000220: 0b9f 0abf ef0e 413f 514d de3e 9424 a63e
00000230: 39f3 493e 1bac d1be ddf6 12be cb42 5c3e
00000240: febe 163e 6810 2b3f 8a61 a43e 574d 12bf
00000250: 3a58 c63b d32a 84bd 32fc 803f 6c44 04bf
00000260: c380 8d3d f8d9 98be 45f7 cd3c b1ca 0bbf
00000270: 090e 93be 24b9 653e 2326 b1bd e475 af3f
00000280: 9773 5fbe 8eff 95bc 9d9d a1be 7f8d 28bf
00000290: f438 aebe a9c2 e53e 05e0 9bbe 8a31 933e
000002a0: 0741 733f 0e59 72bd 07eb 8a3e ee1f ac3e
000002b0: caf5 d83e 2ccf 763e cf58 0e3f 3051 f03a
000002c0: 0706 6bbe 417a f5bd 5628 fcbe 8f10 e5be
000002d0: 1adb fbbe 2046 803d 7dea d3be 3c6e 9dbe
000002e0: 297d e63d 23b6 a6be 211c a03d 53d5 2c3f
000002f0: 0d92 fdbd ebac 433f 604e cabe 7873 543d
00000300: 08a1 28be 995c 7f3e 591f 2f3d 1624 803e
00000310: 3001 8bbe 910b 9f3d 19d1 d93e aeae bb3e
00000320: 6109 dc3e c47c 953e bce8 fe3e 0371 aa3e
00000330: 89bd f4bc d573 843b f911 a03e 05a5 f63d
00000340: 76cb a23d ef8b cabe cdc5 ccbe 4c45 2bbe
00000350: 5d8e 7cbd df45 903d 8115 073e f0c0 023f
00000360: 7420 803c e7aa 4d3d 893d ea3d 07b0 363e
00000370: e15d 02be cd9a 2e3e b8eb 143e 1831 a03e
00000380: 1526 26be 3e2e 023f bf7a 633e bde5 e0bc
00000390: 48e0 b8bd 202c 843e 1df0 053f 98e2 a1be
000003a0: a8a1 873d b8de b93e 0876 51be 9821 33be
000003b0: 63fc dabe d5b2 43be 6bd4 12bd b471 f03e
000003c0: a550 4f3e c887 cd3d b12c 003e 6a8a 08bd
000003d0: 0132 3abf e4c3 84bf 87dd 5fbd fbeb b83e
000003e0: e52e 7abe d01f 0d3f baab 1cbe 73a0 ff3e
000003f0: 8078 0b3f 8abd 593e a1d7 95be b94d 81be

signal_classifier.stem.0.0.bias f4 [32]
0.30489546 0.025631469 -0.33939564 0.01078031 0.20762938 0.09693368 -0.2820802 -0.259044
-0.00073781953 -0.22504045 0.030931886 -0.061299928 0.18267468 0.16085838 -0.23304226 0.15092307
-0.19703837 -0.17566271 -0.34580198 -0.116746165 0.118258014 -0.005709501 0.21907446 0.044965055
-0.04234803 -0.25540438 -0.2733128 0.14550577 0.20205928 0.14984497 -0.27073976 -0.04606963
00000000: 421b 9c3e 16f9 d13c 44c5 adbe e69f 303c
00000010: cc9c 543e 2a85 c63d d16c 90be 6aa1 84be
00000020: 3b6a 41ba 0171 66be de64 fd3c a215 7bbd
00000030: 120f 3b3e 0fb8 243e a1a2 6ebe 948b 1a3e
00000040: 6dc4 49be ede0 33be f50c b1be 9d18 efbd
00000050: 4231 f23d c416 bbbb 0e55 603e 472d 383d
00000060: 2175 2dbd 5dc4 82be a8ef 8bbe 77ff 143e
00000070: a1e8 4e3e f670 193e 679e 8abe 82b3 3cbd

signal_classifier.stem.0.1.weight f4 [32]
0.9779243 1.128461 0.96239454 0.87824774 1.0134625 1.0438238 0.8989069 0.9660724
1.0051081 1.0606459 0.9905753 0.972862 0.96602386 1.02348 1.0037395 1.0163438
1.0959117 1.0392072 1.0954393 1.0919111 0.9192311 0.96910685 0.9087089 1.0363574
1.0266494 0.93472606 1.0016857 0.9703336 1.0473957 0.9708149 0.99558216 1.1032625
00000000: 3f59 7a3f 6971 903f 7d5f 763f d8d4 603f
00000010: 24b9 813f 059c 853f c31e 663f 8550 773f
00000020: 62a7 803f 3fc3 873f 5896 7d3f 7c0d 793f
00000030: 574d 773f 6501 833f 897a 803f 8e17 823f
00000040: d646 8c3f be04 853f 5b37 8c3f bec3 8b3f
00000050: bb52 6b3f 6317 783f 25a1 683f 5ca7 843f
00000060: 3f69 833f 354a 6f3f 3d37 803f c867 783f
00000070: 1011 863f 5387 783f 79de 7e3f b537 8d3f

signal_classifier.stem.0.1.bias f4 [32]
0.02222251 -0.0005896429 -0.081571266 0.046955027 -0.007980111 -0.00283506 0.10591663 0.006846256
-0.023222003 -0.0069485726 -0.018882351 0.11025619 -0.040670212 0.10593624 0.00012635413 -0.010140512
-0.01031413 -0.006100906 -0.00014599878 -0.00019996682 0.0937234 -0.12813927 0.0019671856 -0.0058833943
-0.005057503 -0.032206103 -0.019321688 -0.029118557 -0.0014649541 -0.075824626 0.028254272 0.0050697
00000000: fb0b b63c 4492 1aba d60e a7bd ea53 403d
00000010: 03bf 02bc 6acc 39bb d1ea d83d 8f56 e03b
00000020: 123c bebc dab0 e3bb 29af 9abc ffcd e13d
00000030: cf95 26bd 19f5 d83d ee7d 0439 6424 26bc
00000040: 99fc 28bc 1cea c7bb 4017 19b9 2fae 51b9
00000050: 0ef2 bf3d f136 03be e6eb 003b 7dc9 c0bb
00000060: 69b9 a5bb 8cea 03bd 8448 9ebc 0a8a eebc
00000070: b403 c0ba f149 9bbd 8175 e73c ba1f a63b

signal_classifier.stem.0.1.running_mean f4 [32]
0.3057228 0.02678665 -0.33893567 0.01061529 0.208174 0.09628402 -0.28129008 -0.25968564
-5.546372e-05 -0.22518313 0.031124007 -0.06136719 0.18193212 0.16045564 -0.23433594 0.15085496
-0.19709846 -0.17517437 -0.34552863 -0.116299406 0.11762253 -0.005873281 0.21987833 0.04535367
-0.04275998 -0.25562596 -0.27339342 0.14724143 0.20242 0.1494166 -0.27005517 -0.047319982
00000000: b387 9c3e ad6f db3c fa88 adbe c1eb 2d3c
00000010: 912b 553e 8e30 c53d 4105 90be 84f5 84be
00000020: b7a1 68b8 6896 66be c6f7 fe3c 2a5c 7bbd
00000030: 6a4c 3a3e 7c4e 243e c3f5 6fbe b979 1a3e
00000040: 2ed4 49be e960 33be 21e9 b0be 622e eebd
00000050: 15e4 f03d a774 c0bb c927 613e c5c4 393d
00000060: 1725 2fbd 68e1 82be 39fa 8bbe 75c6 163e
00000070: 3047 4f3e aa00 193e ac44 8abe 99d2 41bd

signal_classifier.stem.0.1.running_var f4 [32]
0.29702193 0.2404576 0.35194308 0.24918671 0.22468497 0.18058835 0.34777313 0.3985942
0.37164718 0.25073105 0.18201526 0.4095019 0.3857891 0.35823873 0.44627956 0.3083488
0.17395808 0.21680659 0.16608563 0.10788946 0.13140391 0.12137131 0.39862463 0.434384
0.21426952 0.08964388 0.31045482 0.6384673 0.39990947 0.17173737 0.6691101 0.303836
00000000: 4213 983e 843a 763e e231 b43e cd2a 7f3e
00000010: d113 663e 27ec 383e 520f b23e 8a14 cc3e
00000020: 8a48 be3e d25f 803e 3562 3a3e 3caa d13e
00000030: 2686 c53e 116b b73e c17e e43e e5df 9d3e
00000040: 1122 323e 8c02 5e3e 5a12 2a3e 26f5 dc3d
00000050: bf8e 063e 8591 f83d 8718 cc3e 9467 de3e
00000060: 7869 5b3e 3697 b73d eff3 9e3e 9872 233f
00000070: efc0 cc3e ecdb 2f3e cd4a 2b3f 6490 9b3e

signal_classifier.stem.1.0.weight f4 [32, 32, 3]
-0.07236116 0.16490766 0.14247979 0.0075867125 -0.043230537 -0.050219815 -0.0832246 0.2210651
0.12525797 -0.3059657 0.00895286 0.024190884 0.09526954 -0.10572357 0.130342 0.0436965
-0.005415063 0.084407546 0.15346895 -0.08754688 -0.15524833 -0.114021465 0.053450134 0.2051264
0.08678518 0.10413532 -0.035316836 0.19633365 -0.1770877 -0.056364805 -0.066261716 -0.08524406
0.12026675 0.27650476 -0.051109955 -0.041265607 -0.29884347 0.1407301 -0.18071549 0.075942434
0.12121878 0.06561912 -0.2295517 -0.07651108 -0.07565754 0.26789236 0.37728116 0.13621874
-0.04837971 -0.14634453 0.050538227 0.24402349 0.029091198 -0.17056924 -0.36262482 -0.1658969
0.11856737 0.18362463 0.13629854 -0.038597982 -0.090911254 -0.24545097 -0.3810791 -0.16106378
0.20121466 0.067958735 0.1060639 0.07575212 0.044440024 0.16146372 0.25856122 0.164681
-0.30948496 0.277294 0.02018587 0.06549682 0.12897657 -0.19634049 -0.041918453 0.027596995
-0.011058304 -0.032010254 0.14710337 -0.06861856 -0.059633337 0.003735721 -0.07613501 0.22553907
0.20455475 -0.1836926 -0.085216165 0.16395153 -0.053017575 0.027490526 0.17223562 -0.07742672
-0.09527701 0.16481398 0.029221352 -0.21130235 -0.05443179 0.14243098 -0.039852545 -0.1888503
0.066088036 -0.26135382 0.073995605 0.09987659 -0.11245402 -0.11675822 -0.011074117 0.08807085
-0.103337124 -0.08787422 -0.1328133 0.045585185 0.0070771407 0.41522416 -0.07221591 -0.23906693
-0.051064547 -0.24318932 0.29401222 0.07072679 -0.05002581 0.10226706 0.0804878 -0.27396724
0.066782124 -0.2792492 0.045496557 -0.082360536 0.01502388 0.06871411 0.03272637 0.09154577
-0.09430652 0.22779028 0.102201454 -0.13562994 0.06492059 -0.00012304085 -0.012366101 -0.19038385
-0.28413272 0.018554538 -0.025086623 -0.06450771 -0.10099022 0.4444987 -0.1758678 -0.38846612
0.14801095 0.15969305 -0.14575458 -0.15495415 -0.051364806 0.08746583 -0.07533583 0.088494815
-0.039376713 -0.09325741 0.032990083 0.053596698 -0.07899819 0.17603518 -0.070515364 0.060958423
-0.041419644 0.013838599 0.23679835 0.16610987 -0.24459834 -0.20143007 0.16569173 -0.013733155
-0.058521856 0.06502238 -0.16708007 0.19091623 -0.12681668 0.062590204 0.18177986 -0.22686256
0.01544857 -0.008629814 -0.21084425 -0.10502654 -0.23311517 0.17552616 0.13812003 0.038042393
-0.2170645 -0.07204155 0.056411162 0.05822773 -0.048588935 -0.04285664 0.023309134 -0.050015133
0.10287035 -0.09174769 -0.19273838 -0.2168666 0.06890696 0.009440554 -0.04195451 -0.15676743
0.15758906 0.1902776 -0.3294095 0.08043377 -0.1308228 0.019943552 0.023684753 -0.18327062
0.15193288 0.12564698 -0.261552 0.186236 0.28579497 0.25236428 -0.23391996 -0.42560998
-0.084081456 0.073744506 -0.13969696 0.1259696 0.09938487 0.0206502 -0.17814744 -0.056486826
-0.08271474 0.2644673 -0.13590568 -0.13203317 0.15686855 -0.16770789 -0.15117964 0.11449493
-0.20450068 0.0045447266 -0.025519166 -0.022192966 0.037445992 -0.31250194 0.05580638 -0.0868346
0.006146057 0.20315035 -0.0601673 0.19266374 -0.08980588 -0.08488035 -0.053481355 -0.027181508
00000000: 1632 94bd 8edd 283e 39e6 113e f599 f83b
00000010: 8112 31bd 4bb3 4dbd a971 aabd e45e 623e
00000020: a043 003e 89a7 9cbe 04af 123c f62b c63c
00000030: ad1c c33d 9985 d8bd 6078 053e 1afb 323d
00000040: d770 b1bb dddd ac3d f726 1d3e c74b b3bd
00000050: 6bf9 1ebe 1684 e9bd 87ee 5a3d a80c 523e
00000060: 6ebc b13d e644 d53d 63a8 10bd b00b 493e
00000070: 7a56 35be c8de 66bd 39b4 87bd 7094 aebd
00000080: 6a4e f63d 0892 8d3e ac58 51bd 2006 29bd
00000090: 0302 99be 8d1b 103e 7b0d 39be b587 9b3d
000000a0: 8d41 f83d 5163 863d 9a0f 6bbe d7b1 9cbd
000000b0: 57f2 9abd 3029 893e ff2a c13e ed7c 0b3e
000000c0: ce29 46bd 57db 15be 2c01 4f3d 4be1 793e
000000d0: aa50 ee3c b4a9 2ebe f6a9 b9be e1e0 29be
000000e0: 73d3 f23d 1808 3c3e d891 0b3e eb18 1ebd
000000f0: ae2f babd 8057 7bbe cd1c c3be e7ed 24be
00000100: 370b 4e3e f32d 8b3d 0838 d93d ed23 9b3d
00000110: be06 363d bf56 253e 2362 843e 23a2 283e
00000120: d074 9ebe 7bf9 8d3e d65c a53c 3223 863d
00000130: 6f12 043e 7b0d 49be afb2 2bbd 1813 e23c
00000140: e42d 35bc 2f1d 03bd 44a2 163e e387 8cbd
00000150: 1642 74bd 00d3 743b acec 9bbd b7f3 663e
00000160: cd76 513e ea19 3cbe d085 aebd e9e2 273e
00000170: f528 59bd d033 e13c 895e 303e e691 9ebd
00000180: 9820 c3bd ffc4 283e 9e61 ef3c a55f 58be
00000190: def3 5ebd 6dd9 113e 6c3c 23bd f961 41be
000001a0: 2a59 873d 2bd0 85be 028b 973d 198c cc3d
000001b0: 4b4e e6bd ef1e efbd 3770 35bc 7d5e b43d
000001c0: 6aa2 d3bd 66f7 b3bd 3600 08be 88b7 3a3d
000001d0: 5ce7 e73b 4398 d43e efe5 93bd f6cd 74be
000001e0: 0f29 51bd 9f06 79be c588 963e 35d9 903d
000001f0: dde7 4cbd 6471 d13d cad6 a43d 6f45 8cbe
00000200: 11c5 883d c0f9 8ebe 995a 3a3d a4ac a8bd
00000210: b826 763c fcb9 8c3d 160c 063d 597c bb3d
00000220: c723 c1bd db41 693e ff4e d13d 93e2 0abe
00000230: 16f5 843d 8704 01b9 309b 4abc fcf3 42be
00000240: d879 91be b0ff 973c 7682 cdbc 9e1c 84bd
00000250: f6d3 cebd 5595 e33e b016 34be 08e5 c6be
00000260: 2f90 173e 9386 233e b040 15be 4dac 1ebe
00000270: e763 52bd 4921 b33d ac49 9abd c53c b53d
00000280: 7a49 21bd befd bebd 9c20 073d 3688 5b3d
00000290: cec9 a1bd 9142 343e 5c6a 90bd 8aaf 793d
000002a0: a5a7 29bd 4bbb 623c 447b 723e b518 2a3e
000002b0: fd77 7abe af43 4ebe 18ab 293e 0701 61bc
000002c0: 9db4 6fbd 742a 853d 0a17 2bbe 8b7f 433e
000002d0: 3bdc 01be 4b2f 803d 8024 3a3e a94e 68be
000002e0: 001c 7d3c 1064 0dbc 8ee7 57be 2818 d7bd
000002f0: beb5 6ebe 21bd 333e 566f 0d3e 57d2 1b3d
00000300: 2846 5ebe 858a 93bd 640f 673d 3380 6e3d
00000310: 3105 47bd 728a 2fbd ccf2 be3c abdc 4cbd
00000320: b1ad d23d 37e6 bbbd 365d 45be 4712 5ebe
00000330: 181f 8d3d 8eac 1a3c 7ed8 2bbd a487 20be
00000340: 075f 213e 22d8 423e 5da8 a8be 76ba a43d
00000350: 69f6 05be a960 a33c 8706 c23c 4bab 3bbe
00000360: 4b94 1b3e 9aa9 003e 25ea 85be a6b4 3e3e
00000370: b853 923e e435 813e b788 6fbe 8de9 d9be
00000380: e632 acbd 5c07 973d b80c 0fbe 2dfe 003e
00000390: 4b8a cb3d 9c2a a93c 486c 36be bb5e 67bd
000003a0: 5866 a9bd 4268 873e dc2a 0bbe b433 07be
000003b0: 26a2 203e 9ebb 2bbe d6ce 1abe 517c ea3d
000003c0: a068 51be eeeb 943b 920d d1bc 06ce b5bc
000003d0: f860 193d 4100 a0be 3b95 643d 57d6 b1bd
000003e0: dd64 c93b a506 503e fd71 76bd a549 453e
000003f0: 25ec b7bd c0d5 adbd 440f 5bbd c1ab debc

signal_classifier.stem.1.0.bias f4 [32]
-0.003003199 0.067127824 -0.06080982 -0.16121528 -0.007249145 0.13709258 0.062304247 -0.08516686
-0.07726649 -0.025101516 -0.03180771 0.014627186 0.065801226 0.013291427 0.11800382 0.054639738
0.1156773 -0.036830865 0.024886647 0.011382462 0.13147737 -0.14739579 -0.09861992 0.04098167
0.13312761 0.010789728 -0.049279913 -0.022482822 -0.056295425 -0.06474314 0.03752508 -0.012742487
00000000: 51d1 44bb 507a 893d b813 79bd 9e15 25be
00000010: 3c8a edbb ff61 0c3e bd32 7f3d f66b aebd
00000020: e53d 9ebd b2a1 cdbc cd48 02bd dda6 6f3c
00000030: cbc2 863d 49c4 593c fdab f13d ebcd 5f3d
00000040: 38e8 ec3d f6db 16bd 15df cb3c 827d 3a3c
00000050: 01a2 063e ecee 16be 3ef9 c9bd 65dc 273d
00000060: 9b52 083e 66c7 303c bcd9 49bd e52d b8bc
00000070: 0896 66bd 0d98 84bd e6b3 193d ddc5 50bc

signal_classifier.stem.1.1.weight f4 [32]
1.0355567 0.93932086 1.0059412 1.1270926 1.0302111 0.9765107 0.9684662 0.88551706
0.9505521 1.0006555 0.99136233 1.108656 0.9046057 1.0332291 1.0159786 0.94230527
1.0147685 0.96753424 0.9370314 0.97297835 0.9816858 1.1455324 1.0793585 1.0700976
1.0732975 0.93733966 1.0603986 0.99474484 0.90037435 1.0397996 0.9986105 0.9206084
00000000: 1f8d 843f 5577 703f aec2 803f 9244 903f
00000010: f5dd 833f 9bfc 793f 67ed 773f 3fb1 623f
00000020: 6257 733f 7b15 803f ecc9 7d3f 71e8 8d3f
00000030: 3d94 673f da40 843f 960b 823f eb3a 713f
00000040: efe3 813f 53b0 773f 4ae1 6f3f 1c15 793f
00000050: c34f 7b3f cea0 923f 6b28 8a3f f5f8 883f
00000060: d061 893f 7ef5 6f3f 24bb 873f 99a7 7e3f
00000070: ef7e 663f 2718 853f f0a4 7f3f feac 6b3f

signal_classifier.stem.1.1.bias f4 [32]
0.026565924 0.03921713 0.03540825 0.06656887 -0.019475065 -0.033065915 0.019414958 -0.05685876
-0.022869581 -0.04405971 0.1462063 0.026938863 0.02921039 0.051954634 -0.038277194 -0.008454581
0.024501229 0.08629741 0.011060801 -0.0024021694 0.032425035 0.063012704 0.05233157 0.045648202
0.040394373 -0.02371347 0.021656618 0.06526554 0.02777796 0.023776865 0.04726604 -0.0025338146
00000000: c8a0 d93c 24a2 203d 3e08 113d 4255 883d
00000010: 2c8a 9fbc 2070 07bd 1e0c 9f3c bbe4 68bd
00000020: fd58 bbbc f477 34bd 1bb7 153e e4ae dc3c
00000030: a14a ef3c 62ce 543d 8cc8 1cbd 1585 0abc
00000040: cdb6 c83c b2bc b03d 5d38 353c b76d 1dbb
00000050: 1dd0 043d ce0c 813d a159 563d 9cf9 3a3d
00000060: 9274 253d c042 c2bc 3869 b13c f0a9 853d
00000070: 9b8e e33c b3c7 c23c 099a 413d 5b0e 26bb

signal_classifier.stem.1.1.running_mean f4 [32]
0.08027907 -0.082303435 -0.3245585 -0.5369064 -0.42779502 0.19185422 0.24171138 -0.34674612
-0.23670736 0.028085528 0.24032146 -0.14224745 0.20908146 0.12822393 0.20811702 0.15044393
-0.08321402 0.11601394 0.10737871 0.2579375 -0.10832628 -0.2184103 -0.2531523 0.27157614
-0.16988319 -0.094292246 0.057155304 -0.06085048 -0.26609203 -0.110248916 -0.115591094 -0.16782996
00000000: 5a69 a43d b48e a8bd 882c a6be b372 09bf
00000010: f307 dbbe 6f75 443e 3083 773e b588 b1be
00000020: 6a63 72be 9f13 e63c d416 763e 51a9 11be
00000030: 7319 563e 224d 033e a11c 553e f90d 1a3e
00000040: 1d6c aabd b798 ed3d 5ee9 db3d 6210 843e
00000050: 2bda ddbd f3a6 5fbe 2e9d 81be 070c 8b3e
00000060: dcf5 2dbe 4b1c c1bd ae1b 6a3d 5a3e 79bd
00000070: 373d 88be 2fca e1bd 06bb ecbd 9edb 2bbe

signal_classifier.stem.1.1.running_var f4 [32]
1.2111739 1.2056661 1.6172123 3.963726 3.4923697 1.1597953 1.1749221 2.0901523
1.7266704 1.5729859 1.9417248 0.70903957 1.2850511 1.6883667 1.4132913 1.3755409
1.1000608 1.3327644 0.76486427 2.4214544 1.9266001 0.9151256 1.2416325 1.5108728
2.7791822 0.8653794 1.2687285 1.0404935 1.457311 1.4766452 1.1404533 1.5341411
00000000: bf07 9b3f 4453 9a3f d000 cf3f b0ad 7d40
00000010: fc82 5f40 2c74 943f d963 963f 0ec5 0540
00000020: 8903 dd3f 9a57 c93f 708a f83f 9e83 353f
00000030: 8e7c a43f 661c d83f bbe6 b43f b911 b03f
00000040: cbce 8c3f 0698 aa3f 25ce 433f 1cf9 1a40
00000050: d59a f63f ac45 6a3f d0ed 9e3f 4864 c13f
00000060: 1fde 3140 8189 5d3f b265 a23f e42e 853f
00000070: 2b89 ba3f b602 bd3f 60fa 913f bc5e c43f

signal_classifier.stem.2.0.weight f4 [32, 32, 3]
-0.19290009 -0.10892778 0.21126969 0.07719052 -0.013574417 0.04744489 0.090560414 -0.23766682
0.0005059199 -0.012980279 -0.10211061 -0.013983162 -0.088805586 0.24379686 0.13954034 0.12669456
-0.10867794 -0.16871656 -0.072958335 0.054916535 0.058574103 0.06384004 -0.0074409298 -0.11521332
-0.2387998 -0.15784489 0.18413888 0.080559134 0.27529457 0.31706262 0.10825992 -0.25855172
0.04552403 -0.01699341 0.18583737 0.08045582 0.30989352 0.16913809 0.07434305 0.15312625
-0.084686995 -0.04065789 -0.17349556 0.069595635 0.09250126 0.10262822 -0.15826452 0.07719822
0.07416866 0.21537887 0.23641059 0.013523279 0.17946169 -0.11122099 -0.2855124 -0.20761974
0.0290911 0.01928568 -0.1328624 -0.058415186 0.10394678 0.080997236 -0.30002245 0.11967717
-0.20153242 0.015248323 -0.1655442 -0.1713452 -0.1213254 -0.12467682 0.064419195 0.32466152
-0.0046466426 -0.06303196 -0.08170025 -0.011281108 -0.015865581 0.018410578 -0.17861646 0.17708802
0.07513588 -0.088914916 -0.02679594 0.19511224 -0.1937958 0.21988209 -0.009531802 -0.2013666
-0.026631376 0.11097665 0.09123009 0.028927518 -0.21464054 -0.16302393 -0.1684168 0.12508452
0.028603578 0.13947767 0.31268916 -0.046063513 -0.0117547 -0.0787345 0.019268043 -0.07672897
-0.18024571 -0.07930981 0.31527752 0.21450485 -0.109006256 -0.01825415 0.10831868 -0.084976055
-0.0561273 -0.011682818 0.093336456 -0.012384197 -0.09826461 0.10056822 0.0039574625 -0.12001469
0.083142795 0.0873086 0.26488447 0.14950745 0.10679235 0.029373093 0.2028623 -0.02969001
-0.05044597 0.2434533 -0.094485894 0.02574186 0.02374365 -0.118293576 -0.059483472 0.21919003
-0.19301091 -0.085315846 0.093430735 -0.053280573 -0.09875249 0.28224993 -0.34909162 -0.023453219
-0.22651334 0.15129527 0.061929848 0.14085656 0.015163516 0.014754634 0.19943428 0.08886911
0.057240024 0.13076371 0.028349388 -0.069743946 -0.03171591 0.1841142 0.03943447 0.1518844
0.013790067 -0.08393121 -0.14783144 0.051529493 -0.02284656 0.2817614 -0.16102505 -0.041845623
0.34354317 0.38313562 -0.24365959 0.08580531 -0.07358368 0.11607502 -0.009584426 -0.28237042
-0.111891866 0.10233601 -0.25045204 -0.04556283 0.1287131 0.20910914 0.17054169 0.27060294
0.04862185 -0.11775813 0.26246864 0.079906665 -0.041448653 0.005429806 -0.04043899 -0.057772115
0.19577818 0.20671497 0.0025927755 -0.17415927 -0.07640611 -0.009003667 -0.02216496 -0.117161065
-0.14061968 -0.36337364 -0.12100268 0.017359005 0.027327726 0.1560191 -0.06937069 -0.08188279
-0.1147753 -0.04794458 -0.2137337 -0.0005097775 -0.12648982 -0.11153737 0.058078 0.11716045
0.046194877 0.02234646 0.287793 0.15825738 -0.11445661 0.04343961 0.068206675 -0.05422535
-0.0011865657 -0.31637427 0.1276918 -0.11204224 -0.32178625 0.065058 0.14134172 0.473197
-0.20409971 -0.04560106 -0.18147117 -0.003033083 -0.22605857 0.020855734 0.09817854 0.038823765
0.12472111 0.038000554 0.20754056 -0.20942049 -0.16370383 -0.107465565 0.032056235 -0.42961165
0.28212026 -0.006067841 -0.27066293 -0.03493503 0.116312586 0.044356346 -0.0026392685 0.124054864
00000000: 9a87 45be 8715 dfbd 1557 583e 1016 9e3d
00000010: 3b67 5ebc 9355 423d bd77 b93d ee5e 73be
00000020: b69f 043a 3cab 54bc 5e1f d1bd a219 65bc
00000030: b4df b5bd e2a5 793e aae3 0e3e 38bc 013e
00000040: 8a92 debd 09c4 2cbe 2e6b 95bd 29f0 603d
00000050: 66eb 6f3d 91be 823d 0bd3 f3bb f6f4 ebbd
00000060: ef87 74be 17a2 21be e78e 3c3e 30fc a43d
00000070: 69f3 8c3e 0856 a23e 60b7 dd3d e460 84be
00000080: 6877 3a3d c435 8bbc 274c 3e3e 05c6 a43d
00000090: 5daa 9e3e 8932 2d3e 2b41 983d 21cd 1c3e
000000a0: 6070 adbd e388 26bd d2a8 31be 2888 8e3d
000000b0: 4d71 bd3d bf2e d23d 1810 22be 1a1a 9e3d
000000c0: bde5 973d 478c 5c3e 9e15 723e be90 5d3c
000000d0: cec4 373e d5c7 e3bd ae2e 92be 459a 54be
000000e0: 7550 ee3c 01fd 9d3c 150d 08be c344 6fbd
000000f0: 0de2 d43d e1e1 a53d 8b9c 99be 4e19 f53d
00000100: 845e 4ebe 1ad4 793c 6b84 29be 1e75 2fbe
00000110: 7479 f8bd 9056 ffbd 36ee 833d 093a a63e
00000120: dd42 98bb e616 81bd 7652 a7bd 65d4 38bc
00000130: 89f8 81bc c8d1 963c 3ce7 36be 9056 353e
00000140: d7e0 993d 0619 b6bd 2983 dbbc 81cb 473e
00000150: 6872 46be c528 613e 462b 1cbc 0c33 4ebe
00000160: 0b2a dabc ba47 e33d d7d6 ba3d 67f9 ec3c
00000170: bbca 5bbe bfef 26be 7475 2cbe 2816 003e
00000180: 0d52 ea3c 3cd3 0e3e cb18 a03e 18ad 3cbd
00000190: c996 40bc 8e3f a1bd 04d8 9d3c 1424 9dbd
000001a0: 5592 38be 2f6d a2bd 0e6c a13e 29a7 5b3e
000001b0: ac3e dfbd ba89 95bc 2fd6 dd3d ed07 aebd
000001c0: bde5 65bd 4a69 3fbc 2f27 bf3d 16e7 4abc
000001d0: f53e c9bd b6f6 cd3d 9aad 813b 43ca f5bd
000001e0: c546 aa3d dace b23d f09e 873e 7b18 193e
000001f0: f3b5 da3d d79f f03c 23bb 4f3e 7738 f3bc
00000200: 6fa0 4ebd d24b 793e d281 c1bd 98e0 d23c
00000210: 0b82 c23c e743 f2bd f1a4 73bd 5a73 603e
00000220: a7a4 45be 13ba aebd 9d58 bf3d bb3c 5abd
00000230: bf3e cabd 1083 903e 23bc b2be f720 c0bc
00000240: 1df3 67be 26ed 1a3e 27aa 7d3d b43c 103e
00000250: 6570 783c 6cbd 713c 8038 4c3e 0201 b63d
00000260: 8474 6a3d ece6 053e fa3c e83c ead5 8ebd
00000270: 8be8 01bd 6f88 3c3e 0a86 213d 9687 1b3e
00000280: bcef 613c 20e4 abbd 2061 17be 9710 533d
00000290: b628 bbbc 0843 903e c0e3 24be 5166 2bbd
000002a0: e4e4 af3e 5a2a c43e e681 79be b2ba af3d
000002b0: 0ab3 96bd bdb8 ed3d ff07 1dbc db92 90be
000002c0: 9027 e5bd 8b95 d13d 403b 80be 17a0 3abd
000002d0: 5ecd 033e b520 563e 7ba2 2e3e 788c 8a3e
000002e0: b427 473d 2d2b f1bd 4a62 863e 1ba6 a33d
000002f0: 10c6 29bd 84ec b13b 5ba3 25bd 74a2 6cbd
00000300: 137a 483e 17ad 533e 8eeb 293b cf56 32be
00000310: ce7a 9cbd 1e84 13bc 4a93 b5bc 24f2 efbd
00000320: 9bfe 0fbe 1c0c babe 41d0 f7bd 7934 8e3c
00000330: 65de df3c 79c3 1f3e 3812 8ebd 2ab2 a7bd
00000340: 500f ebbd 8961 44bd 02dd 5abe 97a2 05ba
00000350: 8c86 01be b46d e4bd 32e3 6d3d d1f1 ef3d
00000360: d736 3d3d ec0f b73c 9b59 933e 390e 223e
00000370: 3a68 eabd bced 313d f1af 8b3d 671b 5ebd
00000380: 8a86 9bba cffb a1be a4c1 023e 6776 e5bd
00000390: 2bc1 a4be 213d 853d e2bb 103e e146 f23e
000003a0: 84ff 50be 2dc8 3abd 94d3 39be b0c6 46bb
000003b0: e67b 67be a5d9 aa3c d511 c93d ab05 1f3d
000003c0: c86d ff3d 78a6 1b3d 8385 543e 5372 56be
000003d0: faa1 27be e816 dcbd 664d 033d 0ff6 dbbe
000003e0: 1172 903e bdd4 c6bb 5594 8abe 0918 0fbd
000003f0: 4b35 ee3d 00af 353d 94f7 2cbb 7a10 fe3d

signal_classifier.stem.2.0.bias f4 [32]
0.050579943 -0.032374006 -0.12637469 -0.0031929219 -0.09627718 -0.02414641 -0.055887856 -0.0007710865
-0.021696754 0.0877812 0.048666794 -0.0864132 -0.076256186 -0.017734276 0.0942502 0.075272776
-0.08291059 0.08131004 0.10012437 -0.05002772 0.055977773 -0.017224623 0.042750157 0.013518338
-0.04361147 -0.13377912 0.015121796 -0.13538422 0.012064689 0.055950586 -0.08773044 -0.12979396
00000000: ea2c 4f3d 9b9a 04bd 5e68 01be 5740 51bb
00000010: f82c c5bd b1ce c5bc aaea 64bd bd22 4aba
00000020: 64bd b1bc a1c6 b33d d556 473d 67f9 b0bd
00000030: 342c 9cbd 7947 91bc 4006 c13d 9d28 9a3d
00000040: 07cd a9bd e185 a63d 010e cd3d dee9 4cbd
00000050: f348 653d a71a 8dbc ca1a 2f3d 057c 5d3c
00000060: f1a1 32bd 65fd 08be 69c1 773c 29a2 0abe
00000070: f9aa 453c 712c 653d 04ac b3bd b5e8 04be

signal_classifier.stem.2.1.weight f4 [32]
0.9721818 1.0496612 0.9447966 0.958209 0.97208136 0.9961026 1.1043746 1.0402488
0.9719309 0.88783365 1.0764401 1.090526 1.0226709 0.9765181 1.0299519 1.0165871
0.9862867 0.96443886 1.0303407 1.0311688 0.99114877 1.0317948 0.9740877 0.9555925
0.9687372 1.005914 1.0250411 0.9443918 1.0876273 0.9559027 1.0971913 1.1023633
00000000: e8e0 783f 4c5b 863f 31de 713f 2f4d 753f
00000010: 53da 783f 9400 7f3f 265c 8d3f df26 853f
00000020: 77d0 783f 1149 633f cac8 893f 5b96 8b3f
00000030: e1e6 823f 17fd 793f 77d5 833f 871f 823f
00000040: 497d 7c3f 77e5 763f 34e2 833f 57fd 833f
00000050: edbb 7d3f da11 843f d05d 793f b6a1 743f
00000060: 29ff 773f cac1 803f 8c34 833f a9c3 713f
00000070: 5f37 8b3f 0ab6 743f c470 8c3f 3e1a 8d3f

signal_classifier.stem.2.1.bias f4 [32]
-0.011889094 -0.02022242 -0.013647995 0.009217713 0.023578696 -0.039036848 0.049939435 0.02405224
0.032037955 0.003267078 0.15060179 0.0643201 0.029970864 0.07244136 0.07862766 -0.014458364
0.09126811 -0.03388301 0.13109414 0.1301474 -0.06291888 -0.0069946805 0.0073370636 0.0071629593
-0.039489802 0.012550141 0.03415301 0.02878359 0.06957156 -0.105321445 0.058331516 0.012531471
00000000: 79ca 42bc 7da9 a5bc d79b 5fbc e405 173c
00000010: 1c28 c13c 1ae5 1fbd 4b8d 4c3d 3409 c53c
00000020: 3b3a 033d 791c 563b 5b37 1a3e 42ba 833d
00000030: 7585 f53c 235c 943d 8a07 a13d c6e2 6cbc
00000040: c6ea ba3d e9c8 0abd 8b3d 063e 5c45 053e
00000050: 9ddb 80bd a233 e5bb c06b f03b 42b7 ea3b
00000060: 0fc0 21bd 1b9f 4d3c 07e4 0b3d 90cb eb3c
00000070: 897b 8e3d c5b2 d7bd 07ed 6e3d cd50 4d3c

signal_classifier.stem.2.1.running_mean f4 [32]
0.041307706 0.34358755 -0.22542387 -0.46054587 -0.29920325 -0.56452173 -0.47272044 -0.022170337
-0.09465625 0.20953414 0.124776825 -0.5471791 -0.7414868 -0.072390206 0.30723184 0.14139876
0.12991859 0.18430324 0.24560124 0.08083504 0.5216402 0.12526645 0.2197188 -0.25130558
-0.29806995 -0.076874375 0.2678771 -0.2686245 0.07165083 0.33840817 -0.06644371 -0.085109055
00000000: 4532 293d b5ea af3e 84d5 66be abcc ebbe
00000010: 2b31 99be 7f84 10bf 6a08 f2be 919e b5bc
00000020: 23db c1bd 1e90 563e fe8a ff3d ee13 0cbf
00000030: 14d2 3dbf 5141 94bd 7e4d 9d3e d6ca 103e
00000040: 6109 053e fdb9 3c3e e47e 7b3e d78c a53d
00000050: 368a 053f d945 003e f7fd 603e 20ab 80be
00000060: a09c 98be 5070 9dbd 3027 893e 2789 89be
00000070: acbd 923d d643 ad3e a413 88bd a84d aebd

signal_classifier.stem.2.1.running_var f4 [32]
1.0221989 1.1073295 0.6518749 0.87062615 0.8044761 3.3819637 1.8012342 2.2719386
0.9837681 0.9818817 1.0927153 4.129101 2.7973447 1.1160712 0.9018343 1.2079554
2.2232716 0.75046587 0.83356315 1.0843955 1.5807965 1.2697701 2.744777 1.6930839
1.3485408 1.3744787 4.0548024 0.67052484 1.6209214 2.0312722 3.6732337 1.802366
00000000: 6ad7 823f f9bc 8d3f 46e1 263f 5be1 5e3f
00000010: 25f2 4d3f 1872 5840 d88e e63f 7167 1140
00000020: 3ad8 7b3f 995c 7b3f 18de 8b3f 9821 8440
00000030: b207 3340 6cdb 8e3f 9dde 663f 489e 9a3f
00000040: 154a 0e40 881e 403f 6564 553f 79cd 8a3f
00000050: 8a57 ca3f d487 a23f 6daa 2f40 f9b6 d83f
00000060: fc9c ac3f ebee af3f f1c0 8140 84a7 2b3f
00000070: 5a7a cf3f 5d00 0240 4316 6b40 eeb3 e63f

signal_classifier.body.0.layers1.0.weight f4 [16, 32, 1]
0.12777159 0.6320702 0.1346055 0.32280606 0.41019857 0.12229694 0.23506849 -0.15334606
0.13692406 0.17952141 -0.2701957 0.23282723 -0.315522 0.37314606 -0.26017216 -0.19517706
0.12251436 0.024186665 0.24940977 -0.2025372 0.124120936 -0.9401931 0.13737853 -0.17071347
0.016002426 -0.06255293 -0.105901964 0.13222258 0.06397894 -0.20127952 0.4458564 -0.16227415
0.060560104 0.41476855 -0.28047657 0.083526805 0.13651478 0.08610801 -0.011741949 0.13694014
-0.10540438 -0.08572581 0.026720483 -0.43818456 -0.0731742 -0.10801774 -0.17816257 0.029932834
0.22239177 0.067253835 -0.2211969 -0.0113630295 -0.24344353 0.2862736 0.2865489 -0.01829593
0.27050662 -0.06466287 0.24305873 0.037020214 0.1833743 -0.12127904 0.4379392 -0.3496944
-0.064841755 -0.24966788 0.15888567 0.017008364 -0.11225115 0.09545121 0.008382847 0.12412163
0.042615257 0.168974 -0.09534081 -0.16580749 -0.3258481 0.22587556 -0.22727665 -0.29865935
0.23406002 0.40752792 0.03784351 0.5759355 0.22278006 0.19636165 -0.042699188 0.3880185
-0.11807022 -0.1646493 -0.035838485 -0.04191258 -0.22377299 0.4073886 0.096354 -0.29025128
0.12400043 0.36833352 0.109784946 -0.047492083 0.36038703 0.12429034 -0.21609712 0.5413802
-0.042974748 -0.24835585 0.542479 0.079623945 -0.022955993 0.1373056 0.16000749 0.24344736
0.23788336 -0.038326368 0.057044018 0.4248375 -0.025558582 0.03686306 -0.23587315 -0.00033291208
0.14776903 -0.18540064 -0.25545567 -0.6194123 0.054712757 0.28508693 0.3227044 0.5305606
0.26309556 0.35400683 0.10780207 -0.012433742 0.49197394 -0.41871375 -0.3807496 -0.09349665
0.07311208 0.1537659 -0.5250647 -0.26963323 -0.1802516 0.103050426 0.08597909 -0.35456917
0.00412212 0.15194638 0.009417957 -0.1198032 -0.44019285 0.4928752 -0.081619084 0.24424067
-0.23101176 -0.20082745 -0.28444573 0.18013863 -0.21647763 0.4801021 -0.17459892 -0.085778676
0.027999524 -0.04488094 0.19892097 0.2061169 0.028903352 0.46696192 0.18940426 -0.15541974
-0.19737534 0.119480774 0.4577268 -0.3037691 0.5590107 0.075101316 0.45324904 0.11154551
0.01984039 -0.32623452 0.0047676116 -0.1868869 0.014276078 0.15373334 -0.1056023 -0.14178771
-0.20942912 -0.019778142 0.11838331 0.2685592 -0.4942994 0.0013189772 -0.29195473 -0.28820553
-0.21903256 -0.19229423 0.13953725 0.2632138 0.03647834 -0.15139757 -0.35730273 0.22997576
-0.018428598 -0.11116925 0.13588054 -0.15444651 -0.07795822 0.4062731 0.18701129 -0.44304335
-0.08174818 -0.1290971 0.5921886 -0.054944552 -0.09973329 -0.10902387 -0.18143915 0.19265193
-0.2378002 -0.24201813 -0.07230647 0.006348074 -0.2520491 0.17122847 -0.13585056 0.28899288
0.14009906 -0.43268138 -0.29629293 -0.051045433 -0.27288535 0.15279798 0.34702697 0.26986578
0.06579122 -0.12981 0.026417574 0.21172184 0.021245593 -0.14439245 -0.27239487 -0.15133972
-0.4235021 0.12938492 0.01626174 -0.09911385 0.17596294 -0.21352187 -0.021452002 -0.062124766
0.14533357 -0.2706372 0.11261693 -0.31954002 0.1148711 -0.46298772 0.26727667 -0.17864534
00000000: 8ed6 023e 5acf 213f 06d6 093e d646 a53e
00000010: 8c05 d23e d176 fa3d cbb5 703e c006 1dbe
00000020: d235 0c3e 76d4 373e 1757 8abe 436a 6e3e
00000030: 198c a1be 000d bf3e 4935 85be 7fdc 47be
00000040: cfe8 fa3d 1d23 c63c 4665 7f3e e965 4fbe
00000050: 1e33 fe3d 7fb0 70bf f5ac 0c3e 83cf 2ebe
00000060: 8517 833c c01b 80bd 21e3 d8bd 5b65 073e
00000070: 6407 833d 381c 4ebe 4a47 e43e 322b 26be
00000080: df0d 783d 8b5c d43e a09a 8fbe 1a10 ab3d
00000090: 88ca 0b3e 6559 b03d 4e61 40bc 093a 0c3e
000000a0: 40de d7bd 0391 afbd eae4 da3c ba59 e0be
000000b0: 5bdc 95bd 6838 ddbd 4070 36be b435 f53c
000000c0: abba 633e 61bc 893d 7181 62be 002c 3abc
000000d0: 4349 79be 7492 923e 8ab6 923e 59e1 95bc
000000e0: d87f 8a3e f76d 84bd 63e4 783e 82a2 173d
000000f0: 79c6 3b3e 2561 f8bd 9139 e03e 250b b3be
00000100: c1cb 84bd f0a8 7fbe edb2 223e 2055 8b3c
00000110: eee3 e5bd ed7b c33d 3558 093c 7b33 fe3d
00000120: 568d 2e3d 8507 2d3e 0b42 c3bd 70c9 29be
00000130: 90d5 a6be ec4b 673e 36bb 68be e1e9 98be
00000140: 6ead 6f3e 80a7 d03e cc01 1b3d 8270 133f
00000150: 7520 643e 0713 493e 58e5 2ebd 5caa c63e
00000160: cdce f1bd d399 28be 60cb 12bd 87ac 2bbd
00000170: bf24 65be 3d95 d03e 3f55 c53d d19b 94be
00000180: f0f3 fd3d 3696 bc3e eed6 e03d 0f87 42bd
00000190: a684 b83e ef8b fe3d 9048 5dbe e597 0a3f
000001a0: 4a06 30bd ff50 7ebe e7df 0a3f e111 a33d
000001b0: 350e bcbc d799 0c3e 01d9 233e 444a 793e
000001c0: b297 733e 1cfc 1cbd fda6 693d 4d84 d93e
000001d0: 3b60 d1bc b8fd 163d bb88 71be b48a aeb9
000001e0: c450 173e aad9 3dbe 16cb 82be ce91 1ebf
000001f0: 7c1a 603d eaf6 913e 8339 a53e d2d2 073f
00000200: 76b4 863e 6240 b53e 55c7 dc3d e5b6 4bbc
00000210: 02e4 fb3e a661 d6be 9df1 c2be 2c7b bfbd
00000220: c9bb 953d cf74 1d3e a46a 06bf 5e0d 8abe
00000230: e093 38be 1a0c d33d ce15 b03d 178a b5be
00000240: d912 873b d597 1b3e c64d 1a3c 615b f5bd
00000250: f560 e1be 235a fc3e e827 a7bd 3a1a 7a3e
00000260: 598e 6cbe b6a5 4dbe dfa2 91be 4376 383e
00000270: 50ac 5dbe f1cf f53e 0fca 32be bbac afbd
00000280: 425f e53c 14d5 37bd f0b1 4b3e 4f10 533e
00000290: b9c6 ec3c a215 ef3e 31f3 413e 5a26 1fbe
000002a0: c31c 4abe 56b2 f43d 2b5b ea3e a087 9bbe
000002b0: 531b 0f3f b8ce 993d 4210 e83e f971 e43d
000002c0: 5088 a23c 3608 a7be a039 9c3b 485f 3fbe
000002d0: 36e6 693c 466c 1d3e 0546 d8bd cc30 11be
000002e0: 9674 56be c505 a2bc f372 f23d 9780 893e
000002f0: d014 fdbe 88e1 ac3a 177b 95be ad8f 93be
00000300: 124a 60be c7e8 44be dae2 0e3e f6c3 863e
00000310: 506a 153d f707 1bbe 62f0 b6be c47e 6b3e
00000320: 92f7 96bc b4ac e3bd 4524 0b3e 3a27 1ebe
00000330: 8fa8 9fbd 0703 d03e e37f 3f3e 94d6 e2be
00000340: 976b a7bd 0832 04be ac99 173f 8a0d 61bd
00000350: f840 ccbd e847 dfbd 2fcb 39be 8c46 453e
00000360: e581 73be 9ad3 77be 6a15 94bd 8103 d03b
00000370: 940c 81be 8456 2f3e 691c 0bbe e0f6 933e
00000380: 2176 0f3e 6a88 ddbe b5b3 97be 0415 51bd
00000390: a1b7 8bbe 1377 1c3e 85ad b13e d92b 8a3e
000003a0: 8cbd 863d eaec 04be ab69 d83c 9ccd 583e
000003b0: 3d0b ae3c 9ddb 13be 5777 8bbe cdf8 1abe
000003c0: 44d5 d8be 7b7d 043e 5737 853c 34fc cabd
000003d0: a12f 343e 7aa5 5abe 1cbc afbc 8a76 7ebd
000003e0: 53d2 143e f690 8abe b4a3 e63d c09a a3be
000003f0: 8a41 eb3d ba0c edbe 7dd8 883e ceee 36be

signal_classifier.body.0.layers1.0.bias f4 [16]
0.12908618 -0.12246406 -0.051690236 0.18433037 -0.109667756 0.004331424 -0.012459358 -0.03468637
0.008948321 -0.10206256 0.1772534 0.15318005 -0.14095 -0.076961406 -0.16597365 -0.084685564
00000000: 2b2f 043e 70ce fabd 24b9 53bd 1ac1 3c3e
00000010: 7d99 e0bd 9eee 8d3b 5622 4cbc 4c13 0ebd
00000020: fb9b 123c 2d06 d1bd ea81 353e 3bdb 1c3e
00000030: 3255 10be f19d 9dbd fff4 29be a06f adbd

signal_classifier.body.0.layers1.1.weight f4 [16]
1.0726438 1.0291238 0.9096383 1.0019319 0.9564273 1.000443 1.0148721 1.0844374
1.0514905 0.994647 0.96211845 0.8993075 0.92245835 1.0452489 0.91146725 0.9787355
00000000: 644c 893f 54ba 833f 0ede 683f 4e3f 803f
00000010: 6bd8 743f 840e 803f 54e7 813f d8ce 8a3f
00000020: 3e97 863f 30a1 7e3f 654d 763f 0439 663f
00000030: 3b26 6c3f b7ca 853f eb55 693f 698e 7a3f

signal_classifier.body.0.layers1.1.bias f4 [16]
0.08068533 0.03978537 0.04734429 0.026099248 0.045545805 0.11757254 -0.01952204 0.13642886
0.02649885 0.027212627 -0.06610254 -0.07967246 0.060538568 0.123760276 0.020552855 0.11587701
00000000: 5a3e a53d fcf5 223d 16ec 413d 17ce d53c
00000010: 3d8e 3a3d dfc9 f03d afec 9fbc 02b4 0b3e
00000020: 1e14 d93c 04ed de3c c560 87bd 512b a3bd
00000030: 4af7 773d 0776 fd3d 765e a83c ed50 ed3d

signal_classifier.body.0.layers1.1.running_mean f4 [16]
0.23405755 -0.06319977 0.054519206 0.7466007 -0.3741878 0.07081971 -0.032219682 -0.1845136
0.041389182 -0.41305164 -0.1040502 0.23500882 -0.5365461 0.028407631 0.2434874 -0.34544015
00000000: c8ac 6f3e e26e 81bd 884f 5f3d 3921 3f3f
00000010: 8b95 bfbe ed09 913d c9f8 03bd 22f1 3cbe
00000020: b487 293d 817b d3be 4518 d5bd 27a6 703e
00000030: 165b 09bf 1fb7 e83c c354 793e 88dd b0be

signal_classifier.body.0.layers1.1.running_var f4 [16]
0.9230346 0.722626 0.46493712 0.59859824 0.7988747 0.46414745 0.6617713 2.8453908
0.3329638 0.77837396 0.41475254 0.81125504 0.4491064 0.58023906 0.5596749 0.5303931
00000000: ff4b 6c3f 04fe 383f 3d0c ee3e bc3d 193f
00000010: 0d83 4c3f bca4 ed3e d869 293f e21a 3640
00000020: 3b7a aa3e 8443 473f 725a d43e 69ae 4f3f
00000030: 46f1 e53e 8c8a 143f db46 0f3f d8c7 073f

signal_classifier.body.0.layers2.0.0.weight f4 [16, 32, 1]
-0.21197361 0.29153082 -0.2277319 -0.5785443 -0.054503914 -0.12992544 0.69830173 0.070639774
0.46343184 -0.1686958 0.25398317 0.15840405 -0.16922942 -0.024245452 0.045274097 0.55273944
-0.054065082 0.20741577 0.16712789 -0.15289205 0.014840735 0.5024028 0.044334196 -0.319321
-0.6989721 -0.16018395 -0.4125068 -0.031029457 -0.21981506 0.114290915 0.21916772 0.22495322
-0.23031111 0.10921309 0.40115228 0.06251863 0.44690037 0.005324573 -0.111966684 0.08107598
-0.35586968 -0.27763307 0.19408506 0.089893274 -0.41332686 -0.27027762 -0.47956535 0.160182
0.24793142 -0.084034495 0.028739464 -0.054187175 0.07081023 0.030449275 -0.024103316 -0.42223674
0.14088923 -0.4925459 0.37892887 0.05732917 0.013183726 -0.3675883 -0.16530068 0.0025172762
-0.09753577 -0.13780929 -0.18319944 0.265761 0.082067706 0.042218905 0.09538874 0.2193317
0.32138103 -0.5473512 -0.08113509 0.2071198 -0.028454084 0.14039142 -0.14366902 -0.073244005
-0.11266192 0.037984427 -0.15286483 -0.32209545 0.103549145 0.17118387 -0.32365385 0.39936185
-0.22923493 0.1245325 -0.049571678 0.04346985 -0.23293677 -0.26925063 -0.116072506 0.71100855
-0.51350373 -0.531566 0.19701178 -0.325308 -0.2301111 -0.15938514 0.012769432 0.39837903
0.27172607 0.23875311 -0.18184479 -0.12906796 0.15767577 0.01332057 0.050279334 0.24583699
0.0619686 -0.18083057 -0.042524934 -0.3704746 0.3155086 -0.025919277 0.1704743 0.12650143
0.24157724 0.6805259 0.21075411 -0.2793158 -0.16937459 -0.05421001 -0.16254854 0.041196954
0.15475453 -0.13551909 0.055563167 -0.19659984 0.2421791 -0.41041484 -0.043647178 -0.2500576
0.18975617 0.11109525 -0.02321113 0.07850083 -0.7598886 -0.18418367 -0.27185184 -0.049065605
0.1889876 0.08911053 0.24415518 0.12771961 0.02289342 -0.28729644 0.4126196 0.17304093
0.25150332 0.13502283 -0.1298612 0.008957939 -0.6857861 0.006779485 0.13237749 0.32326207
0.13064209 -0.08202343 0.06068913 0.036056366 0.30928674 -0.12966086 -0.14157142 0.08851365
-0.012053342 0.19395825 -0.49988493 -0.5226046 0.20595472 0.42916834 0.38709468 -0.63287
-0.030793529 -0.006648667 0.0035911507 0.46471977 -0.096358396 0.83638775 -0.27738267 0.3051354
0.2506379 -0.2516157 0.05797919 -0.28104275 -0.32841057 0.078927286 -0.33018923 0.267368
0.019465847 -0.029881695 -0.08484618 -0.40676856 -0.32491082 0.56262505 -0.24540229 0.29831308
-0.009078656 -0.005646371 -0.100974776 -0.312325 0.16968687 0.23751026 0.5855291 0.44601625
-0.1527817 0.11091056 0.14237754 -0.1634753 0.09465464 0.31474844 -0.012238747 0.00856668
-0.020384384 0.032917716 0.01964947 0.08594198 -0.21786788 0.49699727 -0.28368637 -0.0033079807
-0.16968316 -0.03781859 -0.044671252 -0.48788854 0.057641275 -0.14402519 -0.6419795 -0.04838815
-0.35924524 0.1643537 0.096250914 -0.38592416 -0.22426017 -0.62098306 -0.012815347 0.12404426
0.039731327 0.23779018 -0.21188296 0.49937075 -0.025816957 -0.35875878 -0.079753906 -0.31097934
-0.027130056 0.099963754 -0.17162615 0.13648212 0.2778923 0.02919553 -0.10610348 0.13803636
00000000: 9c0f 59be 8743 953e 8d32 69be 7b1b 14bf
00000010: 7f3f 5fbd 2d0b 05be e7c3 323f 96ab 903d
00000020: f046 ed3e 97be 2cbe 150a 823e ac34 223e
00000030: 7a4a 2dbe 669e c6bc 5571 393d 5580 0d3f
00000040: 5973 5dbd cd64 543e 9323 2b3e bc8f 1cbe
00000050: 8e26 733c 789d 003f c697 353d 0b7e a3be
00000060: d6ef 32bf 4307 24be 1734 d3be 7d31 febc
00000070: 3317 61be 5b11 ea3d 816d 603e 235a 663e
00000080: add6 6bbe 1dab df3d d563 cd3e c409 803d
00000090: 20d0 e43e c179 ae3b ca4e e5bd 2a0b a63d
000000a0: 8d34 b6be ec25 8ebe 3cbe 463e f719 b83d
000000b0: 949f d3be d461 8abe 9789 f5be c006 243e
000000c0: bce1 7d3e 471a acbd 066f eb3c 5ff3 5dbd
000000d0: f404 913d c270 f93c 5174 c5bc 6a2f d8be
000000e0: 4445 103e fa2e fcbe f702 c23e fed1 6a3d
000000f0: 8e00 583c 8934 bcbe 9544 29be e3f8 243b
00000100: d5c0 c7bd e11d 0dbe a298 3bbe d311 883e
00000110: 1d13 a83d bbed 2c3d 2c5b c33d 7d98 603e
00000120: 0e8c a43e 351f 0cbf 272a a6bd 3617 543e
00000130: 8a18 e9bc c5c2 0f3e f91d 13be f400 96bd
00000140: 4bbb e6bd 8f95 1b3d 9988 1cbe b2e9 a4be
00000150: 9311 d43d d34a 2f3e f5b5 a5be 2879 cc3e
00000160: 90bc 6abe e50a ff3d ac0b 4bbd 710d 323d
00000170: fa86 6ebe 38db 89be 6cb7 edbd a804 363f
00000180: fb74 03bf b614 08bf 75bd 493e c58e a6be
00000190: 3fa2 6bbe dc35 23be e136 513c 56f8 cb3e
000001a0: ae1f 8b3e b27b 743e 8535 3abe 642a 04be
000001b0: c275 213e 853e 5a3c b4f1 4d3d b1bc 7b3e
000001c0: c9d2 7d3d a62b 39be a02e 2ebd d9ae bdbe
000001d0: 588a a13e aa54 d4bc d190 2e3e 9789 013e
000001e0: 0660 773e f236 2e3f edcf 573e 7b02 8fbe
000001f0: 8870 2dbe 510b 5ebd 2073 26be 23be 283d
00000200: f977 1e3e 84c5 0abe 3496 633d 7851 49be
00000210: ccfd 773e e521 d2be 62c7 32bd 8d07 80be
00000220: 714f 423e e885 e33d 4525 bebc 0bc5 a03d
00000230: 0f88 42bf a59a 3cbe 2a30 8bbe 04f9 48bd
00000240: f785 413e 957f b63d d103 7a3e eec8 023e
00000250: fb8a bb3c 8518 93be e042 d33e a431 313e
00000260: 0bc5 803e 6d43 0a3e 56fa 04be 52c4 123c
00000270: ae8f 2fbf 7126 de3b f78d 073e 9b82 a53e
00000280: 0ac7 053e e6fb a7bd 2a95 783d d7af 133d
00000290: d55a 9e3e d1c5 04be 19f8 10be a546 b53d
000002a0: 617b 45bc fe9c 463e ebf0 ffbe 6ac9 05bf
000002b0: cbe5 523e f4bb db3e 4631 c63e c503 22bf
000002c0: b642 fcbc 10dd d9bb 8359 6b3b c0ef ed3e
000002d0: 8d57 c5bd 821d 563f 1a05 8ebe b53a 9c3e
000002e0: 9c53 803e c6d3 80be 967b 6d3d d6e4 8fbe
000002f0: 6e25 a8be a1a4 a13d 900e a9be 75e4 883e
00000300: d776 9f3c 75ca f4bc d6c3 adbd f843 d0be
00000310: b65a a6be 3208 103f bd4a 7bbe 7ebc 983e
00000320: a5be 14bc 3105 b9bb ddcb cebd 10e9 9fbe
00000330: 65c2 2d3e e435 733e 3ce5 153f 3e5c e43e
00000340: ce72 1cbe 1325 e33d 6bcb 113e 1266 27be
00000350: 4bda c13d b526 a13e 0785 48bc 435b 0c3c
00000360: 27fd a6bc bad4 063d edf7 a03c 5902 b03d
00000370: c218 5fbe 6d76 fe3e 573f 91be b5ca 58bb
00000380: 6cc1 2dbe aae7 1abd 34f9 36bd 87cc f9be
00000390: 4219 6c3d 577b 13be c558 24bf a732 46bd
000003a0: feee b7be 564c 283e 331f c53d da97 c5be
000003b0: 75a4 65be bff8 1ebf 76f7 51bc eb0a fe3d
000003c0: 51bd 223d 457f 733e d9f7 58be 86ad ff3e
000003d0: 157e d3bc 3baf b7be 0456 a3bd af38 9fbe
000003e0: da3f debc ccb9 cc3d c4be 2fbe f8c1 0b3e
000003f0: e647 8e3e 772b ef3c c84c d9bd 6759 0d3e

signal_classifier.body.0.layers2.0.0.bias f4 [16]
-0.021441318 0.07364184 0.24273908 -0.055999182 0.119709834 0.14076452 0.022155046 0.13765208
-0.0068553775 0.049565602 0.036111023 -0.23935808 -0.14684913 -0.14048392 -0.18081349 -0.02265333
00000000: b4a5 afbc 88d1 963d 9890 783e 665f 65bd
00000010: 6e2a f53d 9324 103e 807e b53c abf4 0c3e
00000020: 13a3 e0bb 4d05 4b3d 27e9 133d 491a 75be
00000030: 9e5f 16be 04db 0fbe 2c27 39be 7a93 b9bc

signal_classifier.body.0.layers2.0.1.weight f4 [16]
0.9808241 0.9129692 1.0679954 0.99161774 1.0364319 0.9746019 0.97309196 1.0264258
0.9458904 0.9001755 1.1181506 1.0629195 0.89165986 1.082024 1.0025678 1.0250822
00000000: 4a17 7b3f 59b8 693f 13b4 883f a9da 7d3f
00000010: cda9 843f 837f 793f 8e1c 793f ec61 833f
00000020: e025 723f e771 663f 8f1f 8f3f bf0d 883f
00000030: d243 643f c37f 8a3f 2454 803f e535 833f

signal_classifier.body.0.layers2.0.1.bias f4 [16]
0.06079455 -0.04894445 0.035933837 0.027459275 0.059182342 0.056844663 0.05310071 0.1020315
-0.06830064 0.036806248 0.12870078 -0.035476614 0.03694659 0.052156013 0.10142979 0.06216886
00000000: b503 793d fa79 48bd 5c2f 133d 46f2 e03c
00000010: 2f69 723d f3d5 683d 2180 593d e4f5 d03d
00000020: 35e1 8bbd 26c2 163d 23ca 033e ed4f 11bd
00000030: 4f55 173d 8ba1 553d 6cba cf3d c6a4 7e3d

signal_classifier.body.0.layers2.0.1.running_mean f4 [16]
0.16750617 -0.11872013 0.23288636 -0.12801322 0.0069736126 0.1468795 0.11123449 -0.18096954
0.19283544 0.46251282 0.005399044 -0.25980568 -0.22226933 0.13141398 -0.056220606 -0.52858406
00000000: bd86 2b3e 8a23 f3bd c379 6e3e e615 03be
00000010: e782 e43b 9467 163e e9ce e33d 1450 39be
00000020: a776 453e 7bce ec3e 77ea b03b 4005 85be
00000030: 929a 63be 6391 063e 9447 66bd 4951 07bf

signal_classifier.body.0.layers2.0.1.running_var f4 [16]
0.5736593 0.50157756 1.0988793 1.0422307 0.58013093 0.7692641 1.0993254 0.66779137
0.6427978 0.45685667 2.8722384 2.0954285 0.34051672 0.54470885 3.5796058 1.588012
00000000: 56db 123f 6367 003f 14a8 8c3f d167 853f
00000010: 7683 143f 7eee 443f b2b6 8c3f 60f4 2a3f
00000020: 668e 243f 1ee9 e93e c1d2 3740 801b 0640
00000030: 3558 ae3e 0a72 0b3f 4318 6540 fa43 cb3f
